lightning_logs/lstm/version_4/epoch=19-step=87780.ckpt (torch, 120503 bytes, 57 tensors)

embed.weight f4 [387, 16]
0	0x00000000	0.0
1	0x00000000	0.0
2	0x00000000	0.0
3	0x00000000	0.0
4	0x00000000	0.0
5	0x00000000	0.0
6	0x00000000	0.0
7	0x00000000	0.0
8	0x00000000	0.0
9	0x00000000	0.0
10	0x00000000	0.0
11	0x00000000	0.0
12	0x00000000	0.0
13	0x00000000	0.0
14	0x00000000	0.0
15	0x00000000	0.0
16	0x3ee233da	0.44180185
17	0x3f8aedb9	1.0853797
18	0x3d534186	0.05157616
19	0x3e2ae500	0.16688919
20	0xbfa27c34	-1.2694154
21	0x3e0bc0c8	0.13647759
22	0x3e232e78	0.15935695
23	0x3e8e7b19	0.2782829
24	0x3d2b59d8	0.04183373
25	0x3ef8f82d	0.48626843
26	0xbd721caf	-0.059109386
27	0xbf1dc6e0	-0.61631584
28	0xbd9a329c	-0.07529184
29	0xbf3a0a6c	-0.7267215
30	0xbf70f411	-0.94122416
31	0x3e5125fc	0.20424646
32	0x3f270c8d	0.65253526
33	0x4002efb8	2.0458813
34	0x3ec19f07	0.3781664
35	0x3e0d1ffd	0.13781734
36	0xc0086ab8	-2.1315136
37	0xbb53677a	-0.0032257722
38	0x3f353f4c	0.7079971
39	0x3e87e4f6	0.2654187
40	0x3e8f2000	0.27954102
41	0x3f4e2906	0.80531347
42	0xbe1b3477	-0.15156732
43	0xbf4d266c	-0.8013675
44	0xbf2fc5ab	-0.6866099
45	0xbf7a8f14	-0.9787457
46	0xbf149aea	-0.5804888
47	0xbe01678e	-0.12637159
48	0xbed16608	-0.40898156
49	0xbd3d8999	-0.0462738
50	0xbe3f0c8e	-0.18657133
51	0x3e8b4e7e	0.27208322
52	0x3e96dfb6	0.29467553
53	0x3ff5a031	1.9189512
54	0xbfde1467	-1.7349976
55	0x3dde4640	0.10853243
56	0xbf8a1090	-1.0786304
57	0xbe17b87b	-0.14816467
58	0x3ee1c45c	0.44095123
59	0x3ec18641	0.3779774
60	0x3dd76434	0.10517159
61	0xbe0edc7b	-0.13951294
62	0xbe07eebe	-0.13274667
63	0x3f9920c7	1.1963128
64	0x3f1f6dfe	0.6227721
65	0x3faebf13	1.3652061
66	0xbe3e9c8f	-0.1861441
67	0x3ec08925	0.37604633
68	0xbf4a64a6	-0.7905983
69	0xbfdac78a	-1.7092144
70	0xbfafd4a6	-1.373677
71	0x3ed74d54	0.42051184
72	0xbee0c965	-0.43903652
73	0x3e32a759	0.1744665
74	0x3eb47f94	0.35253584
75	0xbed0e670	-0.4080081
76	0x3e3f945c	0.18708938
77	0xbecf42f3	-0.40480766
78	0xbf4e6bb5	-0.806331
79	0x3f81324c	1.0093474
80	0x3d89a9bc	0.067218274
81	0x3fa65e85	1.2997595
82	0xbca3e880	-0.020008326
83	0x3de9c5e6	0.11414699
84	0xbeeb335c	-0.45937622
85	0xbe6ff73f	-0.2343416
86	0xbe8eb0ae	-0.2786917
87	0x3e4ecc57	0.20195137
88	0x3f158db1	0.5841933
89	0x3f501b70	0.81291866
90	0x3da648c8	0.08119351
91	0xbebef171	-0.3729358
92	0x3c9fdbaa	0.019513924
93	0xbe338d83	-0.17534451
94	0xbaf67fe2	-0.0018806423
95	0x3f8a96ef	1.0827311
96	0x3e30b550	0.17256665
97	0x3e649232	0.22321394
98	0xbe575a6f	-0.21030591
99	0x3caa8971	0.02081749
100	0xbdba342d	-0.09091983
101	0xbee1372f	-0.43987414
102	0xbe0c07ae	-0.13674805
103	0x3e7d9613	0.2476428
104	0xbfb6aac8	-1.4270868
105	0xbf214f68	-0.6301179
106	0x3ed56453	0.41678104
107	0x3e0c2264	0.13684994
108	0x3ec7824f	0.38966605
109	0xbf3d5637	-0.7395968
110	0xbe6efbcf	-0.23338245
111	0x3f211bbb	0.6293294
112	0xbf3c310d	-0.73512346
113	0xbef7b704	-0.48381817
114	0x3d5acb38	0.05341646
115	0xbefb30f6	-0.49060792
116	0x3fb10b68	1.3831606
117	0xbd333f06	-0.043761276
118	0x3fdd5f58	1.7294722
119	0xbedc40a6	-0.43018073
120	0x3f4563fd	0.77105695
121	0xbde25afb	-0.110525094
122	0xbe0ab75a	-0.13546506
123	0x3f0b8940	0.545063
124	0x3dafb7d9	0.08579988
125	0x3cf1b8da	0.02950709
126	0xbe6da68e	-0.23208067
127	0xbf1bfde1	-0.60934263
128	0x3d90f7e6	0.07078533
129	0xbbe1c763	-0.006890224
130	0x3d967400	0.07346344
131	0x3ad75dee	0.0016431191
132	0x3e71e929	0.236241
133	0xbf48acaa	-0.78388464
134	0xbed32234	-0.41237032
135	0x3e490c9a	0.19633713
136	0xbeec3e3b	-0.46141228
137	0xbc145dea	-0.009055594
138	0x3f5f9150	0.87331104
139	0x3eac9fc4	0.33715641
140	0x3de40ed3	0.1113564
141	0xbdde7a14	-0.10863128
142	0xbea46d45	-0.32114616
143	0x3f212bc6	0.6295742
144	0x3ebbbacd	0.36665955
145	0x3fb7c5e5	1.4357268
146	0x3e5d229e	0.21595237
147	0x3e14de0d	0.1453783
148	0xbfdbb7eb	-1.7165502
149	0xbecb8281	-0.39748004
150	0x3f1f52d7	0.6223578
151	0x3e51ba3e	0.20481202
152	0x3e8bdcd9	0.2731693
153	0x3f36421d	0.7119463
154	0xbe479075	-0.194887
155	0xbf20ca69	-0.62808853
156	0xbea85507	-0.3287737
157	0xbf281152	-0.6565143
158	0x3f7366da	0.95078814
159	0xbe688c45	-0.22709759
160	0xbe8bba70	-0.27290678
161	0xbe0931fa	-0.13397971
162	0x3f501d93	0.81295127
163	0xbdef4668	-0.11683351
164	0x3d82caaf	0.06386315
165	0x3d83c8bf	0.06434774
166	0x3e99ac0d	0.30014077
167	0xbee35d9d	-0.4440736
168	0x3eabed31	0.335794
169	0xbc2303ea	-0.009949664
170	0xbce8d621	-0.028422417
171	0x3edfc427	0.4370434
172	0xbebee87c	-0.37286747
173	0x3d84dc8c	0.064873785
174	0x3d35b921	0.044366006
175	0x3d933a58	0.071888626
176	0x3e807143	0.25086412
177	0x3ef6221e	0.48072904
178	0xbe57732e	-0.21040031
179	0xbe9a2dcc	-0.30113065
180	0xbea83951	-0.3285623
181	0xbf89e72c	-1.0773673
182	0xbedcf5bd	-0.43156233
183	0x3f45259f	0.7701053
184	0xbf0e4abf	-0.55582803
185	0x3def554a	0.116861895
186	0xbda6b4d3	-0.08139958
187	0xbe1cd330	-0.15314937
188	0xbd6cbdfc	-0.05779837
189	0xbed6917c	-0.4190787
190	0xbf1e2a0f	-0.61782926
191	0x3f504f52	0.81371033
192	0xbe09cc13	-0.13456754
193	0xbe4db32f	-0.20087884
194	0xbd9b4bf7	-0.075828485
195	0xbd4b8a04	-0.04969217
196	0x3f5edf8d	0.8705986
197	0xbcf83f3c	-0.03030359
198	0x3ef4ef75	0.4783894
199	0xbdf21f8d	-0.11822424
200	0xbf149850	-0.5804491
201	0xbe53f1e4	-0.20697743
202	0x3f6e0973	0.9298317
203	0x3f05b835	0.522342
204	0xbb9f8d00	-0.0048691034
205	0x3f82af5a	1.0209763
206	0x3f296bb2	0.66179955
207	0x3f7515a9	0.95736176
208	0x3eebaa79	0.46028498
209	0x3f3a2844	0.7271769
210	0xbe142504	-0.14467245
211	0x3e00aeba	0.12566653
212	0xbf1d1f13	-0.6137554
213	0xbed654e0	-0.4186163
214	0xbea13513	-0.31485805
215	0x3ef42dd7	0.47691223
216	0xbeb79e8d	-0.35863152
217	0x3e6faf27	0.23406659
218	0x3e1b6ad1	0.15177466
219	0xbea1f797	-0.3163421
220	0x3dd67791	0.10472024
221	0xbeeff467	-0.46866152
222	0xbee4d047	-0.44690153
223	0x3f3a456c	0.7276218
224	0x3e14ee7a	0.14544097
225	0xbf8a2235	-1.0791689
226	0xbe14dcf4	-0.14537412
227	0xbd1ce105	-0.038300533
228	0x3eaf8a42	0.3428517
229	0xbbffe42f	-0.007809184
230	0xbee4e807	-0.44708273
231	0x3cee96b8	0.029124603
232	0xbf2c8999	-0.6739746
233	0x3dba6ff1	0.091033824
234	0x3ee25c9f	0.4421129
235	0x3f417074	0.75562215
236	0x3ce87164	0.028374381
237	0xbe4c9aae	-0.1998088
238	0x3a0b8c81	0.0005323366
239	0x3f2a10f3	0.6643211
240	0x3f2ef0da	0.6833626
241	0x3f6e2a7a	0.93033564
242	0xbd1b9934	-0.037987903
243	0x3e0f4453	0.13990907
244	0xbedec868	-0.43512273
245	0xbe6c5dfc	-0.23082727
246	0xbd4549f4	-0.04816623
247	0x3eaec575	0.34135023
248	0x3f6585cb	0.89657277
249	0x3eb19a11	0.34687856
250	0x3cb82bd1	0.02248183
251	0xbeee5b0d	-0.4655384
252	0xbe9c591c	-0.30536735
253	0xbf0dd70d	-0.55406266
254	0xbf95bac3	-1.169762
255	0x3edbc957	0.42927048

encoder1.weight_ih_l0 f4 [32, 17]
0	0x3e85c3cf	0.26125953
1	0xbe582228	-0.2110678
2	0xbe844a50	-0.25837946
3	0x3ea923a8	0.33035016
4	0xbd28d2d1	-0.041216675
5	0x3dee1a51	0.11626113
6	0x3e9369bc	0.28791606
7	0x3f163b93	0.58684653
8	0xbdfbf36c	-0.123022884
9	0x3bddad46	0.0067650406
10	0x3e289547	0.16463195
11	0xbe4feb17	-0.20304523
12	0xbd15cd10	-0.036572516
13	0xbe94ad61	-0.29038528
14	0x3e6c76a3	0.23092131
15	0x3ed04a4e	0.4068169
16	0xbea27163	-0.31727132
17	0xbe64b217	-0.22333561
18	0x3e7b65ae	0.24550506
19	0x3f082162	0.5317594
20	0xbdf0aa70	-0.117512584
21	0x3f0adfdd	0.5424784
22	0xbc847f74	-0.016174056
23	0x3e4bb903	0.19894795
24	0x3e59097d	0.21195026
25	0x3e4a99a9	0.19785179
26	0xbd9e388f	-0.077256314
27	0x3dfa482a	0.122207955
28	0xbd5c646a	-0.0538067
29	0xbbf557cd	-0.0074872733
30	0x3e24ec0e	0.16105673
31	0xbcf58d67	-0.029974652
32	0xbf088563	-0.5332853
33	0x3da69ab7	0.08134978
34	0x3e0d2bc2	0.13786224
35	0xbc2ff014	-0.010738391
36	0x3ec237d7	0.37933227
37	0xbde1ec06	-0.11031346
38	0x3e31608a	0.17321983
39	0x3d0af451	0.033924405
40	0xbea8dc43	-0.32980546
41	0xbf02c1ed	-0.5107716
42	0x3e1413c5	0.14460666
43	0xbec4d4bc	-0.38443553
44	0x3e80b2a3	0.2513629
45	0x3f5b6adc	0.8570993
46	0x3e882f7f	0.26598737
47	0x3cc005cc	0.023440264
48	0xbf128989	-0.5724111
49	0xbebce3a6	-0.36892432
50	0x3e2d9d64	0.16954571
51	0x3d892ebf	0.06698369
52	0x3ecac38a	0.3960231
53	0x3f24c445	0.64361984
54	0xbc57c8ed	-0.013170463
55	0xbe16d09d	-0.14728017
56	0xbf0af46e	-0.5427922
57	0x3b5c4076	0.0033607758
58	0x3e522aed	0.20524187
59	0xbd381214	-0.044939116
60	0x3ea76ea2	0.32701594
61	0x3de3a238	0.11114925
62	0xba91c795	-0.0011122102
63	0xbe9aac4d	-0.3020958
64	0xbdcd4178	-0.10022253
65	0xbe21ac9a	-0.15788499
66	0xbea90bd2	-0.3301683
67	0xbdc94537	-0.09827655
68	0x3ec3d905	0.3825151
69	0x3dc7fe6f	0.09765326
70	0x3dd79156	0.105257675
71	0xbeea34c6	-0.45743388
72	0x3e2348ce	0.15945742
73	0xbe984fd0	-0.29748392
74	0x3e455ee2	0.19274476
75	0x3eb4cb15	0.3531119
76	0x3c915936	0.017742734
77	0x3e137bf3	0.14402752
78	0x3ea09a1c	0.31367576
79	0x3da511bf	0.080600254
80	0xbedc02c2	-0.42970854
81	0xbebadbdc	-0.36495864
82	0xbe1eaae3	-0.15494876
83	0xbea98a9b	-0.3311356
84	0x3e53044d	0.2060711
85	0x3d6269d6	0.055276714
86	0x3e4691e8	0.19391596
87	0x3e6a67ce	0.22891161
88	0xbd4ce1c2	-0.050019987
89	0xbb8fefef	-0.004392616
90	0xbcfeb6bd	-0.031092996
91	0xbe654df5	-0.2239302
92	0xbec2fee5	-0.38085094
93	0x3e3ac8d0	0.18240666
94	0xbe3e173d	-0.18563552
95	0x3de19a7a	0.11015792
96	0x3e1acb5a	0.15116635
97	0xbd23f49d	-0.040028203
98	0x3e4fb1c9	0.20282663
99	0xbe2679f9	-0.16257466
100	0xbf58001b	-0.8437516
101	0x3f3ae852	0.7301074
102	0x3eaad15f	0.33362862
103	0x38e1926a	0.00010756108
104	0x3f09d8ea	0.5384661
105	0xbe3f41b4	-0.18677408
106	0x3df380c6	0.11889796
107	0xbe99501f	-0.2994394
108	0xbe04457a	-0.12917128
109	0x3edc3e4b	0.43016276
110	0xbe2fdfc0	-0.17175198
111	0xbe453cbe	-0.19261453
112	0x3e974f3f	0.29552647
113	0x3c873010	0.01650241
114	0xbea648c5	-0.32477394
115	0xbe8152b3	-0.25258407
116	0x3d993e5f	0.074825995
117	0x3dd0f318	0.102026165
118	0xbe00af09	-0.1256677
119	0xbe03d060	-0.12872458
120	0xbc11b08a	-0.008892188
121	0x3e5209fd	0.20511623
122	0xbeb33632	-0.35002285
123	0x3dfb8f5e	0.122832045
124	0xbf2a1dce	-0.6645173
125	0xbb6896f0	-0.0035490356
126	0xbd3144a2	-0.043278344
127	0x3e8062a3	0.25075254
128	0x3ce1ce83	0.027564293
129	0x3f09e5b5	0.5386613
130	0x3e4b9a41	0.19883062
131	0xbefcf956	-0.49408978
132	0x3dcf4d0c	0.101221174
133	0xbe0cddbf	-0.13756464
134	0xbe81dc46	-0.25363368
135	0x3dbf054e	0.09327184
136	0xbda0121a	-0.078159526
137	0xbe19f35b	-0.15034239
138	0xbe854985	-0.26032653
139	0xbd207844	-0.039177194
140	0xbe624b7a	-0.22099105
141	0xbe51919e	-0.20465705
142	0xbd343b13	-0.04400165
143	0x3e71f327	0.23627912
144	0x3ccaf423	0.024774617
145	0x3ddda56a	0.10822566
146	0xbdb4ef78	-0.088347375
147	0xbe533bae	-0.20628235
148	0x3ddb5a59	0.10710592
149	0x3c34cf1c	0.011035707
150	0x3ea65b5b	0.32491574
151	0x3e1d57ed	0.15365572
152	0xbebe3dfa	-0.3715666
153	0xbc45d70a	-0.012075195
154	0xbd8c9a99	-0.06865425
155	0xbd285089	-0.04109243
156	0xbea84883	-0.32867822
157	0xbd9cd74c	-0.07658252
158	0xbe954a82	-0.29158407
159	0xbe158c01	-0.14604189
160	0x3e3b9484	0.18318373
161	0xbd940f2d	-0.07229457
162	0x3d0f310c	0.034958884
163	0xbdb8b791	-0.090193875
164	0x3e1759a0	0.14780283
165	0xbba02a30	-0.0048878416
166	0x3e1abd6a	0.15111318
167	0xbddc673e	-0.107618794
168	0x3d873904	0.06602672
169	0x3e63a336	0.22230229
170	0x3cd63052	0.026146088
171	0xbe9f75ef	-0.31144664
172	0xbe8bdb7e	-0.27315897
173	0xbe4e8394	-0.2016738
174	0xbe5fe4d3	-0.21864633
175	0x3e143f5b	0.14477293
176	0xbd5c7fd9	-0.053832863
177	0xbf252daf	-0.6452283
178	0xbe9c10bf	-0.30481526
179	0xbed989b1	-0.42487863
180	0xbf1dcad3	-0.6163761
181	0x3e878121	0.26465705
182	0x3f0fe632	0.56210625
183	0xbb89e4a2	-0.0042081634
184	0x3e88cc23	0.26718244
185	0x3c753069	0.014965155
186	0xbc7a7668	-0.015287019
187	0x3c4325ad	0.011910838
188	0xbe0d8558	-0.13820398
189	0xbe48f8d4	-0.1962617
190	0xbaeec98e	-0.0018218027
191	0xbe462ab5	-0.19352229
192	0xbd018a22	-0.031625874
193	0x3db88ae8	0.09010869
194	0xbde6c2f2	-0.112676516
195	0xbd1e5aca	-0.038660802
196	0x3d2b5889	0.04183248
197	0xbe87dcd4	-0.26535666
198	0xbe21f334	-0.15815431
199	0xbcb6c65c	-0.022311382
200	0xbbbd32aa	-0.005773862
201	0x3ddccc4e	0.107811555
202	0x3e3f9851	0.18710448
203	0xbdd89b5f	-0.1057651
204	0xbdf837bb	-0.12120005
205	0x3dbd26aa	0.0923589
206	0xbe578106	-0.21045312
207	0x3ecd3d31	0.40085748
208	0xbdda5f5d	-0.1066272
209	0xbe08216e	-0.13294002
210	0xbe7d0af3	-0.24711208
211	0x3ed95f8a	0.42455703
212	0x3d47ae71	0.048750345
213	0x3e41ed97	0.1893829
214	0xbbd501c9	-0.006500457
215	0xbe246ad1	-0.16056372
216	0xbe27d4f8	-0.16389835
217	0x3e04fc92	0.12986973
218	0xbcc1b161	-0.023644151
219	0x3dcf65e9	0.1012686
220	0xbe1f326a	-0.15546575
221	0x3da45cc5	0.08025507
222	0x3df5ecd9	0.12008066
223	0x3ed4cbae	0.41561645
224	0xbe8f5c96	-0.28000325
225	0x3e6a2015	0.22863801
226	0xbe03b84a	-0.1286327
227	0x3c408bcb	0.011752079
228	0xbe96ca6b	-0.29451308
229	0x3e16aed1	0.14715125
230	0x3c80d1c9	0.015725033
231	0x3db5ea12	0.08882536
232	0x3eb8a22c	0.36061227
233	0xbeb35aa8	-0.35030103
234	0x3e3736cc	0.17891997
235	0x3e85387e	0.26019663
236	0xbd990463	-0.0747154
237	0x3ed0b575	0.4076344
238	0xbd730cec	-0.059338495
239	0x3dd20bb0	0.102561355
240	0x3d86daa5	0.06584672
241	0x3ebb2a96	0.36555928
242	0x3d1236bb	0.035696726
243	0x3e21715f	0.15765904
244	0x3cda0e48	0.026618138
245	0xbd580c1e	-0.05274593
246	0xbc5b4ee0	-0.0133855045
247	0x3e9d20b5	0.30689016
248	0xbdf7442e	-0.12073551
249	0x3df907e2	0.12159707
250	0x3df98ddc	0.12185261
251	0xbd32ebce	-0.043681912
252	0x3eacca68	0.33748174
253	0x3f00e703	0.50352496
254	0xbdd1bcdd	-0.10241101
255	0xbd11eda7	-0.035627034

encoder1.weight_hh_l0 f4 [32, 8]
0	0x3e84dc45	0.25949302
1	0x3e43938e	0.19099256
2	0xbe842ea2	-0.25816828
3	0xbe280d58	-0.1641134
4	0xbd48274d	-0.048865605
5	0xbd8c6f8d	-0.06857214
6	0x3e4998b2	0.19687155
7	0x3e54e8cd	0.20791931
8	0x3e27689a	0.16348496
9	0x3e2429fe	0.16031644
10	0x3e4d0e6e	0.20025036
11	0xbee67441	-0.4501057
12	0x3f251cbc	0.6449697
13	0xbeb813c4	-0.3595258
14	0x3f115787	0.5677418
15	0x3eef13a0	0.4669466
16	0xbe261a6a	-0.16221014
17	0xbdf8929c	-0.121373385
18	0xbd9a6050	-0.075379014
19	0xbdae28a4	-0.08503845
20	0x3c95ce8d	0.018286968
21	0x3d6379ba	0.05553601
22	0x3e41dac9	0.18931116
23	0x3e6d3561	0.23164894
24	0x3e93d966	0.288768
25	0x3e94d410	0.2906804
26	0xbe26995a	-0.16269436
27	0x3d473bbb	0.048640948
28	0x3e172d73	0.14763431
29	0xbf0e25c3	-0.5552637
30	0x3eaed49b	0.3414658
31	0xbba3a63c	-0.004994182
32	0x3e8f37cd	0.2797226
33	0x3f4e281f	0.8052997
34	0xbf268713	-0.65049857
35	0xbccbe804	-0.024890907
36	0x3ec274f9	0.37979868
37	0xbe514223	-0.20435385
38	0x3ec28f35	0.37999883
39	0x3f2e96f8	0.6819911
40	0x3e9b9440	0.30386543
41	0x3e5cb969	0.21555103
42	0x3e8f1bfd	0.2795104
43	0x3e9f3acb	0.31099543
44	0xbe3cb74d	-0.18429299
45	0x3eb98905	0.3623735
46	0xbdc6ed55	-0.09713236
47	0x3e6f4326	0.23365459
48	0xbeefffcf	-0.46874854
49	0xbd64f553	-0.055898022
50	0xbeb4c416	-0.35305852
51	0xbe75b903	-0.23996358
52	0xbdc6a095	-0.09698597
53	0x3e9be188	0.30445504
54	0x3e6c6ad9	0.23087634
55	0x3d6bfffd	0.057617176
56	0xbe075135	-0.13214572
57	0x3e680630	0.2265861
58	0xbd2ee1dc	-0.042695865
59	0xbdb216fc	-0.0869579
60	0x3bc138ee	0.005896679
61	0xbe86efbc	-0.26354778
62	0x3ded18b5	0.11576978
63	0xbe866339	-0.26247576
64	0xbea22e86	-0.3167612
65	0xbe85a0da	-0.26099283
66	0xbd9abe0d	-0.075557806
67	0x3eaefd38	0.34177566
68	0xbeab343f	-0.33438298
69	0x3d878405	0.066169776
70	0xbd8122e1	-0.06305481
71	0xbe85e0dd	-0.2614812
72	0xbe4783e3	-0.19483905
73	0xbe37cc7f	-0.17949103
74	0xbe8a4bd6	-0.27010983
75	0xbeb825d8	-0.35966372
76	0x3ee327cc	0.443663
77	0xbf031986	-0.5121082
78	0x3eef101c	0.46691978
79	0x3efdc040	0.49560738
80	0xbdd1a4eb	-0.10236534
81	0xbe0b8898	-0.13626325
82	0x3e8e5061	0.277957
83	0xbe65ed75	-0.22453864
84	0xbe2f8ed3	-0.17144327
85	0x3cd16332	0.025559995
86	0x3d067fd1	0.03283674
87	0x3d4c1a32	0.04982967
88	0x3da8116c	0.08206448
89	0xbdcbcbfe	-0.09951018
90	0x3ded2eb8	0.115811765
91	0x3b3e121d	0.0029002496
92	0xbd9f162b	-0.077679
93	0x3d39eb37	0.045390334
94	0xbf0769fd	-0.528961
95	0xbeb2e72a	-0.3494199
96	0x3c511e82	0.012763621
97	0x3d079609	0.03310207
98	0x3c1014e4	0.008794043
99	0x3e9f4f22	0.3111506
100	0xbc6d32b7	-0.014477423
101	0x3e8e7968	0.27827
102	0xbdbeef91	-0.093230374
103	0xbe70b724	-0.23507363
104	0xbe8576f6	-0.26067322
105	0xbe6f828a	-0.2338964
106	0x3cd2249f	0.025652228
107	0xbe58e8fc	-0.21182626
108	0xbe2e31d5	-0.17011197
109	0x3ec5ea06	0.38655108
110	0x3bb19e6c	0.0054204967
111	0xbdf0b2ec	-0.11752877
112	0x3cd80798	0.026370808
113	0x3dfc1910	0.12309468
114	0x3ced6bf6	0.028982144
115	0x3d09167b	0.033468705
116	0x3d9c4a0f	0.07631313
117	0xbec91f80	-0.39281845
118	0x3d91ef32	0.07125701
119	0xbdd99151	-0.1062342
120	0x3e8630d4	0.26209128
121	0x3eeda3aa	0.46413928
122	0x3d9d970d	0.07694826
123	0xbec59f6d	-0.38598195
124	0xbf06a56b	-0.5259616
125	0xbec799d2	-0.38984543
126	0x3da69e16	0.08135621
127	0x3e21e8dc	0.15811485
128	0x3c5d80fc	0.013519522
129	0xbd94c598	-0.072642505
130	0xbdb8e647	-0.09028297
131	0xbe321367	-0.17390214
132	0x3ece096c	0.40241563
133	0xbebaa9b8	-0.3645761
134	0xbe0a4459	-0.13502635
135	0x3edeeff5	0.43542448
136	0x3e0488ad	0.12942763
137	0x3df614e4	0.12015703
138	0x3dfc4a68	0.12318879
139	0xbe19cf3f	-0.15020464
140	0x3e2af73e	0.16695878
141	0xbe367608	-0.17818463
142	0x3f056d62	0.5212003
143	0x3f008f68	0.5021882
144	0xbe8881b3	-0.26661453
145	0x3de69f1d	0.11260817
146	0xbe9bb6f8	-0.30413032
147	0x3ed62a21	0.41829017
148	0xbeedf930	-0.46479177
149	0x3ea4e428	0.3220532
150	0xbf0591d0	-0.5217562
151	0x3dd43c74	0.10363093
152	0x3eb9c354	0.36281836
153	0x3e34e2b9	0.17664613
154	0xbd93c4fd	-0.07215307
155	0xbe9be1fa	-0.30445844
156	0x3ce87cb6	0.02837978
157	0xbf01fd2b	-0.5077693
158	0x3eba7e7b	0.36424622
159	0x3ebd1c30	0.36935568
160	0x3e191c5c	0.14952224
161	0xbc92ae0a	-0.017905254
162	0xbf2c1a3c	-0.6722753
163	0x3ed5275e	0.41631597
164	0xbd929e32	-0.071590796
165	0x3e4b3a74	0.19846517
166	0x3e2b7136	0.16742405
167	0x3e20ddcd	0.1570961
168	0xbd6b1946	-0.05739715
169	0xbec71ea0	-0.38890553
170	0x3d83355c	0.06406662
171	0xbed85155	-0.4224955
172	0x3d72a822	0.059242375
173	0xbd27fc35	-0.041012008
174	0x3eb2f34c	0.34951246
175	0xbe4f0faf	-0.20220827
176	0xbe36f76a	-0.17867818
177	0xbda9c519	-0.082895465
178	0xbdb8afa5	-0.090178765
179	0x3e75e54b	0.2401325
180	0x3e3503c7	0.17677222
181	0x3e059824	0.13046318
182	0xbe80ad31	-0.25132135
183	0xbdc63381	-0.09677792
184	0xbd73e411	-0.059543673
185	0x3e6d868a	0.23195854
186	0xbf0199b9	-0.5062519
187	0x3ed49839	0.41522387
188	0x3dca0508	0.09864241
189	0xbcf0408b	-0.029327651
190	0x3e1c7c05	0.15281685
191	0x3e81a8c3	0.25324067
192	0x3cbc8b70	0.023015708
193	0x3e9efd3e	0.31052583
194	0x3d297b6d	0.041377474
195	0x3d7c17bf	0.061546084
196	0x3ebce926	0.36896628
197	0xbf21927f	-0.6311416
198	0x3f0c77f0	0.5487051
199	0x3ea49a3a	0.32148916
200	0x3e798b60	0.24369574
201	0x3e91605a	0.28393823
202	0x3e8387c5	0.2568952
203	0xbf0b0c49	-0.5431562
204	0x3e76683e	0.24063203
205	0xbe2fc5e5	-0.17165335
206	0xbccefa4a	-0.025265832
207	0xbbf4b037	-0.0074672955
208	0xbcafa055	-0.021438757
209	0x3d2c6bba	0.042094924
210	0xbdeeee26	-0.11666517
211	0xbc5d4b62	-0.013506742
212	0x3df06eea	0.11739905
213	0x3e2cbff6	0.16870102
214	0x3cdfa35d	0.027299577
215	0xbdb91197	-0.09036558
216	0x3d94b2ea	0.07260688
217	0x3eb2df09	0.34935787
218	0xbf1286dd	-0.57237035
219	0x3d7b3563	0.06133021
220	0xbdc6961a	-0.09696598
221	0xbcde17e5	-0.027111003
222	0xbeb0b381	-0.3451195
223	0xbdca9f0a	-0.098936155
224	0x3d0a301b	0.033737283
225	0x3e4aa3fd	0.19789119
226	0xbe0b2a24	-0.13590294
227	0xbe98aec9	-0.2982085
228	0x3e455da4	0.19274002
229	0xbe74b741	-0.23898031
230	0x3efbbb5a	0.49166375
231	0x3e10eec5	0.14153583
232	0x3db7983c	0.08964583
233	0x3ebbc940	0.3667698
234	0x3e7d2b97	0.2472366
235	0xbe47a6dd	-0.19497247
236	0x3dfce6ef	0.123487346
237	0x3e88f5af	0.26749942
238	0x3e71490e	0.23563024
239	0x3e951d04	0.291237
240	0x3d950c06	0.07277684
241	0x3dcdcd7a	0.10048957
242	0xbda399e4	-0.07988337
243	0xbd27f92d	-0.041009117
244	0x3db395a9	0.0876878
245	0xbe6b7b6f	-0.22996305
246	0x3ec3c5a9	0.3823674
247	0x3d5ff6f6	0.05467888
248	0xbdaaff1d	-0.0834944
249	0x3dca3868	0.0987404
250	0xbec9d18e	-0.3941769
251	0x3db55331	0.08853758
252	0x3e448103	0.19189839
253	0xbea70db0	-0.3262763
254	0x3dbee1d8	0.0932042
255	0xbcdc8584	-0.026919134

encoder1.bias_ih_l0 f4 [32]
0	0x3e576cd9	0.21037616
1	0x3ec6fdaa	0.38865405
2	0x3ecbfbc8	0.3984053
3	0x3f35c0d8	0.7099738
4	0x3f406a1a	0.751619
5	0x3ebbc0a4	0.3667041
6	0x3daa640e	0.08319865
7	0x3ed54099	0.41650847
8	0xbeb3d6cd	-0.35124817
9	0x3e4016ba	0.1875867
10	0x3e3e1e9e	0.18566367
11	0xbf011996	-0.50429666
12	0x3e385889	0.18002523
13	0xbeb84fb9	-0.35998324
14	0xbd574de1	-0.052564505
15	0x3e0d8636	0.13820729
16	0x3f1d5ce3	0.6146986
17	0x3e3505df	0.17678021
18	0xbea9c0c5	-0.33154884
19	0x3efca688	0.49345803
20	0x3e10b8ad	0.14132948
21	0xbe9343fc	-0.28762805
22	0x3d94c32d	0.07263789
23	0x3f046a5d	0.517248
24	0x3ed4fd61	0.41599563
25	0x3d9e0e04	0.07717517
26	0x3cb71079	0.022346722
27	0x3df5589c	0.119797915
28	0x3ee9be7f	0.4565315
29	0x3eb5d410	0.35513353
30	0x3e4d0a64	0.20023495
31	0x3eb98701	0.36235812

encoder1.bias_hh_l0 f4 [32]
0	0x3e6ec5bd	0.23317619
1	0xbd333464	-0.043751135
2	0x3f00688a	0.50159514
3	0x3f23d377	0.63994545
4	0x3ea94b11	0.33065084
5	0xbdf2b122	-0.11850192
6	0xbe8168d0	-0.25275278
7	0x3efeac85	0.49740997
8	0xbf034fb6	-0.51293504
9	0xbdd0a864	-0.10188368
10	0x3eb5650a	0.3542865
11	0xbedb6cd7	-0.42856476
12	0xbd6c58c5	-0.057701845
13	0xbea5c8cd	-0.3237976
14	0xbf06fc58	-0.52728796
15	0x3ea91f7b	0.3303183
16	0x3ec30f7c	0.3809775
17	0x3ee7224e	0.4514336
18	0xbf07c275	-0.5303109
19	0x3ee3b279	0.444721
20	0x3f24c5ec	0.64364505
21	0xbe870aa1	-0.26375297
22	0x3e93a7a5	0.2883884
23	0x3f0573dc	0.5212991
24	0x3f00637e	0.50151813
25	0x3ea9d548	0.33170533
26	0x3dcd3c85	0.10021309
27	0x3e7149f6	0.2356337
28	0x3e6e5249	0.23273577
29	0x3e5a9ab6	0.2134808
30	0x3e1bbdb0	0.15209079
31	0xbd275601	-0.040853504

encoder2.weight_ih_l0 f4 [16, 8]
0	0xbe94c67f	-0.2905769
1	0x3de2277a	0.11042686
2	0xbe71a3b3	-0.23597603
3	0x3e0299c0	0.12753963
4	0x3f086065	0.53272086
5	0xbf62242f	-0.8833646
6	0xbd9c95d9	-0.07645769
7	0x3f377f87	0.71678966
8	0xbe400186	-0.18750581
9	0x3f4607de	0.77355754
10	0xbe38beec	-0.18041581
11	0xbe932a72	-0.2874332
12	0x3f5e0e82	0.8674089
13	0xbf1ea379	-0.6196819
14	0x3e733f36	0.23754582
15	0x3f833533	1.025061
16	0xbe469780	-0.1939373
17	0x3e25a725	0.16177042
18	0xbdf29bb2	-0.11846103
19	0xbef557e9	-0.47918633
20	0x3ed98ff5	0.42492643
21	0xbee2731a	-0.4422844
22	0x3eaa6d12	0.3328634
23	0x3f7bffbf	0.9843711
24	0xbe98dc3f	-0.29855534
25	0x3eebc17a	0.46046048
26	0xbf20f89a	-0.62879336
27	0xbf0118ae	-0.50428283
28	0x3f0da6f6	0.5533289
29	0xbf7334e9	-0.9500261
30	0x3e2aa97c	0.16666216
31	0xbda845c9	-0.082164355
32	0x3e23648c	0.15956324
33	0x3ea6b4a0	0.3255968
34	0xbede6088	-0.43433022
35	0x3f5b7fd7	0.85741943
36	0xbe57f827	-0.21090756
37	0x3f06ea56	0.5270132
38	0xbe7d14a5	-0.24714907
39	0xbd346d1a	-0.04404936
40	0xbf05d935	-0.52284557
41	0x3eadb6df	0.33928582
42	0x3d00889d	0.031380285
43	0x3de08bc5	0.10964159
44	0xbd864d75	-0.065577425
45	0xbec19041	-0.3780537
46	0xbea9a405	-0.3313295
47	0x3ca42b89	0.02004029
48	0xbf081659	-0.531591
49	0xbec2b7d9	-0.3803089
50	0x3f50dc0b	0.8158576
51	0xbf21db5b	-0.63225335
52	0xbd41469f	-0.04718649
53	0x3f2d7956	0.6776327
54	0x3e4eb955	0.20187886
55	0x3e06502a	0.13116518
56	0xbea32cb0	-0.3187003
57	0xbe4e4f41	-0.2014742
58	0x3e6fb792	0.2340987
59	0xbf453a41	-0.77042013
60	0xbec8d93d	-0.3922824
61	0xbe4eb94e	-0.20187876
62	0xbb14438b	-0.0022623267
63	0xbee592d0	-0.44838572
64	0x3eea23a6	0.45730323
65	0x3f6f4440	0.93463516
66	0xbf67991b	-0.90467995
67	0x3f395810	0.724
68	0xbea0f0ec	-0.3143381
69	0x3e85a231	0.26100305
70	0xbf599626	-0.84994733
71	0xbf2bac7a	-0.67060053
72	0xbf3b4694	-0.7315457
73	0x3d1042eb	0.035220068
74	0x3dc9247f	0.09821414
75	0xbf2c7560	-0.673666
76	0x3e8dcad7	0.27693817
77	0xbf0471b4	-0.51736
78	0x3dd0952d	0.10184703
79	0x3eef7df9	0.46775797
80	0xbeb33b18	-0.35006022
81	0x3ed98eb6	0.42491692
82	0xbf232c5c	-0.6373956
83	0xbe509f1f	-0.203732
84	0xbf0944af	-0.5362043
85	0xbeb7dc19	-0.3591011
86	0xbe943839	-0.28949144
87	0xbf18c306	-0.5967258
88	0xbf6a4685	-0.91513854
89	0xbed77779	-0.42083338
90	0xbe966b28	-0.2937863
91	0xbe4f55cf	-0.20247577
92	0x3ec71762	0.38885027
93	0xbead85c1	-0.3389111
94	0x3ee57ae4	0.4482032
95	0x3ef2e155	0.4743754
96	0x3e3143b9	0.1731099
97	0x3f471768	0.7777009
98	0xbf391697	-0.72300094
99	0x3e42425f	0.18970631
100	0xbcc5756f	-0.024103848
101	0xbe8f1277	-0.27943775
102	0x3e4a520c	0.19757861
103	0x3ef20e08	0.4727633
104	0x3ea3a298	0.31959987
105	0x3ed169eb	0.40901121
106	0xbf6480eb	-0.89259213
107	0xbf6ed2e5	-0.9329055
108	0x3f099cbb	0.53754777
109	0xbf21bd83	-0.63179797
110	0x3f5fa99e	0.8736819
111	0x3f85f416	1.0465114
112	0xbe825ba3	-0.25460538
113	0x3e1c5bb6	0.1526936
114	0xbe9a4b77	-0.301357
115	0x3e55538e	0.20832655
116	0x3f97e761	1.1867486
117	0xbef6ba1f	-0.48188874
118	0x3f828f67	1.0200013
119	0x3ed9c8fb	0.42536148
120	0xbec88b92	-0.39168984
121	0x3f301fdb	0.6879861
122	0xbee677aa	-0.4501317
123	0xbf123896	-0.57117593
124	0xbe11ba2a	-0.14231172
125	0xbf000ef4	-0.50022817
126	0x3ebdc64a	0.37065345
127	0x3e1826e5	0.14858587

encoder2.weight_hh_l0 f4 [16, 4]
0	0x3ed5020b	0.4160312
1	0x3f63da3b	0.8900487
2	0xbf836fcd	-1.0268494
3	0x3f31a276	0.6938852
4	0x3eeb9b2e	0.4601683
5	0x3f61051b	0.87898415
6	0xbf16f176	-0.5896219
7	0x3eb5f692	0.3553968
8	0x3f2fa652	0.6861316
9	0x3e214e01	0.15752412
10	0xbeac3f0a	-0.33641845
11	0x3ed0eb2c	0.40804422
12	0x3da93354	0.08261743
13	0xbe4bda06	-0.19907388
14	0xbf28019c	-0.65627456
15	0x3e92272a	0.28545505
16	0xbe4d9073	-0.20074634
17	0xbef77ac1	-0.4833584
18	0x3ed17225	0.40907398
19	0xbe23860c	-0.15969104
20	0x3d663629	0.056203995
21	0xbe5a27dd	-0.21304269
22	0x3ce90883	0.028446442
23	0xbe65b87d	-0.22433658
24	0xbcc0bcc7	-0.023527516
25	0xbe1b08d0	-0.1514008
26	0x3e9510a5	0.2911426
27	0x3e7ee4ab	0.24891917
28	0xbec6ea69	-0.38850716
29	0xbed94630	-0.4243636
30	0xbc927c5a	-0.017881561
31	0xbe9493b6	-0.29018945
32	0xbe637b3d	-0.2221498
33	0x3dc3e8ae	0.095658645
34	0xbe916dac	-0.28403986
35	0xbe787d95	-0.24266656
36	0xbc4b63b6	-0.01241391
37	0xbf08f28f	-0.53495115
38	0xbe377c65	-0.17918546
39	0x3e4a4f29	0.1975676
40	0xbd1c004f	-0.03808623
41	0xbe78314a	-0.24237552
42	0xbe4af23d	-0.19818969
43	0x3ed6bd8f	0.41941497
44	0x3e977d14	0.29587615
45	0x3d2fe4a0	0.042942643
46	0x3df1d9ea	0.11809142
47	0xbeab0c33	-0.33407745
48	0x3f328b24	0.6974356
49	0xbd61fd46	-0.05517318
50	0xbe14ba42	-0.14524177
51	0x3f0b0999	0.5431152
52	0x3f0ebeb9	0.5575977
53	0x3ef9e0c6	0.488043
54	0xbe653e45	-0.22387035
55	0x3f072047	0.52783626
56	0x3e8c660f	0.27421615
57	0x3f06f8b5	0.52723247
58	0x3ea9149f	0.33023545
59	0x3f2dbd3f	0.6786689
60	0x3ef81dfd	0.4846038
61	0x3e5c15f1	0.21492745
62	0xbebb068b	-0.3652843
63	0xbed88ef5	-0.42296568

encoder2.bias_ih_l0 f4 [16]
0	0x3f876b65	1.0579649
1	0x3f6312fc	0.8870084
2	0x3f29bb68	0.66301584
3	0x3e6ef958	0.23337305
4	0xbc2361c1	-0.009972037
5	0xbe3f0b9e	-0.18656775
6	0xbf467da7	-0.7753548
7	0x3e1572a3	0.14594512
8	0x3ed34b44	0.4126836
9	0xbef22816	-0.47296208
10	0xbeb2d4e8	-0.3492806
11	0xbe3eefe6	-0.18646201
12	0x3e2f048c	0.17091578
13	0x3f076a89	0.52896935
14	0x3e5be522	0.21474126
15	0x3e6cfb2e	0.23142692

encoder2.bias_hh_l0 f4 [16]
0	0x3e857394	0.26064742
1	0x3ebdf6b8	0.37102294
2	0x3f5fc527	0.87410206
3	0x3f25e86d	0.6480778
4	0xbeb0a4ac	-0.34500635
5	0xbec974bd	-0.39346877
6	0x3e0118a3	0.12607054
7	0xbd7d59d6	-0.061853252
8	0x3eb7f1f7	0.35926792
9	0x3e5379e7	0.20651971
10	0x3da65c9c	0.081231326
11	0x3ec66a67	0.38753054
12	0x3f898e02	1.0746462
13	0x3f29ca5a	0.6632439
14	0x3f2e9c46	0.68207204
15	0x3ed9ff4d	0.42577592

decoder1.weight_ih_l0 f4 [32, 4]
0	0xbc8a81c7	-0.016907586
1	0x3f499821	0.78747755
2	0xbeaeb393	-0.3412138
3	0x3f874654	1.0568337
4	0x3f2e33ff	0.6804809
5	0xbebfbd49	-0.374491
6	0xbeb9b097	-0.3626754
7	0xbb92153c	-0.0044580977
8	0x3e1efff2	0.15527323
9	0x3f14d712	0.5814067
10	0xbe9753b4	-0.29556048
11	0x3f59e55b	0.85115594
12	0x3ef23f5b	0.4731396
13	0x3f2abb31	0.6669188
14	0xbf724edc	-0.9465158
15	0x3ed5446c	0.41653764
16	0x3da6edbe	0.081508145
17	0x3f6942b0	0.9111738
18	0xbe99bfbf	-0.30029103
19	0x3f0008a4	0.50013185
20	0x3f3d8351	0.740285
21	0x3d22aec9	0.03971747
22	0xbf081a4b	-0.5316512
23	0x3e8a8c6e	0.27060264
24	0xbe8fa2fd	-0.28054038
25	0x3f138faa	0.5764109
26	0xbf0ef524	-0.55842805
27	0x3ebad388	0.3648951
28	0x3efbfd38	0.49216628
29	0x3f2e6a6a	0.68131125
30	0x3de5aa83	0.11214163
31	0x3edc3023	0.43005475
32	0x3da28bd8	0.07936829
33	0x3eee90ed	0.46594945
34	0x3ef42c4f	0.47690055
35	0x3eb44e51	0.35216
36	0xbc713f9a	-0.014724636
37	0xbf66cecc	-0.90159297
38	0xbe4a6e6b	-0.19768684
39	0xbf2802d4	-0.65629315
40	0xbed3e55a	-0.4138592
41	0x3ec82ba5	0.39095798
42	0xbdddd7a8	-0.10832149
43	0x3e5466a5	0.20742281
44	0xbeb89c07	-0.3605654
45	0x3f35c364	0.7100127
46	0xbf059f91	-0.52196604
47	0x3e63305e	0.2218642
48	0xbcac9deb	-0.021071395
49	0x3f09e2fa	0.53861964
50	0x3ed348be	0.41266435
51	0x3f159e60	0.58444786
52	0xbe2cf69f	-0.16890953
53	0xbf453ac0	-0.7704277
54	0xbf3f67f7	-0.7476801
55	0xbec9ddda	-0.39427072
56	0xbf228b14	-0.63493466
57	0xbe929686	-0.28630465
58	0xbf09d22d	-0.5383633
59	0x3e8769d1	0.2644792
60	0xbf096f24	-0.5368521
61	0x3f55b57f	0.83480066
62	0x3e1ffda5	0.15624101
63	0x3e69db92	0.22837666
64	0xbf2f3550	-0.68440723
65	0xbd4a40fa	-0.049378373
66	0xbf778530	-0.96687603
67	0xbd944290	-0.07239258
68	0xbf015c1a	-0.5053116
69	0x3eed04b1	0.46292642
70	0x3e6c3204	0.23065954
71	0x3ec3dcb6	0.38254327
72	0x3e8bb8e0	0.27289486
73	0xbef773c0	-0.48330498
74	0x3e9409e9	0.2891381
75	0xbf4826ce	-0.7818421
76	0x3ed7f4bb	0.42178902
77	0xbf5a6c87	-0.8532185
78	0x3f18f0a7	0.59742206
79	0xbe7ade12	-0.24498776
80	0xbeedad27	-0.46421167
81	0x3e6dd0d4	0.23224193
82	0xbe32fbe6	-0.17478904
83	0x3f2a26dd	0.6646555
84	0xbf42889f	-0.7598972
85	0xbc17ac7e	-0.009257434
86	0x3f423a69	0.75870377
87	0xbd9e78c5	-0.07737879
88	0x3ec5f753	0.38665256
89	0x3e33f91c	0.17575496
90	0x3f009e55	0.50241596
91	0x3c53ff15	0.012939234
92	0x3eafaf9e	0.34313673
93	0xbf4b2494	-0.7935269
94	0xbe8a9325	-0.27065387
95	0xbf7986ba	-0.974712
96	0x3d17431e	0.036929242
97	0x3f5623cc	0.8364837
98	0xbe24fb75	-0.16111548
99	0x3f8d9144	1.1059957
100	0x3ef96234	0.48707736
101	0xbeb15006	-0.34631366
102	0xbf58c6f0	-0.84678555
103	0xbf3ac957	-0.7296347
104	0x3cfdf8f5	0.031002501
105	0x3f2a478d	0.6651543
106	0xbd2640af	-0.04058903
107	0x3f6cd710	0.9251566
108	0x3e24eb84	0.16105467
109	0x3f2c8683	0.6739275
110	0xbf162b7f	-0.5866012
111	0x3ec5dc11	0.3864446
112	0xbee1fe78	-0.44139457
113	0x3f4dae8a	0.8034445
114	0x3dca6831	0.09883154
115	0x3f356ad1	0.70866114
116	0x3eb97b69	0.36226967
117	0xbf545d5b	-0.8295495
118	0xbec20875	-0.37897077
119	0xbf63888b	-0.88880223
120	0xbea3d77a	-0.32000333
121	0x3ecf5428	0.40493894
122	0xbec2cb22	-0.38045603
123	0x3f639a11	0.8890696
124	0x3ea0e093	0.31421337
125	0x3f7ba454	0.9829762
126	0xbe2cf7c4	-0.1689139
127	0x3f5894ad	0.8460186

decoder1.weight_hh_l0 f4 [32, 8]
0	0xbece4057	-0.40283462
1	0xbeb64716	-0.3560111
2	0xbf4e539f	-0.80596346
3	0xbf064a6d	-0.52457315
4	0x3f7a151c	0.9768846
5	0xbf06b4c7	-0.52619594
6	0xbebab6d5	-0.36467615
7	0xbecac957	-0.39606735
8	0xbe2cb2f6	-0.16865143
9	0xbeec38e2	-0.46137148
10	0xbde3ca4c	-0.111225694
11	0x3d1a0fbd	0.037612665
12	0x3d717fd8	0.058959812
13	0xbeccd657	-0.40007278
14	0xbe904a1d	-0.28181544
15	0xbd857885	-0.06517128
16	0xbd85f788	-0.065413535
17	0xbec5c2da	-0.38625222
18	0xbdef0260	-0.11670375
19	0x3e0fe8da	0.1405367
20	0x3b1ebe16	0.0024222187
21	0xbe9a5bc5	-0.3014814
22	0xbdb2c3dc	-0.087287635
23	0xbeab034c	-0.33400953
24	0xbe921076	-0.28528184
25	0xbf4df858	-0.8045707
26	0xbec4b1f4	-0.38417017
27	0xbe6cdfa1	-0.23132183
28	0x3e7372c9	0.23774256
29	0xbec6657a	-0.38749295
30	0xbf5151a8	-0.8176522
31	0xbf67d743	-0.9056284
32	0xbccdb7ea	-0.025112111
33	0xbd90f7b9	-0.07078499
34	0xbf147e58	-0.58005285
35	0xbe0dd02b	-0.13848941
36	0x3dbda029	0.09259064
37	0xbef02afc	-0.46907794
38	0xbecaf49f	-0.39639756
39	0xbdfb7f3c	-0.122801274
40	0x3ef44316	0.47707433
41	0x3c3ff26d	0.011715514
42	0xbedd4251	-0.43214658
43	0xbea15064	-0.31506646
44	0x3ed678c0	0.41889
45	0xbf0b2d4c	-0.5436599
46	0xbf007e24	-0.50192475
47	0x3c031281	0.008000017
48	0xbe2e3367	-0.17011796
49	0xbe7e5b0a	-0.24839416
50	0xbedf66e6	-0.43633193
51	0xbe828714	-0.2549368
52	0xbe23ebf4	-0.16007978
53	0xbf1acbde	-0.60467327
54	0xbeb9abdd	-0.36263934
55	0xbecc6593	-0.39921245
56	0x3df0ca6c	0.11757359
57	0xbe2f0846	-0.17093
58	0xbf05c5de	-0.52255046
59	0x3d055abe	0.03255724
60	0x3e527f28	0.20556319
61	0xbec73974	-0.3891102
62	0xbf3046bf	-0.6885795
63	0xbf1d58a1	-0.6146336
64	0x3e23ea27	0.16007291
65	0x3eb47972	0.35248905
66	0x3e7db653	0.24776582
67	0x3c1a2cd3	0.009410101
68	0xbeb4cea2	-0.35313898
69	0x3e9b0b50	0.30282068
70	0x3ee0f882	0.43939596
71	0x3d094cc6	0.033520482
72	0x3c9faa15	0.019490281
73	0xbd9eb2bb	-0.07748934
74	0xbe6b43f7	-0.22975145
75	0xbc18df86	-0.009330636
76	0xbb97f333	-0.004637146
77	0x3dae205b	0.08502265
78	0x3ecabea2	0.39598566
79	0xbe74a6ad	-0.23891707
80	0xbd625f0b	-0.05526642
81	0x3ce76a38	0.028248891
82	0xbe09dd74	-0.13463384
83	0x3c1247db	0.0089282645
84	0xbec4e9fa	-0.3845976
85	0x3e4b3581	0.19844629
86	0x3d9d116a	0.07669337
87	0xbe6de73c	-0.2323274
88	0x3d7c1c52	0.061550446
89	0xbda03221	-0.07822061
90	0x3e426531	0.18983914
91	0x3e861a3b	0.26191887
92	0x3e65cc23	0.22441153
93	0x3ed98687	0.4248545
94	0x3ce4fdf2	0.027953122
95	0x3dfc694a	0.1232477
96	0xbdb7541d	-0.0895159
97	0xbe161431	-0.1465614
98	0x3e3f9115	0.18707688
99	0xbea70e8f	-0.32628295
100	0x3daea19e	0.0852692
101	0xbd30ede7	-0.04319563
102	0xbdbc579e	-0.09196399
103	0xbceca5fa	-0.028887738
104	0x3e995689	0.29948834
105	0x3e1ae3e3	0.15125994
106	0x3db80b9c	0.08986589
107	0x3daf22b5	0.08551542
108	0x3eddfa9b	0.4335526
109	0xbe1be252	-0.15223053
110	0x3e3f0aaf	0.18656419
111	0xbd852157	-0.065005
112	0xbe8f3255	-0.27968088
113	0xbdc452ab	-0.0958608
114	0xbe1e047d	-0.154314
115	0xbdac792c	-0.08421549
116	0x3e02410b	0.12720124
117	0xbc97a169	-0.018509584
118	0x3c2538bd	0.010084328
119	0x3e06de4e	0.1317074
120	0x3eb9aaef	0.36263224
121	0x3e446dd5	0.19182523
122	0x3eb44717	0.35210487
123	0x3eb2a0f1	0.34888414
124	0xbe0d8f42	-0.1382418
125	0x3eb375cd	0.35050812
126	0xbe144b73	-0.14481907
127	0xbdfb85f0	-0.12281406
128	0xbea8f873	-0.33002052
129	0xbe1b5c61	-0.15171959
130	0x3d8bfd0b	0.068353735
131	0xbe0dd955	-0.13852437
132	0xbc5ee59b	-0.013604547
133	0xbd8852ba	-0.06656404
134	0xbda9a1bb	-0.08282801
135	0x3e5c1225	0.21491297
136	0x3e6a4de9	0.22881283
137	0xbeb3c4bd	-0.35111037
138	0x3ce73662	0.028224174
139	0x3ebc9ce3	0.36838445
140	0x3cd3e09e	0.025863942
141	0xbdb7b824	-0.08970669
142	0x3e9eb6b2	0.3099876
143	0x3e850286	0.25978488
144	0xbd65db24	-0.056117192
145	0x3e94e382	0.29079825
146	0x3e680260	0.22657156
147	0xbeaac534	-0.3335358
148	0x3eacb44c	0.33731306
149	0x3eae6ae4	0.34065926
150	0xbebff1ca	-0.37489158
151	0x3e4f77ac	0.20260495
152	0x3ed4d447	0.41568205
153	0xbe407c86	-0.18797502
154	0xbe90c5cf	-0.28275916
155	0xbe533be7	-0.2062832
156	0xbdc10acd	-0.09425888
157	0x3dd3e9ae	0.10347305
158	0x3c2f9a99	0.010718011
159	0xbeae31a3	-0.34022245
160	0xbea2d8a8	-0.3180592
161	0xbe82fdc6	-0.2558424
162	0xbe4c84eb	-0.19972579
163	0x3e56b40d	0.20967121
164	0xbdebbc58	-0.11510533
165	0x3d192710	0.03739077
166	0xbe85adeb	-0.2610925
167	0x3bc44e92	0.0059908116
168	0xbdbc2f32	-0.09188689
169	0x3e4d472d	0.20046683
170	0x3f03cde8	0.51486063
171	0x3de1459b	0.10999604
172	0x3d4fd6ff	0.050742146
173	0x3ce04823	0.027378147
174	0x3ef5a766	0.47979277
175	0x3e804888	0.25055337
176	0x3e8f4b6d	0.27987233
177	0x3e85074b	0.25982127
178	0x3eac471b	0.33648
179	0xbe602ef9	-0.21892919
180	0x3ebd79c0	0.3700695
181	0xbe3352ab	-0.17512004
182	0xbe5c5681	-0.21517374
183	0x3dbf7189	0.09347827
184	0xbcf99067	-0.030464364
185	0xbe90c16e	-0.28272575
186	0x3d7b8166	0.0614027
187	0xbe50a008	-0.20373547
188	0x3b3e281e	0.002901561
189	0xbda2e115	-0.07953087
190	0x3d4d321b	0.050096612
191	0xbe2be00f	-0.1678469
192	0xbea74bac	-0.3267492
193	0xbe9c12ba	-0.30483037
194	0xbeb0d40c	-0.3453678
195	0xbed0ccab	-0.4078115
196	0x3f60ed67	0.8786225
197	0xbeb8a29b	-0.36061558
198	0xbf752410	-0.9575815
199	0xbf4bc984	-0.79604363
200	0x3d6006d2	0.054694004
201	0x3d7c52b7	0.06160232
202	0xbef18532	-0.47171932
203	0x3e581e8a	0.211054
204	0x3e85d687	0.26140234
205	0xbed1951d	-0.40934077
206	0xbea2cf21	-0.31798652
207	0xbf066211	-0.5249339
208	0xbeb65083	-0.356083
209	0xbec7546a	-0.3893159
210	0xbf0d81f4	-0.5527642
211	0x3daedd9d	0.08538363
212	0x3e5a864a	0.2134029
213	0xbdcd645f	-0.1002891
214	0x3e04718b	0.12933938
215	0xbe0a7f84	-0.13525206
216	0xbece39c1	-0.40278438
217	0xbf489b2b	-0.7836177
218	0xbf722aea	-0.9459673
219	0xbe83dac3	-0.2575284
220	0x3f1041cb	0.5635039
221	0xbf5bc038	-0.8584018
222	0xbf82929b	-1.020099
223	0xbf3bd79d	-0.73375875
224	0x3e09bc97	0.13450848
225	0xbd035123	-0.0320598
226	0xbe87e7d7	-0.26544067
227	0xbda9d8ed	-0.082933284
228	0x3e4f8bb8	0.20268142
229	0xbedcfd34	-0.4316193
230	0xbd99f301	-0.075170524
231	0xbf17fca7	-0.5936989
232	0xbe4ea82e	-0.20181343
233	0x3e5fc4bd	0.21852393
234	0xbeb3c26f	-0.3510928
235	0x3e6d7a81	0.23191263
236	0x3e6ddeea	0.23229566
237	0xbe80ef2c	-0.25182474
238	0x3da039fc	0.0782356
239	0xbe8b5da7	-0.2721989
240	0xbe930a98	-0.2871902
241	0xbd044d56	-0.032300316
242	0xbece1440	-0.40249825
243	0x3da5b5d2	0.0809132
244	0x3ec2802b	0.3798841
245	0xbe048735	-0.12942202
246	0xbef1e26b	-0.47243056
247	0xbc9b1b02	-0.018933777
248	0xbe9b4b5d	-0.30330935
249	0xbf29ae4c	-0.6628158
250	0xbecad9c7	-0.39619276
251	0xbdf16027	-0.11785918
252	0x3e150b0a	0.14554992
253	0xbf4046c2	-0.7510797
254	0xbf1fb1d2	-0.6238071
255	0xbee3150b	-0.44351992

decoder1.bias_ih_l0 f4 [32]
0	0x3f4d4cd4	0.80195355
1	0x3f4b7dbc	0.7948873
2	0x3f2521d4	0.6450474
3	0x3f7594df	0.95930284
4	0x3e588d9d	0.21147771
5	0x3f514509	0.81745964
6	0x3db87d27	0.09008246
7	0x3effb4c5	0.49942604
8	0xbeedc6f0	-0.4644084
9	0xbaeb4846	-0.0017950616
10	0x3e52773b	0.20553295
11	0x3e3a6180	0.18201256
12	0xbd2bd44a	-0.0419505
13	0x3df0a843	0.117508434
14	0xbeb32699	-0.34990385
15	0xbddfd66f	-0.10929572
16	0xbd3b750c	-0.04576592
17	0xbebe00ed	-0.3711008
18	0xbef73170	-0.48279905
19	0xbe3c8e6c	-0.18413705
20	0xbd6fb1eb	-0.058519285
21	0xbf5bb7cc	-0.85827327
22	0xbee26c43	-0.44223222
23	0xbba9b3f9	-0.005178925
24	0x3f838d95	1.0277582
25	0x3e8d618c	0.27613485
26	0x3e4ec369	0.2019173
27	0x3f3d9342	0.7405282
28	0x3f0c8846	0.54895437
29	0xbb29f5ae	-0.002593379
30	0x3f248f91	0.64281565
31	0x3eb3255a	0.34989434

decoder1.bias_hh_l0 f4 [32]
0	0x3f411452	0.7542163
1	0x3e468384	0.19386107
2	0x3f451471	0.76984316
3	0x3f7f7552	0.9978839
4	0x3f0b329f	0.54374117
5	0x3f518e63	0.8185789
6	0x3f1fce2e	0.6242398
7	0x3f53a409	0.8267217
8	0xbea2e345	-0.31814018
9	0xbddc9d9a	-0.107722476
10	0x3e4b63cf	0.19862293
11	0x3d1193e5	0.035541434
12	0xbe7c09bf	-0.24613093
13	0x3f0077e0	0.50182915
14	0x3e986fd9	0.29772833
15	0xbe2384c8	-0.15968621
16	0x3bdc3329	0.006719966
17	0x3ab41848	0.0013740147
18	0xbeed1648	-0.46306062
19	0xbe70524c	-0.23468894
20	0x3ed9ec3d	0.42563048
21	0xbf0aa348	-0.541554
22	0x3d3dfb9c	0.04638253
23	0xbe90e404	-0.28298962
24	0x3ec128d4	0.37726462
25	0x3f09132a	0.5354487
26	0x3ea21721	0.3165827
27	0x3f7b21f4	0.98098683
28	0x3d99554b	0.074869715
29	0x3f242d2f	0.64131445
30	0x3dcc44df	0.099740736
31	0x3f06ac6c	0.52606845

decoder2.weight_ih_l0 f4 [32, 8]
0	0x3e6983e2	0.22804216
1	0xbe9d874e	-0.30767292
2	0xbf445a5d	-0.76700383
3	0xbf3fb7da	-0.7488991
4	0x3f1f7766	0.6229156
5	0xbebae7ab	-0.36504874
6	0xbebe00e4	-0.37110054
7	0xbef5e3f9	-0.48025492
8	0x3ba45e0b	0.0050160936
9	0xbedfa5aa	-0.4368108
10	0xbecc83dd	-0.39944354
11	0xbf33c25d	-0.7021845
12	0x3f43885b	0.76379937
13	0xbf69a6c7	-0.9127011
14	0xbf154273	-0.5830452
15	0xbf1e86c1	-0.6192437
16	0xbceb1282	-0.028695349
17	0xbea95784	-0.33074582
18	0xbed015fc	-0.40641773
19	0xbde0cde6	-0.10976772
20	0x3d725920	0.059167027
21	0xbf209152	-0.6272174
22	0x3daab2f0	0.08334911
23	0xbe4e49ea	-0.20145383
24	0x3e5e6daa	0.21721521
25	0xbe0f37f0	-0.13986182
26	0xbeb24c5f	-0.34823892
27	0xbdaa1065	-0.08303908
28	0x3dc866ab	0.09785207
29	0xbe761f8d	-0.24035473
30	0xbf4c4e2e	-0.7980679
31	0xbead93d4	-0.33901846
32	0x3ef5a796	0.4797942
33	0x3e0fbd78	0.1403712
34	0xbe69eea9	-0.22844948
35	0xbf285b73	-0.6576454
36	0x3ee648b8	0.44977355
37	0xbd1798cd	-0.037010957
38	0xbf0e27ac	-0.55529284
39	0xbeec0dce	-0.46104282
40	0xbeb36684	-0.3503915
41	0xbf08a926	-0.533831
42	0xbedfa8fb	-0.4368361
43	0xbf34e8a0	-0.7066746
44	0x3f618292	0.8808986
45	0xbf39dff7	-0.7260737
46	0xbeaf5290	-0.34242678
47	0xbf217c58	-0.6308036
48	0x3f1f2053	0.621587
49	0x3e549cc1	0.20762922
50	0x3c922cbb	0.017843595
51	0xbe6b7438	-0.22993553
52	0x3d3102cc	0.043215558
53	0x3ddb3f2e	0.1070541
54	0xbf032433	-0.5122711
55	0xbe8f8a73	-0.28035316
56	0x3eb2efaf	0.3494849
57	0xbda612c6	-0.081090495
58	0xbea51abd	-0.32246962
59	0xbe0f87d7	-0.14016663
60	0x3f01fbdf	0.5077495
61	0xbee425c9	-0.44560078
62	0xbe7f498a	-0.24930397
63	0xbefba6f0	-0.491508
64	0xbe4812bf	-0.19538401
65	0x3e525a92	0.20542362
66	0x3e9a29d7	0.30110046
67	0xbe0bf7e5	-0.13668783
68	0xbde6f5b5	-0.11277334
69	0x3e66f4bd	0.22554298
70	0x3f02b40c	0.5105598
71	0x3e906b3b	0.2820681
72	0x3e67e68e	0.22646543
73	0x3e8ab7ae	0.2709326
74	0x3ed10f8c	0.40832174
75	0x3e0d0190	0.13770127
76	0x3e16b66d	0.14718027
77	0x3e7f26ba	0.24917117
78	0x3cb43c5d	0.02200144
79	0x3e1164b2	0.14198568
80	0xbf00bea3	-0.5029089
81	0x3d597c10	0.05309683
82	0xbd8d00da	-0.06884928
83	0xbe648cf8	-0.223194
84	0xbeace396	-0.33767384
85	0x3e32f97f	0.17477988
86	0xbbcf83fc	-0.0063328724
87	0xbeb23ea1	-0.34813407
88	0x3f127ec5	0.57224685
89	0x3ed5988d	0.4171795
90	0xbcd0e4db	-0.025499752
91	0xbe36a471	-0.17836167
92	0x3e3047bd	0.17214866
93	0x3eba0f52	0.36339813
94	0xbe2f76b5	-0.17135127
95	0x3e692cae	0.2277095
96	0xbf0aedc8	-0.54269075
97	0x3e429dda	0.19005528
98	0x3e93e896	0.28888386
99	0xbdc8eb0d	-0.098104574
100	0x3e03b13e	0.12860581
101	0xbd84484e	-0.064591035
102	0x3f02c87f	0.5108718
103	0xbdf68f9c	-0.1203911
104	0xbe680d3f	-0.22661303
105	0x3eb58634	0.3545395
106	0x3eaf8852	0.34283692
107	0xbe21c9f0	-0.1579969
108	0xbe52ae6d	-0.2057435
109	0x3ea13541	0.31485942
110	0x3e239b7f	0.15977286
111	0x3c3aa9bf	0.01139301
112	0xbc8b6892	-0.017017636
113	0x3e635b24	0.22202736
114	0xbc4d4d63	-0.012530657
115	0xbdc5e537	-0.0966286
116	0x3ecb549a	0.39712983
117	0x3df7f9ca	0.1210819
118	0x3e152ee8	0.14568675
119	0xbdf0515e	-0.117342696
120	0xbe40c83f	-0.18826388
121	0x3e2a2dab	0.16618983
122	0xbdac452d	-0.08411632
123	0xbdfc1475	-0.12308589
124	0x3eb0e633	0.34550628
125	0x3ea275c3	0.3173047
126	0x3ea1f681	0.3163338
127	0xbd5b42c6	-0.053530477
128	0xbe983f55	-0.29735819
129	0xbf21f660	-0.63266563
130	0x3ded4e69	0.11587221
131	0x3f6daa78	0.9283824
132	0xbedaaac5	-0.42708412
133	0xbeaafe50	-0.3339715
134	0x3ed1df1f	0.4099054
135	0x3f224f4d	0.63402253
136	0x3d383e9d	0.044981588
137	0xbf1662b9	-0.5874439
138	0x3ee69ac9	0.45039967
139	0xbe2f512b	-0.17120807
140	0xbf19e926	-0.6012138
141	0xbf2ac87f	-0.6671218
142	0xbc89dd70	-0.016829222
143	0x3f4012fa	0.75028956
144	0xbe98b3c1	-0.2982464
145	0x3ea1c5ed	0.31596318
146	0xbede184d	-0.43377915
147	0xbf2dc81e	-0.6788348
148	0x3ec03a95	0.37544695
149	0xbe4e078c	-0.20120066
150	0xbe8556c6	-0.26042765
151	0xbf22e15f	-0.6362514
152	0x3f6568be	0.8961295
153	0x3d061fd4	0.032745197
154	0xbf08e408	-0.5347295
155	0xbf77251d	-0.96541005
156	0x3e7e261b	0.24819224
157	0xbbfda17b	-0.0077401972
158	0xbd3b9362	-0.045794852
159	0xbf030991	-0.5118647
160	0xbf7a24b9	-0.97712284
161	0xbe0f7623	-0.1400991
162	0x3e0215d0	0.12703633
163	0x3debfcb9	0.115228124
164	0xbeac3f58	-0.33642077
165	0xbe74387e	-0.23849675
166	0x3f198abf	0.59977335
167	0x3d8ef13d	0.06979606
168	0x3f70ad26	0.94014204
169	0xbdd53abd	-0.10411594
170	0xbdf5c90f	-0.120012395
171	0xbee280ae	-0.442388
172	0x3ce5195b	0.027966192
173	0xbe963a58	-0.29341388
174	0xbf084fbc	-0.53246665
175	0x3ebfc4d7	0.37454864
176	0x3dd6ff81	0.10497952
177	0xbd014d67	-0.031567957
178	0xbe4c9124	-0.19977242
179	0xbe246d22	-0.16057256
180	0x3f161a6b	0.5863406
181	0x3e3a1389	0.18171515
182	0x3db8fbd2	0.09032406
183	0xbe2237e3	-0.15841632
184	0x3ed3ecc4	0.41391575
185	0x3f10ee26	0.56613386
186	0x3c870c3a	0.016485322
187	0xbf0afd6f	-0.5429296
188	0x3ed51afd	0.41622153
189	0x3e7152e9	0.23566784
190	0xbe00ed56	-0.12590536
191	0xbebd162c	-0.36930978
192	0x3e2e1b55	0.17002614
193	0xbec709e0	-0.38874722
194	0xbeef6474	-0.46756327
195	0xbe9b3967	-0.30317232
196	0x3e996c38	0.29965377
197	0xbf40c7b8	-0.75304747
198	0xbf149c5b	-0.5805108
199	0xbf566474	-0.8374703
200	0xbe21ccbc	-0.15800756
201	0xbe5f4ea8	-0.21807349
202	0xbf5aaf07	-0.8542332
203	0xbf28da6e	-0.659583
204	0x3ee786af	0.45219943
205	0xbf09ac20	-0.53778267
206	0xbe8837fd	-0.26605216
207	0xbf008439	-0.50201756
208	0xbe9aca1e	-0.30232328
209	0xbeb3a152	-0.35084015
210	0xbf0d41bc	-0.5517843
211	0x3dc4a47e	0.09601687
212	0xbd422d3f	-0.04740643
213	0xbe41bfaf	-0.18920778
214	0xbe10116a	-0.14069143
215	0x3e1dcdba	0.1541051
216	0x3f114ca3	0.56757563
217	0x3ec2e97f	0.38068768
218	0xbf1e518b	-0.61843175
219	0xbedcf7a0	-0.43157673
220	0x3edc7893	0.4306074
221	0xbdb5575a	-0.088545516
222	0xbf286d18	-0.65791464
223	0xbe103451	-0.14082457
224	0xbd82cee6	-0.06387119
225	0xbdac7463	-0.084206365
226	0xbf493bc1	-0.786068
227	0xbf334c49	-0.70038277
228	0x3eb6bb45	0.3568975
229	0xbdb334c7	-0.08750301
230	0xbee4f627	-0.4471905
231	0xbe60658c	-0.21913737
232	0x3e6e0570	0.23244262
233	0xbe8a09e0	-0.2696066
234	0xbf14e8bf	-0.5816764
235	0xbec2c3a6	-0.38039893
236	0x3ec29086	0.38000888
237	0xbee9a882	-0.45636374
238	0xbed91c80	-0.42404556
239	0xbf44afc9	-0.76830727
240	0x3f03b8f6	0.51454103
241	0x3e3de6ca	0.1854507
242	0xbe820ce6	-0.25400466
243	0x3e0445cb	0.12917249
244	0x3f11e9c1	0.56997305
245	0xbe1e4425	-0.15455683
246	0xbf198483	-0.5996782
247	0xbe50599a	-0.2034668
248	0x3df74db2	0.12075366
249	0x3f21e9de	0.6324748
250	0xbf11990d	-0.5687416
251	0xbe606991	-0.2191527
252	0x3efb579e	0.49090284
253	0xbf01d1d4	-0.507108
254	0xbed742ed	-0.42043248
255	0xbf12d712	-0.5735942
