lightning_logs/lstm/version_2/checkpoints/epoch=19-step=20.ckpt (torch, 120439 bytes, 57 tensors)

embed.weight f4 [387, 16]
0.0 0.0 0.0 0.0 0.0 0.0 0.0 0.0
0.0 0.0 0.0 0.0 0.0 0.0 0.0 0.0
0.10118732 -0.8198822 1.0049456 0.72925377 0.74327 0.35202765 0.16852002 -0.13652042
-0.1873064 -0.20403227 -1.4570601 -0.5236649 0.4395461 1.9941142 -0.05262312 -0.23327747
0.3268403 1.2603829 1.307506 1.3009858 1.5740311 -0.21850608 -0.40854198 -1.3001122
-2.588728 -0.66750634 1.0205998 -0.45164698 -0.58714193 0.5902594 1.1037579 0.2896311
-2.2811413 2.5357285 -1.4395083 0.62794673 -0.78685516 1.2810867 -0.60934716 -0.102272764
1.8241891 -1.4330785 -0.9153475 0.6715028 0.840377 0.42949057 -1.2469994 -0.5512434
-1.6101851 0.97500694 -0.61809397 0.47026488 0.7132758 1.5871592 0.17802538 0.58908266
1.2539709 1.5963209 1.0165211 -0.2973175 -0.896104 -0.91052896 -0.17595544 1.4295019
1.5086086 1.3998734 0.5714421 1.7102282 0.47197968 0.5025162 0.5794459 0.0876954
1.7881913 0.29362264 1.3229545 -0.085759275 -2.203963 -0.03561729 -1.4346732 -0.60817426
2.1066933 0.6666517 -0.07693177 -0.020420171 -0.024419542 0.48919457 -0.3658408 0.15628767
0.27916995 -0.13648188 0.6899666 -0.5028961 0.094322875 2.3341496 0.5366851 0.39074388
0.41449994 1.9285859 0.47889695 0.96138334 -1.5419585 0.6510857 0.4616894 0.20876598
0.1623546 1.2064422 -0.48556766 -1.1652964 1.7651011 0.13114898 1.971631 -0.2447469
-0.58430207 0.37893793 0.81716293 -0.76168424 -0.93905574 -2.1881993 1.1321254 1.0327613
-0.46652454 0.76527697 0.081806034 0.5913206 1.9765776 -0.22667347 0.47255346 -1.4684013
2.1103668 -0.9284322 0.8995648 -0.16698244 0.55622596 -2.0560136 0.12106713 0.20275818
1.2469044 -0.19646372 0.13645463 -0.5642859 -0.31754723 -0.068762444 -1.123202 -0.97650814
-0.15866464 1.8047066 -0.09335894 -1.1853002 -0.2886773 -1.1460636 -0.3975425 0.568844
-0.7500895 1.2447635 0.40277424 1.5532824 -0.33949602 0.16491249 -0.55343467 1.2954837
0.10187402 -0.6767678 0.5229223 0.38178045 1.2594836 -0.7053871 -0.56749094 0.61277527
-1.3212851 -0.88594407 0.30223244 -0.2509397 0.3145906 0.2567072 -0.29652873 -0.99413294
-1.4179615 -0.847708 -0.6371358 -0.2218526 -1.1583153 -0.91874605 1.4970323 -1.3061029
0.20402813 0.62499785 -1.9765736 -1.6321015 1.32747 -0.25861782 -0.14826736 -0.7201278
-0.4870737 1.0933477 0.39680213 -0.001897555 0.80491453 0.196117 1.0159204 -0.9099852
-0.20227644 -0.58612037 -0.1426192 0.3189038 -0.5388328 0.39472407 1.0578678 -1.3998554
1.4110712 -1.249789 1.1348121 0.34836656 -0.23735663 -1.4595087 1.3517499 -1.0351917
0.28290996 -0.17863894 1.9439743 -0.34786543 -0.672668 1.3377248 -1.1767826 -0.24455547
-0.6535637 1.027307 1.4764496 0.21454355 0.5165903 -2.0657918 -0.4393893 -0.30025813
-0.05590065 1.0073314 -0.71347344 -1.2801715 0.41638058 0.059556734 0.73571444 0.5393065
00000000: 0000 0000 0000 0000 0000 0000 0000 0000
00000010: 0000 0000 0000 0000 0000 0000 0000 0000
00000020: 0000 0000 0000 0000 0000 0000 0000 0000
00000030: 0000 0000 0000 0000 0000 0000 0000 0000
00000040: 4c3b cf3d cde3 51bf 0fa2 803f 60b0 3a3f
00000050: f146 3e3f f83c b43e 8390 2c3e 02cc 0bbe
00000060: 40cd 3fbe d6ed 50be f280 babf e70e 06bf
00000070: 300c e13e 223f ff3f 578b 57bd 4ae0 6ebe
00000080: 9d57 a73e 3a54 a13f 5b5c a73f b486 a63f
00000090: da79 c93f 0fc0 5fbe 6a2c d1be 146a a6bf
000000a0: b8ad 25c0 b2e1 2abf 04a3 823f 463e e7be
000000b0: ef4e 16bf 3d1b 173f f047 8d3f 874a 943e
000000c0: 38fe 11c0 6049 2240 cf41 b8bf 1ec1 203f
000000d0: 576f 49bf a6fa a33f 2dfe 1bbf 6274 d1bd
000000e0: 077f e93f 1e6f b7bf 3754 6abf 9ce7 2b3f
000000f0: f222 573f 30e6 db3e ad9d 9fbf 4a1e 0dbf
00000100: 8c1a cebf 0e9a 793f 683b 1ebf 8fc6 f03e
00000110: 3e99 363f 0828 cb3f 494c 363e 1fce 163f
00000120: 1e82 a03f 3e54 cc3f 5d1d 823f 003a 98be
00000130: 1267 65bf 6d18 69bf aa2d 34be ebf9 b63f
00000140: 161a c13f 0d2f b33f 084a 123f c2e8 da3f
00000150: 52a7 f13e e7a4 003f 9156 143f a599 b33d
00000160: 74e3 e43f b555 963e 9356 a93f 8fa2 afbd
00000170: bb0d 0dc0 6fe3 11bd 5fa3 b7bf 4fb1 1bbf
00000180: 10d4 0640 b0a9 2a3f 678e 9dbd 3448 a7bc
00000190: 7e0b c8bc b677 fa3e 7c4f bbbe e009 203e
000001a0: 5def 8e3e e8c1 0bbe a7a1 303f ccbd 00bf
000001b0: 5a2c c13d b562 1540 3264 093f 950f c83e
000001c0: 5639 d43e e7db f63f fb31 f53e 381d 763f
000001d0: e55e c5bf 8dad 263f 8e62 ec3e c0c6 553e
000001e0: 4940 263e b36c 9a3f 539c f8be 6f28 95bf
000001f0: d5ee e13f eb4b 063e 685e fc3f ee9e 7abe
00000200: d294 15bf 2704 c23e 9731 513f bdfd 42bf
00000210: f565 70bf 750b 0cc0 7ce9 903f 8631 843f
00000220: 4edc eebe 31e9 433f ec89 a73d c960 173f
00000230: 7f00 fd3f 171d 68be 87f2 f13e 93f4 bbbf
00000240: 4010 0740 bcad 6dbf e149 663f 72fd 2abe
00000250: d364 0e3f ba95 03c0 0bf2 f73d d79f 4f3e
00000260: 909a 9f3f c92d 49be c3ba 0b3e 0a75 10bf
00000270: 8d95 a2be 53d3 8cbd 15c5 8fbf 70fc 79bf
00000280: fc78 22be a000 e73f f932 bfbd ebb7 97bf
00000290: 83cd 93be 36b2 92bf b18a cbbe c39f 113f
000002a0: de05 40bf 6954 9f3f 6d38 ce3e f5d1 c63f
000002b0: 6cd2 adbe d2de 283e e5ad 0dbf 69d2 a53f
000002c0: 54a3 d03d a840 2dbf 3cde 053f ba78 c33e
000002d0: c236 a13f 4094 34bf 1647 11bf d7de 1c3f
000002e0: df1f a9bf 3bcd 62bf 36be 9a3e 2b7b 80be
000002f0: 0512 a13e 206f 833e 9dd2 97be 7f7f 7ebf
00000300: c37f b5bf 6403 59bf 551b 23bf 542d 63be
00000310: ad43 94bf f132 6bbf c19e bf3f 612e a7bf
00000320: c0ec 503e dcff 1f3f 5d00 fdbf b4e8 d0bf
00000330: 89ea a93f 8e69 84be 66d3 17be 4c5a 38bf
00000340: b961 f9be d1f2 8b3f a629 cb3e 61b7 f8ba
00000350: e10e 4e3f e5d2 483e ae09 823f caf4 68bf
00000360: 8e21 4fbe fc0b 16bf c40a 12be 5c47 a33e
00000370: f2f0 09bf 4619 ca3e 3668 873f 762e b3bf
00000380: fb9d b43f 16f9 9fbf 8641 913f 1a5d b23e
00000390: 9e0d 73be 2ed1 babf 2406 ad3f 2981 84bf
000003a0: 93d9 903e 20ed 36be 26d4 f83f 6b1b b2be
000003b0: f833 2cbf 913a ab3f d0a0 96bf c06c 7abe
000003c0: f34f 27bf cc7e 833f 4dfc bc3f 4eb1 5b3e
000003d0: 433f 043f ef35 04c0 a2f7 e0be 6fbb 99be
000003e0: 14f8 64bd 3cf0 803f 32a6 36bf a9dc a3bf
000003f0: d62f d53e c3f1 733d c857 3c3f fe0f 0a3f

encoder1.weight_ih_l0 f4 [32, 17]
-0.20901215 0.037767656 -0.08888686 0.23416401 -0.13503666 -0.15704693 -0.22658964 0.013092646
-0.18915221 0.20051107 -0.26305866 0.012633404 0.16077694 -0.22078066 -0.18627365 0.010213197
-0.33407864 0.1892421 -0.119940236 0.19911036 0.0100041265 0.076234296 -0.30555183 0.33529714
0.14395805 0.33090648 -0.21702167 -0.23407179 -0.3049132 -0.22641166 -0.18711355 0.3107942
-0.21716942 0.057358727 0.075177945 0.24266586 -0.3218748 -0.035041425 -0.08403549 -0.012911572
-0.10120703 0.22519258 0.2655399 0.026350789 0.0017400667 0.32608858 0.24513242 -0.19175468
-0.25332773 -0.17530578 -0.23768432 -0.08943646 -0.2058884 -0.11202692 -0.32453057 0.33764705
-0.33389586 0.2216483 0.1607323 -0.15157087 -0.23988715 -0.18148702 0.34991157 -0.03723112
0.16435437 -0.077210814 -0.042468265 -0.16206686 -0.012700373 0.034335166 -0.26435336 0.34270954
0.23209634 -0.10654836 0.07533966 -0.18238896 -0.07676809 0.06302229 -0.16749443 -0.06610825
0.0154959615 0.021032961 0.24629304 0.25457242 -0.2937911 -0.013038028 -0.16460663 0.05570579
-0.1787206 0.02168689 -0.15253426 -0.30678535 -0.055754747 -0.19934241 0.18396209 0.10387871
0.2097015 0.23883924 0.08672699 0.19014493 -0.11620888 -0.24169596 -0.2009585 0.19962749
-0.06694915 -0.16777074 0.048305865 -0.13286205 -0.057982787 -0.17914847 -0.08147556 -0.3346908
0.027659485 -0.30778047 0.33838442 0.024406634 0.30663356 -0.06162858 -0.23382413 -0.13172615
0.3458415 -0.022595285 0.2829139 0.027707256 0.24352232 -0.19024523 -0.08625269 -0.11737847
-0.15649982 0.21621102 -0.3384611 0.26838917 0.25521806 -0.27079502 -0.12573881 -0.29280484
0.057992455 0.12552607 -0.014099333 0.1597238 -0.25371838 -0.17205161 -0.2209679 -0.13887952
0.059532963 0.19481924 0.09532194 -0.16171476 0.26421297 0.017712064 -0.17189875 0.1306309
0.082601145 -0.013687199 0.30708393 0.28430203 0.07503927 0.04088443 0.12369087 -0.29628265
0.32248494 0.31230646 0.15110026 -0.16257153 0.2515104 -0.35230398 0.14039102 0.21183527
0.06881878 -0.2474663 0.15997231 0.24681784 0.061554994 -0.2538319 -0.2678718 0.11259516
-0.11874871 0.13136573 -0.28586447 0.009355376 0.25846264 -0.3433619 -0.12399393 -0.29196632
-0.038645506 -0.32971844 0.3456804 0.18509036 0.22001752 0.08408856 0.20184524 0.0020147103
0.28863484 -0.21901879 -0.22309136 -0.036717698 -0.116944395 0.014868071 0.32497928 0.30711004
0.052329335 0.0030754646 0.16527873 -0.33091256 -0.06344407 -0.08678007 -0.31632313 0.08747798
-0.010488175 -0.08232596 0.29549837 0.35048565 -0.12602463 0.26082852 -0.17825942 0.0007737167
0.3080604 0.2403713 -0.23126276 -0.12500186 0.25961968 -0.2045373 0.017563462 0.027955515
-0.2927315 0.15919778 0.2701734 0.2373263 0.29416648 0.04282943 -0.27622628 0.16699675
-0.25722823 0.34011498 0.3405424 -0.14229809 -0.13259311 -0.054978 0.3161636 0.09073779
-0.21538663 0.09648211 0.13849911 0.16911805 0.2289305 0.26713753 0.12847406 -0.22805755
-0.27781376 0.03147643 -0.31338936 -0.04412502 -0.29771563 0.2834963 -0.13673039 0.09272907
00000000: 4807 56be 42b2 1a3d 500a b6bd b1c8 6f3e
00000010: 0d47 0abe e9d0 20be 1d07 68be 8a82 563c
00000020: 1eb1 41be c652 4d3e a0af 86be 56fc 4e3c
00000030: b6a2 243e 5314 62be 85be 3ebe 4155 273c
00000040: 5b0c abbe aec8 413e 3aa3 f5bd 96e3 4b3e
00000050: 59e8 233c ba20 9c3d 4a71 9cbe 11ac ab3e
00000060: bd69 133e 936c a93e ee3a 5ebe 84b0 6fbe
00000070: 951d 9cbe 75d8 67be b29a 3fbe 6b20 9f3e
00000080: a961 5ebe fcf0 6a3d e5f6 993d 667d 783e
00000090: c6cc a4be 9987 0fbd cd1a acbd 0f8b 53bc
000000a0: a245 cfbd e298 663e d9f4 873e 9cdd d73c
000000b0: f312 e43a 15f5 a63e fe03 7b3e 575b 44be
000000c0: 2cb4 81be 5c83 33be 8563 73be 762a b7bd
000000d0: 69d4 52be 5f6e e5bd df28 a6be 13e0 ac3e
000000e0: 66f4 aabe c6f7 623e 0297 243e 6535 1bbe
000000f0: faa4 75be bcd7 39be 9c27 b33e a97f 18bd
00000100: 834c 283e b420 9ebd 34f3 2dbd dbf4 25be
00000110: 3a15 50bc 08a3 0c3d 5359 87be a077 af3e
00000120: aaaa 6d3e 0736 dabd ae4b 9a3d 2cc4 3abe
00000130: 9738 9dbd d511 813d a983 2bbe c363 87bd
00000140: c6e2 7d3c 514d ac3c 3e34 7c3e 5157 823e
00000150: c96b 96be 749d 55bc a48e 28be c12b 643d
00000160: 8802 37be b4a8 b13c f131 1cbe f812 9dbe
00000170: 175f 64bd 6b20 4cbe 8f60 3c3e 5cbe d43d
00000180: fdbb 563e 4692 743e ec9d b13d 5ab5 423e
00000190: ecfe edbd 257f 77be 11c8 4dbe 266b 4c3e
000001a0: a31c 89bd 18cc 2bbe 5fdc 453d fd0c 08be
000001b0: 5c7f 6dbd b272 37be a9dc a6bd 985c abbe
000001c0: 2596 e23c 6795 9dbe b940 ad3e 6cf0 c73c
000001d0: 13ff 9c3e 406e 7cbd 986f 6fbe 38e3 06be
000001e0: 2312 b13e bf19 b9bc 17da 903e 54fa e23c
000001f0: ea5d 793e a5cf 42be 40a5 b0bd 2064 f0bd
00000200: 7d41 20be 6c66 5d3e c64a adbe 4e6a 893e
00000210: f1ab 823e a5a5 8abe adc1 00be 84ea 95be
00000220: 7f89 6d3d e889 003e e400 67bc a38e 233e
00000230: 60e7 81be 4c2e 30be 6945 62be 6f36 0ebe
00000240: d6d8 733d b27e 473e 2638 c33d 8e98 25be
00000250: ec46 873e e418 913c 3a06 30be 1bc4 053e
00000260: ca2a a93d 4640 60bc 1b3a 9d3e 0990 913e
00000270: 30ae 993d 6f76 273d a451 fd3d 5cb2 97be
00000280: bf1c a53e a2e6 9f3e 07ba 1a3e 2779 26be
00000290: f9c5 803e 3061 b4be aac2 0f3e 58eb 583e
000002a0: dcf0 8c3d ce67 7dbe c8cf 233e d1bd 7c3e
000002b0: 1721 7c3d 41f6 81be 7e26 89be 4b98 e63d
000002c0: 8632 f3bd bd84 063e d45c 92be 4a47 193c
000002d0: 3755 843e 22cd afbe 88f0 fdbd 9c7c 95be
000002e0: c04a 1ebd dbd0 a8be 05fd b03e 5488 3d3e
000002f0: 464c 613e 9f36 ac3d 85b0 4e3e 3b09 043b
00000300: f2c7 933e 7646 60be 1072 64be 4c65 16bd
00000310: 8b80 efbd 3699 733c af63 a63e 873d 9d3e
00000320: 4957 563d bc8d 493b d43e 293e 5f6d a9be
00000330: f7ee 81bd c0b9 b1bd 1bf5 a1be a827 b33d
00000340: 98d6 2bbc 839a a8bd 904b 973e db72 b33e
00000350: 9a0c 01be 518b 853e a389 36be 40d3 4a3a
00000360: 18ba 9d3e e523 763e 25d0 6cbe 7d00 00be
00000370: dfec 843e 3a72 51be 40e1 8f3c f702 e53c
00000380: e7e0 95be be04 233e 2b54 8a3e aa05 733e
00000390: fd9c 963e ea6d 2f3d 886d 8dbe 3201 2b3e
000003a0: 6bb3 83be 8d23 ae3e 935b ae3e 97b6 11be
000003b0: 7dc6 07be 9c30 61bd 32e0 a13e bcd4 b93d
000003c0: 508e 5cbe 6a98 c53d b6d2 0d3e 482d 2d3e
000003d0: c26c 6a3e 40c6 883e b48e 033e eb87 69be
000003e0: 9b3d 8ebe 6eed 003d 9274 a0be 70bc 34bd
000003f0: 2f6e 98be 6d26 913e 0d03 0cbe bde8 bd3d

encoder1.weight_hh_l0 f4 [32, 8]
-0.15046878 0.08996331 0.21381469 -0.09777557 0.33840024 -0.3444898 -0.34565789 -0.042228527
-0.30495405 0.012653799 0.2128839 0.2379097 -0.22530432 -0.29678634 -0.069674656 -0.26758438
-0.24353305 -0.05472976 -0.055528287 0.089021 -0.25609058 0.20918141 0.13665272 -0.34525558
-0.033094794 0.0077678817 0.24341144 -0.08528932 0.25690338 0.12458961 -0.028707264 0.20180628
-0.09393489 0.09794 -0.009146231 -0.1956204 -0.26615366 0.23876755 0.1454582 -0.31238127
-0.27087966 0.25300124 -0.2561076 -0.26521525 0.100303926 -0.10558054 0.03612995 -0.35233888
0.04106073 0.3297685 0.03021838 0.33960828 0.06428229 -0.058022488 0.17148477 -0.34738496
-0.15851362 0.123305894 0.12170308 -0.2734689 0.3205733 -0.2516735 0.33937028 0.20647557
0.08084862 -0.009595778 -0.30791205 -0.038240563 -0.20353511 0.25327894 -0.1865474 -0.15120362
-0.14944983 -0.23452166 -0.017083915 0.1979423 -0.31089503 0.1816735 -0.031258643 0.25257874
-0.047971535 0.10336676 -0.120393105 0.26029137 -0.19365685 -0.28419158 0.20968367 0.29852074
-0.25854576 0.05324632 0.042641923 -0.13177627 0.3448579 0.096159264 -0.1374256 -0.3011792
0.31088346 -0.060446735 0.2569217 -0.13492046 -0.23010336 0.219785 0.123069696 -0.3212571
0.078831285 -0.21678889 0.30684188 0.28733808 -0.055505835 0.33843777 0.107935786 -0.008680431
0.120071575 0.17939141 0.31946325 0.041290805 0.23716149 -0.019336708 0.28697422 -0.07386148
-0.02881732 -0.307608 -0.032322977 0.005876345 -0.31763023 0.035297804 -0.01626041 0.22091547
-0.117917836 0.09237062 0.34457716 0.28043902 -0.1920811 -0.20037831 -0.17826608 0.2715933
0.32147324 0.011304184 0.028046204 0.20280387 -0.13619728 -0.14384584 0.24875043 -0.042887785
0.22261357 -0.2868443 0.27009186 -0.3242245 0.29121283 -0.26017827 0.16064513 -0.25381696
0.13878526 0.21823606 -0.016313478 0.12958337 -0.23717654 -0.091542244 0.19124903 0.22188845
-0.31553394 0.26663086 -0.23121999 -0.13014153 -0.036852524 -0.029196851 0.25830755 0.083855085
-0.08549972 0.19099477 -0.18549816 -0.12777428 -0.19605832 -0.110270716 0.32952878 -0.27032644
0.16623929 0.2601191 -0.033820685 0.15959418 0.10938561 0.26412508 -0.15255076 -0.28877857
-0.16193864 -0.25751537 -0.21433008 -0.13946088 -0.33214206 -0.13029651 -0.08485093 -0.3019532
0.183889 -0.18538941 -0.054423388 -0.1897918 -0.24406841 0.1697211 -0.26369187 -0.17127773
-0.1520366 0.30110916 0.282573 0.06957849 0.13903472 -0.027638761 0.2977653 -0.15124379
0.32845196 -0.30884573 -0.11874149 -0.016030513 -0.02998358 -0.108000405 0.117571324 -0.12283811
0.196371 -0.10613887 0.14274722 -0.22679251 0.2194009 0.25565505 0.13424794 0.25462678
0.2745401 0.31958267 0.0665558 0.11329616 -0.22579473 0.28596935 -0.15088305 -0.32112524
0.21309236 0.24141988 0.012242629 -0.04302261 0.04110029 -0.14266019 0.101266675 -0.0012019541
-0.024983138 0.11624584 -0.15689372 -0.090737395 -0.10877583 -0.33835065 -0.24363601 -0.24002899
-0.17015225 -0.3279687 0.13998254 0.24745825 0.2628012 0.30736473 -0.25992683 -0.24746357
00000000: 7d14 1abe af3e b83d 3df2 5a3e 8f3e c8bd
00000010: cc42 ad3e f860 b0be 12fa b0be d2f7 2cbd
00000020: f022 9cbe e151 4f3c 3dfe 593e 9a9e 733e
00000030: 2db6 66be 61f4 97be 96b1 8ebd d200 89be
00000040: ba60 79be 502c 60bd a171 63bd a450 b63d
00000050: 4e1e 83be a733 563e b1ee 0b3e 57c5 b0be
00000060: 688e 07bd b789 fe3b d940 793e 2bac aebd
00000070: d788 833e d628 ff3d 7f2b ebbc 4ea6 4e3e
00000080: f060 c0bd c494 c83d 13da 15bc b750 48be
00000090: 4b45 88be 7b7f 743e fff2 143e 70f0 9fbe
000000a0: bdb0 8abe 6189 813e 8920 83be 4bca 87be
000000b0: 256c cd3d 9c3a d8bd 00fd 133d c365 b4be
000000c0: 4c2f 283d 6bd7 a83e 898c f73c 23e1 ad3e
000000d0: 6fa6 833d fda8 6dbd b499 2f3e 71dc b1be
000000e0: 6551 22be cd87 fc3d 773f f93d 1e04 8cbe
000000f0: 2f22 a43e 59db 80be f1c1 ad3e 556e 533e
00000100: f693 a53d 9c37 1dbc a6a6 9dbe 23a2 1cbd
00000110: 826b 50be c7ad 813e 4806 3fbe 1fd5 1abe
00000120: 6009 19be 7226 70be 91f3 8bbc 63b1 4a3e
00000130: a22d 9fbe 9e08 3a3e 1009 00bd 0052 813e
00000140: cd7d 44bd f4b1 d33d a990 f6bd e944 853e
00000150: fb4d 46be 8f81 91be 51b7 563e b6d7 983e
00000160: 1c60 84be d018 5a3d 4ca9 2e3d 5cf0 06be
00000170: 3791 b03e 26ef c43d 4cb9 0cbe 2934 9abe
00000180: 1e2c 9f3e ff96 77bd 3e8b 833e 9728 0abe
00000190: 37a0 6bbe 520f 613e f70b fc3d d07b a4be
000001a0: 4c72 a13d e8fd 5dbe 611a 9d3e fa1d 933e
000001b0: 165a 63bd b747 ad3e 700d dd3d 5e38 0ebc
000001c0: 16e8 f53d 62b2 373e b090 a33e 8c20 293d
000001d0: 76da 723e 0468 9ebc 49ee 923e b044 97bd
000001e0: 4d12 ecbc cc7e 9dbe 1965 04bd 5b8e c03b
000001f0: 6ea0 a2be 6e94 103d 8d34 85bc aa37 623e
00000200: e87e f1bd cf2c bd3d 6b6c b03e b495 8f3e
00000210: e8b0 44be f92f 4dbe 628b 36be 470e 8b3e
00000220: 2498 a43e 2f35 393c 27c1 e53c d1ab 4f3e
00000230: 4d77 0bbe 534c 13be 6fb8 7e3e 1aab 2fbd
00000240: d0f4 633e 42dd 92be 7b49 8a3e c100 a6be
00000250: d919 953e 1636 85be 2880 243e 4cf4 81be
00000260: b91d 0e3e 4679 5f3e d8a3 85bc 81b1 043e
00000270: 68de 72be 807a bbbd c9d6 433e ba36 633e
00000280: aa8d a1be d783 883e efc4 6cbe d243 05be
00000290: acf2 16bd 3c2e efbc e340 843e 37bc ab3d
000002a0: 7a1a afbd 2294 433e 3bf3 3dbe 43d7 02be
000002b0: 83c3 48be 9dd5 e1bd ffb7 a83e 3a68 8abe
000002c0: a23a 2a3e 552e 853e 8f87 0abd a86c 233e
000002d0: 9005 e03d 673b 873e 4436 1cbe c9da 93be
000002e0: 3ed3 25be 0ed9 83be 5879 5bbe d5ce 0ebe
000002f0: 860e aabe 736c 05be 53c6 adbd 9c99 9abe
00000300: 664d 3c3e b9d6 3dbe 0feb 5ebd c858 42be
00000310: 12ed 79be 5ecb 2d3e 9f02 87be 6e63 2fbe
00000320: 7caf 1bbe fb2a 9a3e 69ad 903e 2b7f 8e3d
00000330: 1e5f 0e3e af6a e2bc b274 983e a7df 1abe
00000340: db2a a83e 0721 9ebe bd2e f3bd 6c52 83bc
00000350: 20a0 f5bc 512f ddbd 3cc9 f03d 8c92 fbbd
00000360: 7b15 493e 565f d9bd 542c 123e 4c3c 68be
00000370: a1aa 603e 38e5 823e 4b78 093e 715e 823e
00000380: 8590 8c3e 57a0 a33e 684e 883d d107 e83d
00000390: bc36 67be 936a 923e 1681 1abe 876a a4be
000003a0: e234 5a3e c636 773e 4f95 483c 7a38 30bd
000003b0: c758 283d 8315 12be e764 cf3d e38a 9dba
000003c0: 70a9 ccbc 4d12 ee3d bfa8 20be 87d4 b9bd
000003d0: ddc5 debd 4c3c adbe b87b 79be 29ca 75be
000003e0: 643c 2ebe 83eb a7be 9557 0f3e b265 7d3e
000003f0: e18d 863e e95e 9d3e 2115 85be 1767 7dbe

encoder1.bias_ih_l0 f4 [32]
-0.053175822 0.11055307 -0.05699921 0.2926779 0.35118416 -0.0448194 -0.022436649 -0.26261356
0.01990798 -0.10359265 -0.1362034 0.06740572 -0.033321884 -0.3512384 0.3239949 -0.0626328
-0.1991884 0.16734888 0.31139782 -0.22623995 -0.100314826 -0.2565118 -0.18282028 -0.0753593
-0.09768918 -0.04104491 -0.15712906 0.29313168 0.28096107 0.19379303 -0.18040943 0.27710912
00000000: e4ce 59bd a669 e23d 0178 69bd e1d9 953e
00000010: 69ce b33e 8c94 37bd 10cd b7bc 4975 86be
00000020: 0f16 a33c 6228 d4bd e778 0bbe 030c 8a3d
00000030: 877c 08bd 85d5 b3be a9e2 a53e a045 80bd
00000040: 0bf8 4bbe 815d 2b3e 896f 9f3e 72ab 67be
00000050: dc71 cdbd 8455 83be 3d35 3bbe fa55 9abd
00000060: 4411 c8bd b51e 28bd 71e6 20be 5b15 963e
00000070: 21da 8f3e ae71 463e 40bd 38be 3fe1 8d3e

encoder1.bias_hh_l0 f4 [32]
-0.070691824 -0.13286996 0.053869333 -0.32609233 -0.0075118258 -0.07651454 0.196889 -0.3304496
-0.0060318722 0.07884562 0.210294 0.22835323 0.20500264 -0.03780254 -0.23158547 -0.060584478
-0.22340927 0.07451028 -0.10512918 -0.29342073 -0.015117336 -0.058287397 0.09832743 0.26631674
0.29092154 -0.26325217 0.21608907 0.22950706 -0.15913107 -0.059707925 -0.33592984 0.065323375
00000000: e0c6 90bd 100f 08be 17a6 5c3d 93f5 a6be
00000010: c325 f6bb a8b3 9cbd 459d 493e b130 a9be
00000020: 03a7 c5bb d079 a13d 4f57 573e 6ed5 693e
00000030: 36ec 513e d6d6 1abd be24 6dbe 6e27 78bd
00000040: 66c5 64be d898 983d f84d d7bd 3e3b 96be
00000050: b4ae 77bc c4be 6ebd e45f c93d ab5a 883e
00000060: abf3 943e fdc8 86be 7446 5d3e e603 6b3e
00000070: 41f3 22be 4c90 74bd fffe abbe 43c8 853d

encoder2.weight_ih_l0 f4 [16, 8]
0.17147355 0.11796434 0.019024407 0.36913085 -0.37032896 -0.062712535 0.16470166 0.16337436
-0.45188642 0.14745241 0.14802575 0.41147202 0.03111262 -0.3219372 -0.20174372 0.15929168
-0.32486492 -0.35830835 0.058419514 -0.16341037 0.48517823 -0.22164397 0.2703238 0.48157042
-0.2849462 0.1379711 0.28661972 -0.312123 0.4972591 -0.307868 -0.24570966 -0.26490763
0.13867263 -0.4084755 0.053881742 -0.3643403 0.1195282 -0.32744834 -0.4140051 -0.32304707
0.33725283 -0.09477682 -0.015984936 0.3614575 -0.011125365 -0.0035785704 0.15564553 -0.086623065
-0.06446957 0.0716668 0.04559586 0.37227294 0.2546609 -0.080417566 -0.06213021 0.26667133
0.34167355 0.19524127 0.36398494 -0.26159444 -0.42627776 0.0122018065 -0.037995808 0.37115073
0.4684802 -0.36329404 0.24297388 -0.29180947 -0.27440357 -0.14440516 0.15372737 7.413757e-05
-0.46546984 -0.38288027 0.23982847 -0.040383577 -0.31164104 -0.16416399 -0.2217449 0.39492798
0.2768154 -0.47503173 -0.22681612 0.36181524 0.34977072 0.0009257451 -0.21478634 -0.4615788
-0.3620066 -0.26407695 -0.34263682 -0.24953565 0.0073224497 -0.22294684 -0.16779363 -0.030318432
-0.008610169 0.06718386 0.4856733 -0.1540966 -0.34722286 -0.44922167 -0.48712608 -0.22814077
-0.36842734 -0.39358813 0.14971484 0.03829982 0.14113869 0.2899049 0.15330961 0.011272845
0.22131394 0.36007947 0.48823202 0.4981544 -0.2595411 0.3189391 -0.079512976 -0.4394918
-0.085829616 -0.07937621 0.27025765 0.064004086 -0.47148708 0.18514916 -0.26596177 -0.013515984
00000000: c396 2f3e 4a97 f13d 13d9 9b3c b8fe bc3e
00000010: c29b bdbe 6e6f 80bd 8da7 283e 9c4b 273e
00000020: a85d e7be c4fd 163e 1094 173e 76ac d23e
00000030: e5df fe3c f4d4 a4be e895 4ebe 5c1d 233e
00000040: b254 a6be 3174 b7be 4d49 6f3d 0c55 27be
00000050: 4869 f83e a3f6 62be e267 8a3e 6690 f63e
00000060: 78e4 91be 4c48 0d3e d2bf 923e 96ce 9fbe
00000070: bf98 fe3e e0a0 9dbe 509b 7bbe f9a1 87be
00000080: 3300 0e3e b323 d1be 1ab3 5c3d d08a babe
00000090: 33cb f43d 4fa7 a7be 7af8 d3be 6d66 a5be
000000a0: 67ac ac3e 591a c2bd d7f2 82bc f510 b93e
000000b0: 2a47 36bc 7386 6abb 8b61 1f3e 6f67 b1bd
000000c0: 9f08 84bd 0bc6 923d b9c2 3a3d 8f9a be3e
000000d0: ea62 823e f7b1 a4bd 3f7c 7ebd 2589 883e
000000e0: d6ef ae3e 54ed 473e 3c5c ba3e b5ef 85be
000000f0: 1441 dabe 16ea 473c 7ea1 1bbd 7807 be3e
00000100: a3dc ef3e ad01 babe 25ce 783e 0d68 95be
00000110: a07e 8cbe f2de 13be b56a 1d3e 4e7a 9b38
00000120: 1052 eebe e208 c4be 9895 753e 4069 25bd
00000130: 6a8f 9fbe 9b1a 28be 1811 63be 0034 ca3e
00000140: c0ba 8d3e 5c37 f3be 7c42 68be d93f b93e
00000150: 2615 b33e b4ad 723a f3f0 5bbe 0e54 ecbe
00000160: ee58 b9be 1835 87be 186e afbe 4686 7fbe
00000170: 29f1 ef3b 2d4c 64be 18d2 2bbe 5c5e f8bc
00000180: ab11 0dbc b197 893d 2caa f83e 80cb 1dbe
00000190: 32c7 b1be 6200 e6be 9768 f9be bc9d 69be
000001a0: 82a2 bcbe 6284 c9be d94e 193e 46e0 1c3d
000001b0: a986 103e 6a6e 943e 32fd 1c3e bdb1 383c
000001c0: 1fa0 623e 565c b83e 8cf9 f93e 180e ff3e
000001d0: 92e2 84be fc4b a33e b3d7 a2bd 1205 e1be
000001e0: 70c7 afbd ff8f a2bd 365f 8a3e 9314 833d
000001f0: c166 f1be be97 3d3e 242c 88be 2572 5dbc

encoder2.weight_hh_l0 f4 [16, 4]
-0.1766249 -0.46939695 -0.2650696 -0.088275395 -0.3365201 0.22726062 0.23157224 -0.44567144
0.4308342 -0.2446988 -0.26237077 -0.29413617 -0.4553065 0.37092555 0.29932737 0.08974818
-0.4300082 0.025024097 0.22447541 0.07886882 0.20754693 -0.25794494 0.14758076 -0.123799466
0.36567172 -0.23586729 -0.34619868 -0.33037573 0.2152856 -0.33301747 0.39384118 -0.22605202
-0.48941872 -0.2937914 -0.2742421 0.28689218 0.044853814 -0.2966524 -0.35640746 0.38992372
0.27467424 -0.40594852 0.34312123 -0.47526067 0.21385203 -0.23600154 -0.31139752 -0.13326335
-0.36259705 -0.20804329 -0.24531974 0.1075962 -0.2993198 -0.47189024 0.11768078 0.12165955
-0.43024936 -0.44065878 0.16042891 0.36072052 -0.36678976 0.08236406 -0.19587001 -0.29429302
00000000: 28dd 34be cc54 f0be 34b7 87be bbc9 b4bd
00000010: 5d4c acbe 02b7 683e 4621 6d3e 0c2f e4be
00000020: 4d96 dc3e 5292 7abe 7655 86be 0499 96be
00000030: ef1d e9be f4e9 bd3e 7041 993e e5cd b73d
00000040: 092a dcbe 56ff cc3c e2dc 653e fa85 a13d
00000050: 2f87 543e 5c11 84be 691f 173e 938a fdbd
00000060: 5339 bb3e 3287 71be f440 b1be 0227 a9be
00000070: d473 5c3e 4481 aabe 8da5 c93e 2e7a 67be
00000080: 1795 fabe d46b 96be 7669 8cbe 88e3 923e
00000090: a2b8 373d d3e2 97be 0a7b b6be 15a4 c73e
000000a0: 1aa2 8c3e 7cd8 cfbe 96ad af3e 5e55 f3be
000000b0: 07fc 5a3e 63aa 71be 7f6f 9fbe 3076 08be
000000c0: 52a6 b9be 4d09 55be 1935 7bbe 665b dc3d
000000d0: 7240 99be 999b f1be 9f02 f13d a428 f93d
000000e0: a549 dcbe 079e e1be 7a47 243e 5cb0 b83e
000000f0: decb bbbe 7dae a83d 2692 48be 93ad 96be

encoder2.bias_ih_l0 f4 [16]
0.021708535 0.30430874 -0.43743625 0.20339204 -0.21859078 -0.32954946 -0.40120408 0.0956694
-0.06433335 -0.003997554 -0.14680538 -0.35636583 0.08768898 0.24236323 0.44100633 -0.3509176
00000000: 19d6 b13c 5bce 9b3e a5f7 dfbe 0146 503e
00000010: 43d6 5fbe b5ba a8be 9f6a cdbe 52ee c33d
00000020: 34c1 83bd eafd 82bb 2654 16be 9575 b6be
00000030: 4896 b33d 112e 783e 95cb e13e 79ab b3be

encoder2.bias_hh_l0 f4 [16]
0.14160842 0.05730043 0.25812843 0.31966028 -0.06028446 0.31928805 0.48114052 -0.22633582
0.02920791 -0.4187135 0.27563554 -0.3964592 -0.351002 0.05194466 -0.49687508 0.138236
00000000: cc01 113e dbb3 6a3d 6929 843e 83aa a33e
00000010: d7ec 76bd b979 a33e 0d58 f63e 94c4 67be
00000020: 6d45 ef3c 9e61 d6be 1a20 8d3e b3fc cabe
00000030: 89b6 b3be ecc3 543d 6966 febe bd8d 0d3e

decoder1.weight_ih_l0 f4 [32, 4]
-0.099718034 -0.078104004 -0.32628936 -0.31161225 0.09901293 -0.101766005 -0.12983711 0.34913728
0.02758718 -0.27014384 0.18803802 0.14393046 -0.02136457 -0.27860162 -0.20804456 -0.026031505
0.35175174 0.1959503 -0.053178065 -0.21039453 0.31173393 -0.32797536 -0.12254535 0.31998828
-0.30864954 0.11470177 0.21138352 -0.23766614 -0.0058628256 -0.2418704 -0.005279078 -0.15527263
-0.19379781 -0.13291547 0.124310255 -0.113671295 -0.27120838 0.33390442 -0.23289748 0.2863671
0.21919297 0.32283014 0.30209327 0.018659046 0.3455636 0.035988923 0.14767511 -0.12414181
0.3335058 -0.33574247 -0.10795474 -0.25293547 -0.063287586 -0.16867957 0.3295562 -0.22564194
-0.1856224 -0.30923328 -0.25390592 -0.04186077 -0.054543324 -0.25440744 -0.2983636 -0.09039258
-0.12381771 -0.14721043 -0.34095585 0.08509188 -0.24510665 0.0633153 0.17651036 0.09833374
0.15361041 0.12174689 0.09677333 0.14650401 0.2517319 -0.1464873 -0.00035753203 -0.08803002
0.06558697 -0.11813128 -0.090906255 -0.037938476 0.20454691 -0.22146592 0.35187575 -0.19212987
0.027636662 -0.30362862 -0.014259696 -0.1649153 0.23358703 -0.35042962 -0.20833132 -0.32984012
0.17820773 0.015986526 -0.23026171 0.104268335 -0.035172768 -0.32080397 0.14290634 0.2044256
-0.051110007 0.3372375 0.12957719 -0.04255914 0.256964 0.10567241 -0.19834208 0.21011856
0.32921216 -0.22182818 -0.06279683 0.24148437 0.1864598 0.31065193 0.17021759 -0.11150736
-0.06513688 0.31434003 0.16683728 0.3492954 -0.3217403 0.098381 -0.066568695 0.047470845
00000000: f838 ccbd fef4 9fbd 660f a7be a48b 9fbe
00000010: 4bc7 ca3d b26a d0bd 05f4 04be 1fc2 b23e
00000020: 82fe e13c 4b50 8abe 0a8d 403e 8262 133e
00000030: c004 afbc dfa4 8ebe a209 55be 0640 d5bc
00000040: ce18 b43e 32a7 483e 3ed1 59bd aa71 57be
00000050: 979b 9f3e 63ec a7be 0ef9 fabd 81d5 a33e
00000060: 5007 9ebe c3e8 ea3d ec74 583e c15e 73be
00000070: f21c c0bb e0ac 77be 1efc acbb caff 1ebe
00000080: ef72 46be fe1a 08be 6096 fe3d 7fcc e8bd
00000090: d3db 8abe 85f5 aa3e ad7c 6ebe b59e 923e
000000a0: 1f74 603e fe49 a53e f8ab 9a3e dbda 983c
000000b0: b6ed b03e 1f69 133d 2538 173e 103e febd
000000c0: 46c1 aa3e 70e6 abbe 6017 ddbd c280 81be
000000d0: ec9c 81bd 56ba 2cbe 97bb a83e ae0e 67be
000000e0: cc13 3ebe d353 9ebe f5ff 81be 3376 2bbd
000000f0: d268 5fbd b141 82be 1dc3 98be bf1f b9bd
00000100: 2494 fdbd 55be 16be c491 aebe a744 ae3d
00000110: 3dfd 7abe 74ab 813d 22bf 343e 3363 c93d
00000120: 0c4c 1d3e 6f56 f93d 1831 c63d 2605 163e
00000130: 01e3 803e c400 16be 2373 bbb9 1549 b4bd
00000140: 7652 863d d0ee f1bd 0f2d babd 6065 1bbd
00000150: bf74 513e f6c7 62be 0f29 b43e b1bd 44be
00000160: 4866 e23c 3675 9bbe 80a1 69bc 8edf 28be
00000170: 7031 6f3e 836b b3be ce54 55be cee0 a8be
00000180: 167c 363e 2df6 823c bac9 6bbe a38a d53d
00000190: 5211 10bd 6b40 a4be 0a56 123e f254 513e
000001a0: ba58 51bd 65aa ac3e e2af 043e 7e52 2ebd
000001b0: c990 833e c76a d83d 301a 4bbe 5229 573e
000001c0: 7f8e a83e ed26 63be a09b 80bd ae47 773e
000001d0: 51ef 3e3e c50d 9f3e 854d 2e3e f95d e4bd
000001e0: 7c66 85bd 2df1 a03e 64d7 2a3e d9d6 b23e
000001f0: 25bb a4be fa7b c93d 2b55 88bd ca70 423d

decoder1.weight_hh_l0 f4 [32, 8]
0.220123 -0.055973284 0.2852861 0.33140042 -0.183949 0.23290274 -0.14742628 -0.20605601
0.3228427 0.054241553 -0.3453444 -0.22865154 0.21429452 -0.3465885 -0.10667217 0.26298404
-0.33471322 0.295132 -0.34025943 -0.1933852 -0.35268006 0.05423669 0.2182602 0.1256453
0.09941681 -0.22084919 -0.14170706 0.23346022 -0.15900674 -0.2039188 0.15263042 0.16875075
0.32631436 -0.10566338 0.110406846 0.103614576 0.09028112 -0.17488603 -0.32263425 0.050819345
0.14537428 -0.17380626 -0.27857345 0.33065733 0.26068524 0.3411519 0.22290769 -0.1966409
-0.108108506 -0.31050873 -0.12495334 0.10968389 -0.13503553 0.17035179 -0.03806937 -0.13180777
-0.18941358 -0.16184194 0.25846726 -0.037649963 0.27809116 -0.025369542 -0.17189857 -0.26208675
-0.13422911 0.11785722 -0.19376035 0.09006162 -0.0161343 -0.017320309 0.17528808 -0.21156819
0.12118467 -0.0027488912 -0.23626444 0.042321756 -0.07202564 0.2593489 0.02858114 -0.09516618
0.05366755 -0.14343186 0.0043329042 0.08234 0.20866261 -0.11839741 -0.12201266 -0.18566814
0.0012968204 -0.2740815 -0.26128155 -0.09003515 0.32150713 -0.34773865 0.024783457 0.1917139
9.2942406e-05 -0.2746123 0.22902718 -0.22602825 -0.20919865 0.3058835 -0.3082451 0.15036768
-0.33818012 -0.17598307 -0.0003962636 0.3293632 -0.25994852 0.026478358 -0.33396286 -0.3421921
-0.20024715 0.024979422 0.17933604 0.003973819 0.08301241 0.10553136 0.2237383 -0.3285676
-0.30824122 0.24758726 0.08144645 0.15799646 -0.16418974 0.15422443 -0.0020250075 -0.34356576
-0.17828043 -0.059270144 -0.17870837 -0.06418485 0.116265595 0.18621215 0.13158888 0.16765925
0.3242831 0.20697775 0.20918144 -0.04724064 -0.2583371 -0.15157482 0.09538371 -0.29338312
-0.17420425 0.12079332 0.16649604 -0.269087 -0.07122101 -0.033539455 0.14777689 0.025179032
0.32327726 0.10490787 -0.12918615 -0.1619413 -0.27266046 0.0024306441 -0.33264425 -0.026848787
-0.20403913 -0.10874309 0.29755798 0.2253001 -0.25426617 0.15300235 -0.33422416 -0.24658301
0.07718277 -0.010039195 -0.35324854 0.18371746 -0.041851237 0.2580699 0.07353231 -0.33844137
-0.12544884 0.32003662 -0.12723406 0.05314747 -0.01168585 -0.096820526 -0.20304857 -0.3352171
0.032969575 -0.20860182 0.27828416 -0.07513205 -0.071888536 0.2901865 -0.30714628 0.24560884
0.2540235 -0.33095127 0.1722831 0.11746059 -0.16581503 0.061005745 0.19345908 -0.2739196
0.30254397 -0.023948207 0.15469489 0.14240478 -0.14866363 -0.24478789 -0.27206078 -0.00223119
-0.083051674 0.25526753 0.09656858 0.2945204 -0.14713317 0.122937486 0.029005643 0.24055634
0.087061174 0.03371622 -0.15076058 -0.11549781 -0.32976726 -0.27792415 0.30837706 0.23582909
0.2883211 -0.09040091 -0.05790068 0.25996873 0.0571544 -0.062577754 0.18712959 -0.13953526
0.021014053 0.09335266 0.04555962 -0.09268193 0.2920936 0.12806378 -0.13073863 -0.09104766
0.34570184 0.21595453 -0.16149856 -0.21444163 -0.0649405 0.11332347 0.04166679 -0.27650434
-0.04050538 -0.029795159 -0.033922233 0.27799836 -0.0033763605 0.2051895 -0.28910136 -0.28125042
00000000: ec67 613e 3e44 65bd 0511 923e 51ad a93e
00000010: 205d 3cbe 0e7e 6e3e eaf6 16be 5900 53be
00000020: a34b a53e 642c 5e3d fbd0 b0be a123 6abe
00000030: 0670 5b3e 0c74 b1be f076 dabd d8a5 863e
00000040: 885f abbe 8b1b 973e 7c36 aebe c506 46be
00000050: 7b92 b4be 4b27 5e3d 9a7f 5f3e 29a9 003e
00000060: 0a9b cb3d 4a26 62be a81b 11be 3210 6f3e
00000070: aad2 22be 17d0 50be 264b 1c3e ffcc 2c3e
00000080: ad12 a73e 0b66 d8bd fc1c e23d e133 d43d
00000090: 4fe5 b83d 5315 33be 5130 a5be f227 503d
000000a0: ffdc 143e 45fa 31be 2ea1 8ebe eb4b a93e
000000b0: 8978 853e 76ab ae3e ea41 643e 3b5c 49be
000000c0: fe67 ddbd 00fb 9ebe 89e7 ffbd f3a1 e03d
000000d0: c146 0abe b370 2e3e a1ee 1bbd 9ef8 06be
000000e0: a2f5 41be e5b9 25be d255 843e d936 1abd
000000f0: f761 8e3e c9d3 cfbc 2e06 30be 3c30 86be
00000100: 5b73 09be 205f f13d 1d69 46be 3a72 b83d
00000110: 142c 84bc 52e3 8dbc b87e 333e 55a5 58be
00000120: ab2f f83d be26 34bb 4eef 71be 9459 2d3d
00000130: 2e82 93bd 61c9 843e ff22 ea3c 7ce6 c2bd
00000140: 81d2 5b3d cddf 12be 09fb 8d3b e0a1 a83d
00000150: a7ab 553e 577a f2bd c6e1 f9bd ca1f 3ebe
00000160: 12fa a93a 6954 8cbe b2c6 85be 5964 b8bd
00000170: 959c a43e cd0a b2be ad06 cb3c a650 443e
00000180: 13ea c238 fc99 8cbe 1a86 6a3e f373 67be
00000190: 2c38 56be c39c 9c3e 4dd2 9dbe fcf9 193e
000001a0: f225 adbe e834 34be 9ac1 cfb9 4ba2 a83e
000001b0: f917 85be 24e9 d83c 2efd aabe ce33 afbe
000001c0: 970d 4dbe a5a1 cc3c dea3 373e cf36 823b
000001d0: 6902 aa3d d320 d83d a71b 653e 033a a8be
000001e0: cbd1 9dbe 8487 7d3e 65cd a63d d3c9 213e
000001f0: 5b21 28be 02ed 1d3e fdb5 04bb dae7 afbe
00000200: 258f 36be 40c5 72bd 54ff 36be 5973 83bd
00000210: a81c ee3d 66ae 3e3e 3cbf 063e deae 2b3e
00000220: 6f08 a63e faf1 533e a933 563e 677f 41bd
00000230: c344 84be 6e36 1bbe 8958 c33d 5036 96be
00000240: 9962 32be 7d62 f73d f07d 2a3e c5c5 89be
00000250: 52dc 91bd ab60 09bd d352 173e 4244 ce3c
00000260: 9984 a53e f0d9 d63d 6049 04be f1d3 25be
00000270: 279a 8bbe 714b 1f3b 5950 aabe fdf1 dbbc
00000280: a2ef 50be b2b4 debd 8559 983e 12b5 663e
00000290: 2d2f 82be a6ac 1c3e 6e1f abbe 4280 7cbe
000002a0: 0012 9e3d 707b 24bc fedc b4be 6e20 3c3e
000002b0: 346c 2bbd bd21 843e 1c98 963d 3048 adbe
000002c0: a975 00be d7db a33e a549 02be 29b1 593d
000002d0: 0276 3fbc d749 c6bd f7eb 4fbe 93a1 abbe
000002e0: 1b0b 073d b79b 55be 437b 8e3e d5de 99bd
000002f0: 4c3a 93bd 5393 943e 4742 9dbe e280 7b3e
00000300: 5e0f 823e 7272 a9be fb6a 303e 2e8f f03d
00000310: 6acb 29be 29e1 793d 231a 463e 313f 8cbe
00000320: 0be7 9a3e 082f c4bc 5668 1e3e 8fd2 113e
00000330: 473b 18be ada9 7abe 8d4b 8bbe 2839 12bb
00000340: ff16 aabd 6db2 823e bfc5 c53d 61cb 963e
00000350: 14aa 16be a6c6 fb3d 3e9d ed3c 6754 763e
00000360: 214d b23d 051a 0a3d fb60 1abe 1e8a ecbd
00000370: 41d7 a8be 134c 8ebe 99e3 9d3e 2e7d 713e
00000380: d39e 933e 1d24 b9bd 4329 6dbd 9f1a 853e
00000390: bb1a 6a3d c428 80bd e69e 3f3e 55e2 0ebe
000003a0: aa25 ac3c ae2f bf3d b99c 3a3d 06d0 bdbd
000003b0: 4b8d 953e 2723 033e 59e0 05be 3277 babd
000003c0: d5ff b03e 2f23 5d3e e15f 25be 9696 5bbe
000003d0: 86ff 84bd 2316 e83d ccaa 2a3d fa91 8dbe
000003e0: f8e8 25bd fa14 f4bc 0af2 0abd cd55 8e3e
000003f0: ee45 5dbb 321d 523e 1805 94be 0e00 90be

decoder1.bias_ih_l0 f4 [32]
-0.18814225 -0.121259525 0.08138373 -0.09409833 -0.19901127 -0.027346253 0.09518896 0.18140276
0.02621801 -0.17430276 -0.18158156 0.039017707 0.33968982 0.33657625 -0.00028431736 0.14726587
-0.01733322 0.17479119 -0.35229862 0.053669453 -0.014926254 0.13686797 0.02618377 0.14290705
0.31840453 -0.1145564 -0.2751202 0.18318257 -0.079439364 0.0349259 0.114309184 -0.02705223
00000000: 5da8 40be ea56 f8bd 83ac a63d a0b6 c0bd
00000010: 9cc9 4bbe 4005 e0bc 6ef2 c23d a5c1 393e
00000020: 27c7 d63c 6c7c 32be 84f0 39be 08d1 1f3d
00000030: d3eb ad3e b953 ac3e 6e10 95b9 ddcc 163e
00000040: 66fe 8dbc 76fc 323e 7c60 b4be 80d4 5b3d
00000050: 3f8d 74bc 1e27 0c3e 587f d63c 3a56 123e
00000060: eb05 a33e 8c9c eabd 8edc 8cbe 3694 3b3e
00000070: 1bb1 a2bd 760e 0f3d ef1a ea3d a39c ddbc

decoder1.bias_hh_l0 f4 [32]
0.09557719 -0.04117027 -0.2212522 0.111285746 -0.04896581 0.25005093 0.20010686 -0.27250233
-0.12105603 0.2812409 0.20712006 -0.12140982 -0.20540097 -0.16899966 0.34959644 -0.2223996
-0.3158867 -0.34607443 -0.2278074 -0.24545144 0.31857905 -0.017459508 0.27737626 -0.3480032
-0.15314676 0.109199435 0.32887337 -0.2381863 -0.27056777 0.16080393 0.26063174 -0.15853584
00000000: f9bd c33d 28a2 28bd f08f 62be c8e9 e33d
00000010: 6090 48bd ad06 803e d0e8 4c3e 6d85 8bbe
00000020: 39ec f7bd cffe 8f3e 4817 543e b6a5 f8bd
00000030: a254 52be 3f0e 2dbe 4efe b23e b9bc 63be
00000040: e7bb a1be ab30 b1be 5846 69be 9f57 7bbe
00000050: cb1c a33e 3e07 8fbc 4304 8e3e 7a2d b2be
00000060: 81d2 1cbe f4a3 df3d 1762 a83e 1ce7 73be
00000070: dc87 8abe c9a9 243e 8671 853e 3857 22be

decoder2.weight_ih_l0 f4 [32, 8]
0.05997747 0.08861742 0.2726048 0.053916734 -0.035536677 0.23524931 0.1518916 -0.013842685
-0.09867495 0.0714422 -0.13570513 -0.18610655 0.027026612 -0.28325036 0.24370602 0.17190231
0.26398966 -0.031755473 -0.30329502 -0.050640106 -0.07541147 0.28883442 -0.23713939 0.29671103
0.12051116 -0.24503084 -0.008379264 -0.12077878 -0.06936393 0.25069055 0.25148985 -0.23966838
-0.07103251 -0.0012331023 0.070912205 -0.17077595 0.06625932 0.018128632 0.090653114 0.114005044
0.099676214 -0.17255627 -0.24942344 0.035170685 -0.27911076 -0.20840853 -0.10376125 0.27961478
-0.12499622 -0.21633822 -0.12538993 0.33787718 0.04965651 -0.06051223 0.2905655 0.07389469
0.31039426 0.34056792 0.24098463 0.3230358 -0.24192607 -0.11573351 0.13278218 -0.3120936
0.22398217 0.3296167 -0.010208943 -0.014935562 0.050083302 -0.072181076 -0.14448252 0.18062775
-0.14086126 0.06696911 -0.15005966 0.06492597 -0.24076702 -0.2203602 0.16740565 -0.24752387
-0.119166 0.3460373 0.026169961 0.057923663 0.29677275 -0.26615092 0.25298613 0.26339665
0.083803795 -0.08158576 0.08659482 -0.09404259 0.041799165 0.017168254 0.05632299 0.06555946
-0.3181761 -0.20320386 0.16599466 -0.13305253 0.28671974 -0.013380343 0.02814252 -0.025420766
-0.07665065 -0.33006677 0.00435492 -0.12033061 0.08101226 0.16187783 0.33564848 0.068370655
0.3054147 -0.16002548 0.12022233 -0.10440475 -0.06472531 -0.06328658 -0.15577939 0.06342129
-0.34383914 -0.084098905 -0.1298173 0.113652766 0.109573424 -0.03367396 0.21315567 -0.08602268
-0.16030562 -0.3004392 0.27069053 -0.18914743 -0.3494189 0.14157747 0.20901269 -0.3464191
0.060667396 -0.25292054 -0.15499254 -0.22680752 0.048279345 -0.3470227 -0.09336777 0.21867199
-0.31195503 -0.23966451 0.2813246 0.28301582 0.037592024 -0.09754489 0.021473585 0.13479541
0.1742325 0.09038937 0.28273395 0.005802135 -0.22090696 -0.27058363 0.06266403 0.10065846
0.1371746 0.019483503 0.2740423 -0.049529936 -0.1085383 0.013605329 -0.0169659 -0.34142092
-0.16427626 -0.027135348 0.20929772 -0.042221725 0.21006057 -0.3190646 0.21079494 0.11888447
0.2019141 0.17902347 0.10343546 -0.28655827 -0.053953107 -0.039280202 -0.3096109 0.26727
-0.0037367404 0.24260803 0.17581066 -0.053709347 0.29676077 -0.2883498 -0.05559889 0.1770634
-0.2182857 0.067679964 0.17295818 -0.12863122 -0.31940517 0.2272658 -0.14794742 0.17646432
0.10949528 -0.3085551 0.1708639 -0.05383223 -0.25174764 -0.29656646 0.16750017 0.054655977
-0.31977296 -0.08094223 -0.12048113 0.15988865 -0.23027048 -0.13572752 -0.18108766 -0.26991773
-0.16206086 0.30387715 -0.3356898 0.049362842 0.12019544 0.3186662 0.06530261 0.304469
0.21556075 -0.06570485 -0.0010436937 0.18634222 -0.2509381 -0.25855547 0.036348257 -0.1649729
-0.116577424 -0.056586556 -0.054938234 -0.02461468 -0.067700565 -0.16102362 -0.09217519 -0.2069087
-0.31841135 -0.20140964 0.33218738 0.2110782 -0.33636186 -0.2529645 0.047413312 -0.0062457616
0.24427453 0.1692358 0.12905541 0.13466525 -0.00092860806 0.14778776 -0.10987888 0.13039495
00000000: f0aa 753d 0d7d b53d db92 8b3e cbd7 5c3d
00000010: e88e 11bd 32e5 703e 7989 1b3e 6ecc 62bc
00000020: 1816 cabd 4a50 923d 49f6 0abe b792 3ebe
00000030: ea66 dd3c 3106 91be 128e 793e 2907 303e
00000040: a729 873e 0712 02bd 7c49 9bbe 006c 4fbd
00000050: 5471 9abd 1be2 933e abd4 72be 82ea 973e
00000060: 8ece f63d 5de9 7abe 2e49 09bc dd5a f7bd
00000070: ad0e 8ebd 835a 803e 47c3 803e a16b 75be
00000080: 7e79 91bd 0ca0 a1ba 6b3a 913d e4df 2ebe
00000090: f7b2 873d 7f82 943c 57a8 b93d 7a7b e93d
000000a0: 0b23 cc3d 97b2 30be dc68 7fbe 230f 103d
000000b0: 9be7 8ebe 0c69 55be c780 d4bd ab29 8f3e
000000c0: 05fe ffbd c487 5dbe 3866 00be 3dfe ac3e
000000d0: a064 4b3d acdb 77bd 00c5 943e 1956 973d
000000e0: ffeb 9e3e eb5e ae3e adc4 763e f364 a53e
000000f0: 78bb 77be b105 edbd 0df8 073e bbca 9fbe
00000100: 955b 653e 85c3 a83e 6943 27bc 4ab4 74bc
00000110: 2624 4d3d acd3 93bd 3af3 13be 7bf6 383e
00000120: ef3d 10be 1a27 893d 3da9 19be e8f7 843d
00000130: a18b 76be 1ba6 61be 636c 2b3e e676 7dbe
00000140: 4e0d f4bd cd2b b13e 6362 d63c 5d41 6d3d
00000150: 99f2 973e ef44 88be 6687 813e eddb 863e
00000160: 53a1 ab3d 6f16 a7bd a058 b13d 6799 c0bd
00000170: 9a35 2b3d 70a4 8c3c f0b2 663d 0a44 863d
00000180: fae7 a2be ac14 50be 81fa 293e ec3e 08be
00000190: eecc 923e 3a39 5bbc 248b e63c 363f d0bc
000001a0: 04fb 9cbd 83fe a8be b7b3 8e3b e56f f6bd
000001b0: c1e9 a53d 4dc3 253e 1eda ab3e ea05 8c3d
000001c0: 515f 9c3e b8dd 23be 2037 f63d 28d2 d5bd
000001d0: b48e 84bd 659c 81bd a284 1fbe 05e3 813d
000001e0: af0b b0be 0c3c acbd d4ee 04be c8c2 e83d
000001f0: 0868 e03d b5ed 09bd 7b45 5a3e a92c b0bd
00000200: 2827 24be 2bd3 99be f397 8a3e ddaf 41be
00000210: 09e7 b2be aff9 103e 6c07 563e d85d b1be
00000220: 607e 783d cd7e 81be 5db6 1ebe 3b40 68be
00000230: 90c0 453d f6ac b1be 9a37 bfbd 8deb 5f3e
00000240: 92b8 9fbe 9d6a 75be c709 903e 73e7 903e
00000250: 18fa 193d 9ec5 c7bd 5fe9 af3c cf07 0a3e
00000260: 016a 323e 101e b93d 81c2 903e d61f be3b
00000270: 6f35 62be f089 8abe 0056 803d 0626 ce3d
00000280: 8077 0c3e de9b 9f3c 464f 8c3e e7df 4abd
00000290: 5449 debd e3e8 5e3c 12fc 8abc b9ce aebe
000002a0: 0938 28be f34a debc 2452 563e b0f0 2cbd
000002b0: 1e1a 573e 6f5c a3be a1da 573e b379 f33d
000002c0: 92c2 4e3e ee51 373e f8d5 d33d c4b7 92be
000002d0: effd 5cbd 47e4 20bd 5285 9ebe 9dd7 883e
000002e0: 1ae4 74bb 3d6e 783e b607 343e 55fe 5bbd
000002f0: 07f1 973e 96a2 93be a9bb 63bd 1c50 353e
00000300: 4986 5fbe cb9b 8a3d f31b 313e e7b7 03be
00000310: 1389 a3be 5eb8 683e 877f 17be 10b3 343e
00000320: 103f e03d effa 9dbe f2f6 2e3e 2f7f 5cbd
00000330: 11e5 80be 8fd7 97be 2a85 2b3e f2de 5f3d
00000340: 48b9 a3be 0ac5 a5bd d0be f6bd dab9 233e
00000350: 06cc 6bbe 28fc 0abe 0b6f 39be a832 8abe
00000360: 48f3 25be c995 9b3e 89df abbe b130 4a3d
00000370: 0729 f63d 3728 a33e 60bd 853d 5ce3 9b3e
00000380: f5bb 5c3e 4490 86bd 8dcc 88ba 7fd0 3e3e
00000390: f57a 80be 6261 84be e9e1 143d a8ee 28be
000003a0: 25c0 eebd 4ec7 67bd ea06 61bd baa4 c9bc
000003b0: 98a6 8abd 60e3 24be 59c6 bcbd e0df 53be
000003c0: d006 a3be 543e 4ebe 7714 aa3e e224 583e
000003d0: 9f37 acbe 9084 81be 7634 423d 3fa9 ccbb
000003e0: 1a23 7a3e 264c 2d3e 1a27 043e b0e5 093e
000003f0: d56d 73ba ad55 173e 2e08 e1bd 4186 053e

decoder2.weight_hh_l0 f4 [32, 8]
-0.12076861 -0.1118275 -0.2831966 -0.13524109 0.07482369 -0.31076276 -0.082028896 0.18566625
0.0075626154 0.2606034 -0.3384181 0.22605935 -0.28532377 -0.14170234 0.24644032 0.16355684
0.27941814 0.051176433 0.2752529 0.017930837 -0.24594048 0.3125346 0.25412306 0.2713646
0.13645071 -0.11396678 0.11716837 0.20204157 0.28229097 0.26928005 0.12035075 0.24314526
0.17709477 -0.11913558 0.17118725 0.14217643 0.33229548 0.2769408 -0.047773533 0.0024262134
-0.34626845 -0.18700089 -0.10867999 0.02350544 -0.3470523 0.31494465 0.104096584 -0.24808648
-0.34688658 -0.252289 -0.030183775 0.10303548 0.06177424 0.31936958 0.3375941 0.010017814
-0.34102702 -0.30250484 -0.038112395 -0.16779865 -0.25578856 -0.049159914 -0.3493446 0.19238782
-0.11987476 -0.10340189 0.11357969 0.071883515 -0.30541486 0.30561253 0.14862946 0.20898888
-0.29410177 0.24978532 0.044832252 -0.13912793 0.03828563 -0.065997876 -0.26562408 -0.2322847
0.11780277 0.06104877 0.13383651 0.16494937 -0.07380481 -0.23304139 -0.31184322 0.2330092
0.09597361 -0.10275938 0.29581472 0.07143102 0.3049462 0.3176163 -0.12273583 0.14995989
-0.096001565 -0.2677748 -0.1849093 -0.25782788 0.3244808 -0.15072612 -0.33162773 0.05189618
0.21989687 -0.18730375 0.0049569383 -0.08328721 -0.2192668 -0.24986276 0.19431764 0.20451061
0.03452419 -0.25635707 -0.16433513 0.3034807 -0.08639284 -0.17444584 0.20748314 -0.3428605
0.2977819 -0.34665862 -0.10041863 0.32834777 -0.30915022 -0.2936555 -0.0850516 -0.05781429
-0.13069965 0.22274254 -0.33906376 0.16095218 -0.20559119 0.13157648 -0.2907768 0.014265546
-0.31500944 -0.07072063 0.043439027 0.2756528 -0.15606481 -0.12886782 0.10698755 0.10216616
-0.0885465 -0.026838038 -0.2850563 0.0008759215 -0.2503722 -0.13975427 -0.07216071 -0.016478576
0.16298917 -0.3399813 0.24362144 -0.05612411 0.2256923 0.009630682 -0.28923666 -0.032249182
0.267905 0.060428664 -0.2857112 0.093900315 -0.11696857 -0.20205784 0.19496538 0.23959596
-0.09376072 -0.23441961 -0.17397584 0.15960352 0.15860073 0.012984106 0.23914985 0.19476251
0.2810739 0.27157965 -0.048970163 0.084831655 0.25480303 0.14076066 0.19517066 0.27593228
-0.0946243 0.23305129 0.17091796 0.1655663 -0.020941388 -0.05321914 0.07896799 0.3308365
-0.21997742 0.16098449 -0.009253889 -0.2695701 0.13753127 0.012838432 -0.062491894 0.2908644
0.20144895 -0.27847672 0.15267996 0.17851338 -0.25236055 0.33387098 0.02836375 -0.1948054
0.08890951 0.20331453 0.34380338 0.21749307 0.3113115 0.3129711 0.3217386 0.2673173
-0.066715 -0.036818728 -0.12336282 -0.09484353 0.16836789 0.19148941 -0.10684642 0.13824183
-0.33509052 -0.066035435 -0.12605034 0.165657 0.120274425 0.2332345 0.04813502 -0.33711168
0.2435988 0.18603069 0.19340721 -0.2629781 0.32742527 0.2749744 0.29460952 0.16979207
0.18343851 -0.27173477 -0.1878787 0.0021194303 0.20365015 0.04082291 0.085509084 0.17195049
-0.20109694 -0.34565482 -0.1838671 0.10945456 -0.01412206 0.31097814 -0.20883742 0.013935207
00000000: 8855 f7bd d105 e5bd 25ff 90be a47c 0abe
00000010: 2a3d 993d 4c1c 9fbe c4fe a7bd 4b1f 3e3e
00000020: d1cf f73b cf6d 853e 2345 adbe 1a7c 673e
00000030: f515 92be 6b1a 11be da5a 7c3e 727b 273e
00000040: e50f 8f3e 619e 513d f3ed 8c3e b1e3 923c
00000050: d2d7 7bbe 8904 a03e 6b1c 823e 4df0 8a3e
00000060: bcb9 0b3e 6a67 e9bd f8f5 ef3d fce3 4e3e
00000070: 7188 903e 13df 893e 747a f63d 12fb 783e
00000080: 5558 353e 5bfd f3bd b64b 2f3e b396 113e
00000090: a222 aa3e 2fcb 8d3e 2eae 43bd 1b01 1f3b
000000a0: 194a b1be 297d 3fbe 9d93 debd 7b8e c03c
000000b0: d7b0 b1be 6d40 a13e 9730 d53d 620a 7ebe
000000c0: 1e9b b1be 062c 81be f743 f7bc 4404 d33d
000000d0: fc06 7d3d 6984 a33e 22d9 ac3e c221 243c
000000e0: 189b aebe eae1 9abe be1b 1cbd 69d3 2bbe
000000f0: b8f6 82be e85b 49bd 4cdd b2be 5001 453e
00000100: e680 f5bd 5fc4 d3bd 789c e83d aa37 933d
00000110: 565f 9cbe 3f79 9c3e 5232 183e 2e01 563e
00000120: 8294 96be b9c7 7f3e 06a2 373d 8d77 0ebe
00000130: 65d1 1c3d e529 87bd e1ff 87be 0adc 6dbe
00000140: 9442 f13d 460e 7a3d 700c 093e 7de8 283e
00000150: fa26 97bd 67a2 6ebe eaa9 9fbe f799 6e3e
00000160: d08d c43d 8373 d2bd 0775 973e 6d4a 923d
00000170: e921 9c3e 9b9e a23e ec5c fbbd 168f 193e
00000180: 789c c4bd c719 89be dd58 3dbe 0402 84be
00000190: 5922 a63e f357 1abe 1ccb a9be 1791 543d
000001a0: a52c 613e 8ecc 3fbe d06d a23b 7c92 aabd
000001b0: 7a87 60be 06dc 7fbe 34fb 463e 3b6b 513e
000001c0: 3d69 0d3d 3c41 83be 7847 28be d361 9b3e
000001d0: bbee b0bd eea1 32be 7676 543e 698b afbe
000001e0: df76 983e 3d7d b1be 48a8 cdbd 331d a83e
000001f0: f048 9ebe 045a 96be 892f aebd adce 6cbd
00000200: 21d6 05be 9f16 643e c499 adbe a6d0 243e
00000210: 7f86 52be fcbb 063e b2e0 94be 09ba 693c
00000220: eb48 a1be fad5 90bd 1fed 313d 5d22 8d3e
00000230: 74cf 1fbe edf5 03be 4a1c db3d 7e3c d13d
00000240: de57 b5bd 72db dbbc e6f2 91be 199e 653a
00000250: c930 80be be1b 0fbe ffc8 93bd 14fe 86bc
00000260: a2e6 263e 0712 aebe e677 793e 65e2 65bd
00000270: e21b 673e 02ca 1d3c d416 94be b817 04bd
00000280: d82a 893e 0c84 773d bd48 92be cf4e c03d
00000290: 388d efbd 40e8 4ebe 01a5 473e a558 753e
000002a0: 9f05 c0bd b20b 70be b926 32be 1b6f 233e
000002b0: 3b68 223e 4abb 543c b3e3 743e d36f 473e
000002c0: ebe8 8f3e 7d0c 8b3e f094 48bd 38bc ad3d
000002d0: 8b75 823e 9023 103e d1da 473e ff46 8d3e
000002e0: 63ca c1bd ffa4 6e3e 1e05 2f3e 368a 293e
000002f0: 468d abbc 50fc 59bd f8b9 a13d 6763 a93e
00000300: c341 61be 1ed9 243e a09d 17bc 1805 8abe
00000310: ffd4 0c3e 4958 523c 80f7 7fbd 2eec 943e
00000320: a248 4e3e 8094 8ebe 2358 1c3e 36cc 363e
00000330: 6735 81be 23f1 aa3e 185b e83c 117b 47be
00000340: 3016 b63d af31 503e ff06 b03e 81b6 5e3e
00000350: 3964 9f3e bf3d a03e ecba a43e d0dd 883e
00000360: e0a1 88bd 3ccf 16bd a5a5 fcbd 533d c2bd
00000370: a268 2c3e cd15 443e 4cd2 dabd 448f 0d3e
00000380: fc90 abbe 963d 87bd 5713 01be fda1 293e
00000390: 7052 f63d 06d5 6e3e 3a29 453d e799 acbe
000003a0: f771 793e d47e 3e3e 8a0c 463e 11a5 86be
000003b0: 49a4 a73e 72c9 8c3e 0fd7 963e f9dd 2d3e
000003c0: 4ed7 3b3e d220 8bbe 4663 40be 24e6 0a3b
000003d0: aa89 503e ec35 273d 631f af3d ca13 303e
000003e0: 5bec 4dbe abf9 b0be a847 3cbe b629 e03d
000003f0: 3660 67bc 8738 9f3e 7ad9 55be 7f50 643c

decoder2.bias_ih_l0 f4 [32]
-0.28557462 -0.073966704 0.046918795 -0.31987026 0.28587544 0.049970627 -0.010618334 -0.2869374
0.09997672 0.106132284 -0.3012217 -0.14276545 0.055405214 0.018951034 0.019349555 -0.17918235
-0.26677534 0.003326104 -0.3182853 -0.18196762 -0.2304081 0.047961883 -0.26872104 -0.2315265
-0.23695835 0.32724002 -0.29844508 0.26390556 0.044937 -0.1282944 -0.017453719 0.24212275
00000000: d636 92be db7b 97bd ec2d 403d 09c6 a3be
00000010: 445e 923e 00ae 4c3d 85f8 2dbc 75e9 92be
00000020: 98c0 cc3d e25b d93d bb39 9abe 1b31 12be
00000030: 94f0 623d 333f 9b3c f582 9e3c 947b 37be
00000040: c796 88be c4fa 593b 4af6 a2be b855 3abe
00000050: 1af0 6bbe ae73 443d ce95 89be 4815 6dbe
00000060: 36a5 72be 018c a73e cbcd 98be a11e 873e
00000070: dc0f 383d 9b5f 03be 1afb 8ebc 07ef 773e

decoder2.bias_hh_l0 f4 [32]
0.14217123 -0.162183 0.16880776 -0.055004966 -0.16681617 0.10942611 -0.14513493 0.10820763
-0.12841597 0.12708141 -0.1525606 -0.13794154 -0.27421477 0.19605587 -0.036604278 0.28697804
-0.10875946 -0.13396208 -0.34155127 -0.10540177 -0.2911863 -0.0029364624 -0.032775797 -0.33422306
0.27501723 -0.30504274 -0.02828116 -0.13411757 0.12816137 0.22027014 -0.06994092 -0.047043744
00000000: 5695 113e 4d13 26be f1db 2c3e e34c 61bd
00000010: dcd1 2abe cc1a e03d 409e 14be f69b dd3d
00000020: 7a7f 03be a121 023e d938 1cbe 8c40 0dbe
00000030: e165 8cbe dfc2 483e 5eee 15bd c9ee 923e
00000040: 48bd debd 5b2d 09be cfdf aebe e2dc d7bd
00000050: 5f16 95be aa71 40bb ea3f 06bd 491f abbe
00000060: 0fcf 8c3e 902e 9cbe e4ad e7bc 1e56 09be
00000070: bc3c 033e 7f8e 613e 2f3d 8fbd f1b0 40bd
