lightning_logs/lstm/version_3/checkpoints/epoch=19-step=20.ckpt (torch, 120439 bytes, 57 tensors)

embed.weight f4 [387, 16]
0.0 0.0 0.0 0.0 0.0 0.0 0.0 0.0
0.0 0.0 0.0 0.0 0.0 0.0 0.0 0.0
1.0804694 0.45486283 -0.1268496 -0.24444102 -0.63493997 0.5268929 -0.22472364 0.19565956
0.43068388 -1.2517706 0.38515657 -1.08368 -0.4747142 -0.80441207 0.3977611 -0.85076886
3.2948956 -0.45456943 1.0746065 0.15566269 0.372601 -1.8333393 -0.1791401 2.1690762
-0.81641877 1.4560789 1.1979584 -0.22963904 0.8229348 -1.0359274 1.4140669 -1.3475754
-1.1626045 -2.432347 0.6181323 1.3736914 1.1694411 0.071515046 0.7698484 -0.93859434
-1.0971467 -0.38552618 -0.108026296 0.42403492 2.4835842 0.06741037 -0.04353262 1.8363506
0.113751136 1.0027623 -0.40417913 -0.12088152 -1.0487585 -0.49499208 -1.0746332 -1.0360644
1.099177 -1.1143667 -0.61557025 1.0026071 0.762531 -0.23409086 1.2101849 1.152601
0.84603894 -0.6161631 0.7223949 -0.58358073 -0.14338073 1.6079217 -0.017964147 -0.5797234
-0.5007994 -0.09440097 -0.32366997 0.95375663 0.25335807 0.25131974 -1.4343255 0.78134066
1.8159441 0.21655026 -1.0325714 2.4903347 1.094577 -0.36459795 0.93638784 -0.83154345
0.570261 1.3031853 0.4569093 -1.0829995 -1.5870302 0.62497187 -0.0063035605 1.3930084
-0.2249554 -0.050220948 -0.22231337 -1.316115 0.410879 -2.894887 0.20547593 -1.1375617
0.5317542 0.26442498 0.45852977 -0.20830305 0.8328626 -0.44878763 1.0276303 0.7270667
-1.930826 -0.22598007 0.72775567 0.19291909 -1.6331036 1.8657017 0.58318454 -0.67044973
-0.3516807 0.318963 -0.24817663 1.1807264 -0.2554616 -0.0278989 0.9454968 -1.4919295
-1.0720668 -0.67442876 -0.28905404 0.9931461 -1.0135415 -0.27335587 0.62465245 0.8067781
0.8568662 -0.79864115 0.10350824 0.41251636 -0.6379608 1.187348 -0.8807616 0.025171386
-0.6773661 0.69990164 -1.1856914 0.582759 0.38027525 1.0597851 -1.1079588 -0.08031995
-0.49879825 -0.65803546 1.1721654 -0.9302999 0.19212021 0.046037816 -0.42048675 1.1947211
0.016847946 -0.24739407 0.32582566 0.33499804 -0.9186695 0.80154985 1.6498721 1.9279767
0.50369984 -0.85009813 1.8932352 0.6808721 -0.03478026 -0.062734395 0.88164854 0.33585644
-0.45455423 0.12333532 0.58563983 -0.3437388 0.9188162 0.59376085 -0.4931858 -0.57187784
-1.3230623 1.2913731 -0.59937346 -1.2586126 -1.0893801 0.102915 -2.2528398 -1.2421337
1.184268 -1.4010895 -1.153459 -2.072667 0.66414225 0.5039394 -0.34364998 0.030199636
0.6651035 -0.23922908 0.18656477 -2.0842133 0.4166119 0.5586991 0.68060166 -1.7724158
1.2634417 -0.43754295 -1.869637 0.21671927 -0.3082008 1.0357834 -0.36551246 0.40128636
-0.123083405 -1.0951761 1.2619767 -1.498096 -0.5696308 -1.0381167 -0.5133527 -0.7165085
-0.09756868 -1.0029061 1.4768168 0.057729132 -1.2490109 -0.024699498 0.24670632 0.7160981
1.5850288 2.202005 -1.0269266 0.48632312 0.096540414 0.9583236 2.3588355 -0.71907675
00000000: 0000 0000 0000 0000 0000 0000 0000 0000
00000010: 0000 0000 0000 0000 0000 0000 0000 0000
00000020: 0000 0000 0000 0000 0000 0000 0000 0000
00000030: 0000 0000 0000 0000 0000 0000 0000 0000
00000040: d24c 8a3f c8e3 e83e dde4 01be bf4e 7abe
00000050: 6d8b 22bf 74e2 063f f41d 66be fb5a 483e
00000060: 9982 dc3e 053a a0bf 3e33 c53e 07b6 8abf
00000070: bd0d f3be f3ed 4dbf 58a7 cb3e fdcb 59bf
00000080: 92df 5240 53bd e8be b58c 893f 0a66 1f3e
00000090: 8fc5 be3e ddaa eabf 8170 37be 25d2 0a40
000000a0: d200 51bf cb60 ba3f b356 993f 7f26 6bbe
000000b0: dbab 523f 4599 84bf 2500 b53f 5a7d acbf
000000c0: 39d0 94bf 93ab 1bc0 eb3d 1e3f 1fd5 af3f
000000d0: 3fb0 953f 7b76 923d c914 453f b847 70bf
000000e0: 4e6f 8cbf b063 c5be e43c ddbd 1b1b d93e
000000f0: 0bf3 1e40 730e 8a3d 434f 32bd 890d eb3f
00000100: 5bf6 e83d 845a 803f 91f0 cebe bb90 f7bd
00000110: b83d 86bf 9a6f fdbe 958d 89bf c29d 84bf
00000120: d5b1 8c3f 91a3 8ebf 0396 1dbf 6e55 803f
00000130: 3b35 433f 84b5 6fbe 57e7 9a3f 6e88 933f
00000140: 0296 583f ddbc 1dbf dfee 383f 8c65 15bf
00000150: 66d2 12be 61d0 cd3f 8c29 93bc c168 14bf
00000160: 6434 00bf 4c55 c1bd 12b8 a5be 6529 743f
00000170: 26b8 813e fbac 803e fa97 b7bf f105 483f
00000180: db70 e83f 5abf 5d3e 4d2b 84bf a561 1f40
00000190: 191b 8c3f 95ac babe 1db7 6f3f 08e0 54bf
000001a0: a0fc 113f c7ce a63f 04f0 e93e ba9f 8abf
000001b0: ce23 cbbf 28fe 1f3f 198e cebb 194e b23f
000001c0: b55a 66be 7bb4 4dbd 1ea6 63be 7576 a8bf
000001d0: bb5e d23e d445 39c0 4868 523e 9f9b 91bf
000001e0: 0b21 083f b662 873e 6ac4 ea3e 654d 55be
000001f0: 7c36 553f 7ec7 e5be 6489 833f 0b21 3a3f
00000200: 4e25 f7bf 5267 67be 324e 3a3f 958c 453e
00000210: 8a09 d1bf 50cf ee3f 954b 153f 98a2 2bbf
00000220: 7e0f b4be 1e4f a33e 0422 7ebe 0b22 973f
00000230: ddcb 82be 3c8c e4bc 140c 723f 8cf7 bebf
00000240: 7c39 89bf 5da7 2cbf e4fe 93be d33e 7e3f
00000250: babb 81bf 4df5 8bbe 39e9 1f3f 0289 4e3f
00000260: 955b 5b3f bf73 4cbf 21fc d33d 5835 d33e
00000270: 6651 23bf 05fb 973f 9879 61bf 3934 ce3c
00000280: dd67 2dbf c12c 333f bcc4 97bf b22f 153f
00000290: 70b3 c23e 0aa7 873f 98d1 8dbf c97e a4bd
000002a0: 7c62 ffbe 0375 28bf 8409 963f 2228 6ebf
000002b0: 29bb 443e 2692 3c3d 0a4a d7be 9fec 983f
000002c0: b404 8a3c df54 7dbe 9fd2 a63e dd84 ab3e
000002d0: ed2d 6bbf 5f32 4d3f 022f d33f f1c7 f63f
000002e0: 79f2 003f 08a0 59bf 8855 f23f a24d 2e3f
000002f0: bf75 0ebd e47a 80bd b8b3 613f 60f5 ab3e
00000300: 55bb e8be 3a97 fc3d 7eec 153f 88fe afbe
00000310: 8a37 6b3f b600 183f d982 fcbe 9666 12bf
00000320: 1b5a a9bf b74b a53f 8a70 19bf 381a a1bf
00000330: cf70 8bbf 19c5 d23d 872e 10c0 3dfe 9ebf
00000340: 1896 973f e756 b3bf 8ba4 93bf 93a6 04c0
00000350: 3a05 2a3f 2c02 013f e4f2 afbe 3a65 f73c
00000360: 3944 2a3f 78f8 74be d60a 3f3e c063 05c0
00000370: 284e d53e e706 0f3f e93b 2e3f 85de e2bf
00000380: 75b8 a13f a105 e0be 4450 efbf a8eb 5d3e
00000390: 7fcc 9dbe 8d94 843f 7324 bbbe 6875 cd3e
000003a0: 2713 fcbd bb2e 8cbf 7488 a13f 9cc1 bfbf
000003b0: 53d3 11bf 02e1 84bf 156b 03bf 1a6d 37bf
000003c0: 17d2 c7bd 3a5f 80bf 5508 bd3f 6275 6c3d
000003d0: 97df 9fbf 9a56 cabc 95a0 7c3e 3552 373f
000003e0: 39e2 ca3f a6ed 0c40 5572 83bf 58ff f83e
000003f0: fbb6 c53d b254 753f 29f7 1640 6a15 38bf

encoder1.weight_ih_l0 f4 [32, 17]
-0.3289184 0.15131617 -0.116249666 0.23115475 0.3245567 -0.30804917 0.33111766 0.30118698
-0.12772535 -0.10796544 0.056697257 0.22349589 0.25777233 -0.14219795 0.16702522 0.2727834
-0.18470037 0.022622501 -0.0946064 -0.17364523 -0.34324497 0.0758496 -0.14042918 -0.18542029
0.027369592 0.21235076 0.19526441 0.1486171 -0.30337322 -0.30998895 0.02133903 0.2659264
0.028837316 0.14103098 -0.2679062 -0.33837432 -0.057285406 0.06290698 -0.12353191 -0.116090365
0.13422936 -0.19800454 0.21885726 -0.014030035 -0.20399064 -0.07721982 -0.27114785 -0.2556051
-0.2968541 0.02665777 -0.027122296 -0.1175056 -0.3157578 0.1320931 -0.25082228 0.3092226
-0.028849911 0.32827652 -0.07519262 -0.18875566 0.1990362 0.19078381 0.08404406 0.033042707
0.31317994 -0.03417054 -0.0061491006 0.03912665 -0.07472066 -0.15494402 0.082963735 -0.2910091
0.15271726 0.23002657 -0.22142035 -0.22251552 0.17774011 -0.17019084 -0.07823546 0.27788955
0.2415512 -0.20384824 -0.23017752 0.05908202 -0.19994938 0.18730716 -0.14662677 0.33816996
0.06916835 0.24366005 -0.18934101 0.02453453 0.2001354 -0.006302151 0.14240046 0.13199471
-0.34802446 -0.232253 -0.015930101 -0.3249169 0.23650402 -0.33753294 0.13024321 -0.10257179
0.26270267 -0.04676356 0.22254872 -0.3423208 -0.3251826 0.308123 -0.1718524 0.008043691
-0.3271816 -0.045476656 -0.13921623 0.1586377 0.31261292 -0.18290772 -0.24205384 0.34980756
0.31523758 -0.096074305 -0.006743665 0.05176304 0.2878054 0.02377892 -0.281609 -0.24190743
-0.1345321 -0.12570125 0.23630421 0.21992013 -0.13149768 -0.2627197 0.08702421 -0.1934163
-0.19046302 0.2790405 -0.028605603 0.22891086 -0.16704008 0.06563893 -0.14903325 0.04030863
0.012579262 -0.2867902 -0.1003204 0.1374275 -0.13080466 -0.21662429 0.17468077 0.046319053
-0.19605358 0.25721297 -0.062494464 0.2324909 0.08084863 0.1335044 -0.28586692 0.14936784
-0.3079684 -0.058028102 -0.18915483 -0.24256262 -0.21883872 -0.31028 0.2767004 0.21444145
0.2785318 -0.14874826 0.05253599 -0.19099386 -0.15728843 -0.30925626 -0.1843388 -0.24514256
0.1576596 -0.037563328 -0.071271084 -0.26516077 0.19920024 0.08627021 0.0026029646 0.04450077
0.14112169 0.07864579 -0.18525487 0.29682857 0.23178317 -0.34972402 -0.32121032 0.33404735
-0.19467303 -0.09711932 0.10115999 -0.06582047 -0.2062163 -0.15529606 0.29448012 0.3473116
0.18435264 0.13143837 0.17636028 -0.32490703 0.0525961 -0.17059495 -0.30163354 0.24411125
-0.24228336 0.26107752 -0.11084123 0.13914326 0.033490974 0.15055475 -0.1658687 -0.34892666
-0.3123278 0.13336475 0.2539611 -0.14708601 0.018654771 -0.30675396 -0.31143624 -0.27695563
-0.050516624 0.016889429 -0.19842869 0.028311204 -0.17223932 -0.104902886 0.11007152 -0.1110844
-0.19795798 0.2311324 0.3347309 0.3367636 -0.26681697 0.014649606 0.19648932 0.2827675
0.28723687 0.13332742 -0.26397762 -0.26712465 -0.33698446 0.10834812 0.2720455 0.29633236
0.26431385 0.08380792 -0.09356707 0.17993404 0.28129327 0.033866417 0.19076398 -0.19301604
00000000: fe67 a8be a0f2 1a3e 4e14 eebd d5b3 6c3e
00000010: 4c2c a63e 9fb8 9dbe 4188 a93e 2e35 9a3e
00000020: 6fca 02be fc1c ddbd 623b 683d 1bdc 643e
00000030: bcfa 833e 579c 11be a908 2b3e 44aa 8b3e
00000040: 1822 3dbe d352 b93c 00c1 c1bd 0ed0 31be
00000050: cebd afbe 0957 9b3d abcc 0fbe d1de 3dbe
00000060: 3236 e03c 7a72 593e 65f3 473e 152f 183e
00000070: bc53 9bbe dfb6 9ebe 30cf ae3c 8127 883e
00000080: 3c3c ec3c 6d6a 103e 002b 89be 663f adbe
00000090: 1aa4 6abd 60d5 803d 4cfe fcbd c9c0 edbd
000000a0: 6c73 093e b4c1 4abe 1e1c 603e 3bde 65bc
000000b0: ece2 50be 6d25 9ebd e4d3 8abe acde 82be
000000c0: 43fd 97be 6561 da3c 942f debc c7a6 f0bd
000000d0: 02ab a1be 6a43 073e c76b 80be 6d52 9e3e
000000e0: a656 ecbc dc13 a83e 97fe 99bd 2a49 41be
000000f0: 25d0 4b3e d55c 433e 4b1f ac3d ca57 073d
00000100: 1f59 a03e 68f6 0bbd 657e c9bb 4443 203d
00000110: 2507 99bd a5a9 1ebe e4e8 a93d 25ff 94be
00000120: ea61 1c3e 168c 6b3e 04bc 62be 1cdb 63be
00000130: 8101 363e 8246 2ebe ea39 a0bd 8a47 8e3e
00000140: 3359 773e 98bd 50be a8b3 6bbe fdff 713d
00000150: 88bf 4cbe 73cd 3f3e 5425 16be 9d24 ad3e
00000160: 23a8 8d3d 0582 793e 9ce2 41be a3fc c83c
00000170: 4bf0 4c3e 4682 cebb 6dd1 113e 9f29 073e
00000180: 4330 b2be bbd3 6dbe d87f 82bc 825b a6be
00000190: 1c2e 723e 1ed1 acbe 7a5e 053e 2911 d2bd
000001a0: f780 863e 268b 3fbd d0e3 633e ac44 afbe
000001b0: 557e a6be 4cc2 9d3e 13fa 2fbe afc9 033c
000001c0: 5984 a7be bb45 3abd b38e 0ebe ec71 223e
000001d0: cd0e a03e 294c 3bbe f6dc 77be fa19 b33e
000001e0: d266 a13e 9bc2 c4bd f6f9 dcbb 7b05 543d
000001f0: 3b5b 933e 02cc c23c 0e2f 90be 95b6 77be
00000200: c8c2 09be d4b7 00be bbf9 713e be32 613e
00000210: 54a7 06be 3283 86be c039 b23d ec0e 46be
00000220: bd08 43be 65de 8e3e 4c56 eabc 9c67 6a3e
00000230: 8e0c 2bbe b46d 863d 2c9c 18be a91a 253d
00000240: 4019 4e3c 2ad6 92be c874 cdbd cbb9 0c3e
00000250: a8f1 05be c2d2 5dbe 84df 323e 0cb9 3d3d
00000260: 45c2 48be 6bb1 833e 32fa 7fbd 1812 6e3e
00000270: f793 a53d 61b5 083e 265d 92be e2f3 183e
00000280: 09ae 9dbe e0ae 6dbd ceb1 41be 5662 78be
00000290: 4217 60be 05dd 9ebe adab 8d3e 8a96 5b3e
000002a0: b89b 8e3e 7751 18be fa2f 573d e593 43be
000002b0: 3810 21be d656 9ebe 4fc3 3cbe a706 7bbe
000002c0: 8571 213e 01dc 19bd 93f6 91bd 27c3 87be
000002d0: 26fb 4b3e 70ae b03d 8096 2a3b 7046 363d
000002e0: 3482 103e 0b11 a13d 74b3 3dbe eaf9 973e
000002f0: 9158 6d3e 070f b3be ae75 a4be 4108 ab3e
00000300: 5e58 47be 7ee6 c6bd f82c cf3d e2cc 86bd
00000310: 5e2a 53be ee05 1fbe 19c6 963e d3d2 b13e
00000320: f0c6 3c3e c897 063e ca97 343e 375a a6be
00000330: 026f 573d 71b0 2ebe b66f 9abe 4df8 793e
00000340: 2119 78be f4ab 853e ba00 e3bd 927b 0e3e
00000350: d52d 093d 062b 1a3e 7cd9 29be 84a6 b2be
00000360: 6ee9 9fbe c590 083e 3007 823e b79d 16be
00000370: e4d1 983c db0e 9dbe 9274 9fbe 21cd 8dbe
00000380: 85ea 4ebd b35b 8a3c e430 4bbe e6ec e73c
00000390: 815f 30be 53d7 d6bd 2d6d e13d 3880 e3bd
000003a0: 7fb5 4abe f9ad 6c3e d961 ab3e 476c ac3e
000003b0: 3c9c 88be e704 703c 7f34 493e e7c6 903e
000003c0: b610 933e fc86 083e 1328 87be 90c4 88be
000003d0: 3a89 acbe 9ee5 dd3d 8c49 8b3e e0b8 973e
000003e0: 2554 873e 7da3 ab3d 18a0 bfbd a140 383e
000003f0: ac05 903e 83b7 0a3d a257 433e ffa5 45be

encoder1.weight_hh_l0 f4 [32, 8]
-0.10816133 0.19309714 -0.18035665 0.26212534 -0.116425686 -0.1683775 -0.22428167 0.25270346
0.02263842 0.18744375 0.077198006 -0.13578232 -0.2179716 0.19717334 0.14798912 0.19312334
-0.166902 -0.34455225 -0.110914476 -0.19277874 0.13294849 0.002281775 0.19440746 -0.19246054
-0.06703952 -0.06562333 -0.30800357 0.13932705 0.0059694285 0.065425836 0.15836114 0.3494561
0.32987115 0.09621101 -0.17373876 -0.0097006345 0.16076942 -0.04945963 0.18590185 0.09388179
0.14099105 -0.2940372 0.101206265 -0.014681666 0.09328676 -0.14181416 0.11382504 0.1814805
-0.080904365 0.19582172 -0.23139049 -0.3389219 0.23514223 0.32852602 -0.011967901 -0.23151019
-0.30579242 -0.0023365682 0.3199797 0.26481315 0.08757987 -0.016137252 -0.08426563 -0.12681243
0.3170253 -0.3385198 -0.20677775 -0.062373947 -0.27875662 -0.19305184 0.21519868 -0.040371332
-0.3278957 0.15323329 0.082221635 -0.33253396 -0.29790726 0.28420445 0.16296275 -0.087592244
-0.16747476 0.06821394 -0.29653224 -0.18274915 -0.16217351 0.34719926 0.107076466 -0.0077840663
0.07419759 0.08792478 -0.3314627 -0.22040965 -0.044598494 0.24739309 -0.035924356 -0.028274322
-0.11974704 0.042537387 -0.18906675 -0.073821515 0.09533809 -0.33731315 -0.16964309 -0.16041689
-0.27891248 0.312736 0.12137087 0.33581138 -0.07842325 0.07390421 0.33912835 -0.33794165
0.15816648 -0.09242044 0.2802313 -0.11443636 -0.3106999 0.09695061 0.06000811 -0.099484935
0.18978189 -0.060707785 0.0025284097 0.3287249 -0.027807815 0.06423414 0.30617064 0.019872395
0.005286734 0.06772715 0.0034298738 0.10016224 -0.042713065 0.26946056 0.31608462 -0.20851552
-0.12195368 -0.2777549 0.15611112 -0.14702542 -0.209004 0.3378405 0.18381073 -0.06923612
-0.17023027 -0.3148271 -0.12046506 -0.24672101 0.34460172 -0.07775397 0.18402325 -0.10883864
0.14411336 -0.08385219 -0.25212958 0.296179 0.34768066 -0.33063772 0.20030285 -0.29295102
-0.10832603 -0.17231497 0.09631966 -0.06717244 0.31258315 -0.07504228 0.008185601 0.35221392
-0.32916367 -0.06676956 0.084536 -0.07979936 0.2285699 0.2629617 -0.06907515 0.2791292
-0.28318045 0.06907411 -0.10283588 -0.18534334 0.1398482 -0.106099434 -0.35129043 0.17314494
-0.13051732 0.16110551 -0.09941364 0.018158594 -0.2322152 -0.34156683 -0.25069347 0.18269797
-0.04228279 -0.19484526 -0.27611837 0.32718623 0.26587895 -0.29207036 -0.12976721 -0.33614907
0.2911616 -0.052990947 -0.14829713 0.24162851 -0.031737603 -0.18950707 0.055634644 -0.12210922
-0.27774963 0.23728076 0.30660218 0.23873284 -0.297909 -0.019108046 -0.26833388 -0.259511
-0.29687065 -0.12729575 -0.11888385 -0.23666827 0.13854468 -0.25732982 -0.08732042 -0.3446545
-0.31512344 -0.3232872 -0.062323835 -0.260604 0.19284572 0.21039863 0.32980528 -0.24716218
0.2756493 0.16734892 -0.06486896 0.038163733 0.07063635 0.2649215 -0.2956207 0.0844166
-0.067322575 0.05424411 0.27987036 0.16532323 -0.1074264 -0.3396346 -0.32708278 0.2643792
0.17023249 0.30620277 -0.16662857 0.25078 0.29950568 0.2168746 0.30905163 0.25378445
00000000: b083 ddbd 42bb 453e 6aaf 38be 4b35 863e
00000010: 9770 eebd 276b 2cbe 18aa 65be 5962 813e
00000020: 3574 b93c 41f1 3f3e fd19 9e3d 850a 0bbe
00000030: f233 5fbe cfe7 493e 768a 173e 20c2 453e
00000040: 5ce8 2abe 2769 b0be 2127 e3bd ca67 45be
00000050: a623 083e d589 153b c012 473e 6014 45be
00000060: 044c 89bd 8665 86bd a5b2 9dbe c0ab 0e3e
00000070: 329b c33b fbfd 853d 6c29 223e e9eb b23e
00000080: dfe4 a83e 470a c53d 93e8 31be 69ef 1ebc
00000090: bda0 243e 2e96 4abd 0e5d 3e3e 1945 c03d
000000a0: f55f 103e 0b8c 96be 3b45 cf3d 5f8b 70bc
000000b0: 210d bf3d bb37 11be 1a1d e93d 06d6 393e
000000c0: 30b1 a5bd 7d85 483e a1f1 6cbe 2c87 adbe
000000d0: 20c9 703e 9034 a83e 0415 44bc 0211 6dbe
000000e0: d390 9cbe 1c21 19bb 61d4 a33e 9795 873e
000000f0: 135d b33d 4532 84bc 7593 acbd 1edb 01be
00000100: 2451 a23e 7852 adbe 8cbd 53be d37b 7fbd
00000110: 30b9 8ebe 62af 45be 0b5d 5c3e 695c 25bd
00000120: f2e1 a7be 30e9 1c3e d163 a83d e441 aabe
00000130: 4d87 98be 3f83 913e b5df 263e 9063 b3bd
00000140: 817e 2bbe c0b3 8b3d 13d3 97be 9822 3bbe
00000150: d010 26be 1ac4 b13e e84a db3d 7b11 ffbb
00000160: e8f4 973d e811 b43d 7bb5 a9be 11b3 61be
00000170: e9ac 36bd 9d54 7d3e 6b25 13bd 8d9f e7bc
00000180: f03d f5bd af3b 2e3d b79a 41be bc2f 97bd
00000190: 9e40 c33d 4fb4 acbe ebb6 2dbe 5344 24be
000001a0: 9ecd 8ebe ef1e a03e 4a91 f83d 78ef ab3e
000001b0: 5e9c a0bd 175b 973d 3ba2 ad3e b006 adbe
000001c0: 65f6 213e ed46 bdbd 7a7a 8f3e 9c5d eabd
000001d0: 0f14 9fbe 0b8e c63d 10cb 753d c2be cbbd
000001e0: 2f56 423e baa8 78bd adb3 253b a14e a83e
000001f0: 37cd e3bc 308d 833d 66c2 9c3e 6fcb a23c
00000200: 573c ad3b 88b4 8a3d bcc7 603b dc21 cd3d
00000210: e5f3 2ebd bcf6 893e d8d5 a13e 1885 55be
00000220: dac2 f9bd e435 8ebe 98db 1f3e d58d 16be
00000230: 2505 56be 6ef9 ac3e e138 3c3e abcb 8dbd
00000240: d850 2ebe 0531 a1be 63b6 f6bd 6fa4 7cbe
00000250: a36f b03e 793d 9fbd 9770 3c3e cbe6 debd
00000260: 7492 133e b2ba abbd 2117 81be c6a4 973e
00000270: 3303 b23e 5949 a9be 311c 4d3e adfd 95be
00000280: 0ada ddbd 5673 30be 3e43 c53d b491 89bd
00000290: e60a a03e c4af 99bd e61c 063c 6255 b43e
000002a0: 2488 a8be 7bbe 88bd 3621 ad3d d96d a3bd
000002b0: 3a0e 6a3e eaa2 863e 4677 8dbd 06ea 8e3e
000002c0: 07fd 90be ba76 8d3d 9e9b d2bd a5ca 3dbe
000002d0: 5e34 0f3e a94a d9bd 57dc b3be e84c 313e
000002e0: 55a6 05be d8f8 243e 6199 cbbd 55c1 943c
000002f0: d2c9 6dbe d9e1 aebe e55a 80be 2d15 3b3e
00000300: b830 2dbd 8485 47be 635f 8dbe f484 a73e
00000310: 4921 883e 3f8a 95be b2e1 04be bb1b acbe
00000320: 2213 953e 090d 59bd 34db 17be 776d 773e
00000330: 4aff 01bd 240e 42be 27e1 633d 6614 fabd
00000340: 3335 8ebe baf9 723e f6fa 9c3e 6276 743e
00000350: 8787 98be 7a88 9cbc 0f63 89be a0de 84be
00000360: 6eff 97be d159 02be 6079 f3bd 2b59 72be
00000370: a8de 0d3e bcc0 83be 0cd5 b2bd 8e76 b0be
00000380: dc57 a1be e685 a5be 4747 7fbd e36d 85be
00000390: 5979 453e bd72 573e 3ddc a83e 1518 7dbe
000003a0: e821 8d3e 845d 2b3e 04da 84bd 9351 1c3d
000003b0: caa9 903d caa3 873e 995b 97be 9ce2 ac3d
000003c0: 6be0 89bd 122f 5e3d 2b4b 8f3e 7e4a 293e
000003d0: 5f02 dcbd 96e4 adbe 6577 a7be b65c 873e
000003e0: 6d51 2e3e 9cc6 9c3e aea0 2abe 3c66 803e
000003f0: cf58 993e 6014 5e3e 043c 9e3e 09f0 813e

encoder1.bias_ih_l0 f4 [32]
0.34804574 -0.24001978 -0.106473655 -0.10783739 -0.26258975 0.13039397 -0.26144153 0.046344183
-0.24815604 0.09223882 0.17477095 0.06525677 0.34523442 0.2783385 -0.046789806 0.0013314359
0.32474908 -0.18323338 0.073831014 0.16734268 -0.15979485 0.1801272 0.29232985 0.0060069817
-0.11026795 0.15138917 0.22497575 0.13119204 0.15437336 -0.22889805 -0.22307009 0.056973614
00000000: 0d33 b23e bfc7 75be dc0e dabd d9d9 dcbd
00000010: 2a72 86be ff85 053e aadb 85be 66d3 3d3d
00000020: 9e1c 7ebe b5e7 bc3d 28f7 323e 57a5 853d
00000030: 91c2 b03e 6282 8e3e aba6 3fbd 9383 ae3a
00000040: 8345 a63e 88a1 3bbe b734 973d e15b 2b3e
00000050: 43a1 23be 4473 383e 42ac 953e 37d6 c43b
00000060: 2ad4 e1bd c305 1b3e 0b60 663e 3557 063e
00000070: 0d14 1e3e 4064 6abe 7c6c 64be 2a5d 693d

encoder1.bias_hh_l0 f4 [32]
0.19468036 0.2781462 -0.09339927 0.28598177 -0.31003356 0.23821123 0.07850018 0.24459335
0.29597136 -0.21639013 -0.3535395 0.0054579056 0.3456203 -0.18506917 0.3241753 -0.15355909
0.123799846 -0.18001147 -0.22018757 -0.26539937 0.056409515 -0.32155296 0.2349484 -0.20055668
-0.22413613 0.06767722 -0.24725175 -0.17599224 0.30084893 -0.33965802 0.13569826 0.021910565
00000000: 4a5a 473e 2e69 8e3e 1e48 bfbd 346c 923e
00000010: b8bc 9ebe a5ed 733e b4c4 a03d ae76 7a3e
00000020: 8f89 973e 6095 5dbe 2103 b5be 3bd8 b23b
00000030: 25f5 b03e c682 3dbe 4efa a53e 983e 1dbe
00000040: c68a fd3d ed54 38be da78 61be 6de2 87be
00000050: aa0d 673d 97a2 a4be 5096 703e bb5e 4dbe
00000060: f183 65be 5b9a 8a3d 902f 7dbe 4f37 34be
00000070: df08 9a3e a8e7 adbe 7cf4 0a3e c97d b33c

encoder2.weight_ih_l0 f4 [16, 8]
0.21858883 0.42662534 0.27912706 -0.122086495 0.09021608 0.49392632 0.047212463 -0.4582894
-0.0006394419 0.32163444 -0.11634414 -0.007855398 0.26985416 0.082232624 0.27822348 0.24923402
-0.03828721 -0.34831586 -0.42398727 0.10978334 -0.19924553 0.49196804 -0.4262873 -0.22845353
-0.35006577 0.031383913 -0.45033383 -0.32741448 0.46377456 0.15780061 0.17170466 -0.3253748
0.18963745 -0.2086612 0.43892723 -0.38611323 -0.0696613 0.0095429635 -0.40268347 0.27768525
-0.17639157 0.44844264 -0.31110018 0.14282857 0.3332459 -0.24883324 -0.11100673 0.27462262
-0.2908599 0.257134 0.11388694 0.45955917 -0.46260586 0.11239701 -0.29315412 -0.012320057
0.46601737 -0.23587106 -0.09386691 0.30303466 -0.1576896 -0.41393986 0.44727296 0.09916235
-0.18296574 0.121872835 -0.41351086 0.23200792 -0.09817907 -0.12361273 -0.1350928 -0.46533102
0.25462562 0.03116452 -0.41723523 -0.29871985 0.35777193 0.2912159 -0.48250315 -0.38761127
0.4642294 -0.015999727 -0.4981755 0.452243 -0.07191401 0.02250805 -0.16064759 0.20193854
0.049896464 -0.20988916 0.20705448 0.020491809 0.037796378 -0.34802264 -0.17932537 0.32912517
-0.20760512 -0.07527236 -0.21854608 0.30759546 0.11195728 0.025307424 -0.22700024 -0.4365862
-0.29972443 0.024609746 0.49439594 0.2619709 -0.34083503 0.28945255 -0.33205807 -0.12322632
0.30939627 -0.006931981 -0.15877844 0.22042596 0.07813939 -0.28671747 -0.42243275 0.16768679
-0.21769972 0.20337527 -0.3752158 0.22382358 0.02482978 -0.47992 -0.23407313 0.15158892
00000000: c0d5 5f3e a36e da3e bee9 8e3e 7c08 fabd
00000010: 35c3 b83d e9e3 fc3e db61 413d e9a4 eabe
00000020: 38a0 27ba 45ad a43e d645 eebd edb3 00bc
00000030: 532a 8a3e 9469 a83d 4f73 8e3e 3437 7f3e
00000040: 0dd3 1cbd 7556 b2be dc14 d9be 16d6 e03d
00000050: 0507 4cbe 3ce3 fb3e 5442 dabe b9ef 69be
00000060: d23b b3be 6b8c 003d 2892 e6be dfa2 a7be
00000070: dc73 ed3e 7c96 213e 59d3 2f3e 8797 a6be
00000080: 5230 423e 48ab 55be 12bb e03e a2b0 c5be
00000090: 95aa 8ebd 175a 1c3c 872c cebe c32c 8e3e
000000a0: fe9f 34be 469a e53e 8648 9fbe a741 123e
000000b0: 359f aa3e 24ce 7ebe 7f57 e3bd 569b 8c3e
000000c0: 97eb 94be 11a7 833e 8e3d e93d 574b eb3e
000000d0: adda ecbe 6730 e63d 4c18 96be 10da 49bc
000000e0: d499 ee3e 2f88 71be 4b3d c0bd 5c27 9b3e
000000f0: 6279 21be edef d3be f600 e53e a115 cb3d
00000100: 5f5b 3bbe 7798 f93d b2b7 d3be 7c93 6d3e
00000110: 1c12 c9bd ac28 fdbd c455 0abe de3f eebe
00000120: 4a5e 823e bc4c ff3c db9f d5be cff1 98be
00000130: e22d b73e 401a 953e a70a f7be fc74 c6be
00000140: 7aaf ed3e dc11 83bc dc10 ffbe 658c e73e
00000150: a747 93bd cd62 b83c cd80 24be fac8 4e3e
00000160: 3c60 4c3d 2fed 56be 1706 543e 70de a73c
00000170: 60d0 1a3d 0630 b2be 12a1 37be 1883 a83e
00000180: 7096 54be 6528 9abd 8bca 5fbe 277d 9d3e
00000190: dc49 e53d 8451 cf3c c072 68be 3a88 dfbe
000001a0: 7b75 99be 619a c93c 7721 fd3e 0d21 863e
000001b0: ee81 aebe 2033 943e 8403 aabe 155e fcbd
000001c0: 3069 9e3e ac25 e3bb d196 22be 58b7 613e
000001d0: 8b07 a03d a2cc 92be 1b49 d8be 16b6 2b3e
000001e0: adec 5ebe 9b41 503e 491c c0be 0232 653e
000001f0: d367 cb3c 13b8 f5be deb0 6fbe 203a 1b3e

encoder2.weight_hh_l0 f4 [16, 4]
-0.37508157 0.045889776 0.116911486 0.020631561 -0.3727347 -0.0736338 -0.3797198 -0.40349725
-0.28524542 -0.44300765 -0.35773188 0.3142407 0.47681853 0.2274859 -0.40877813 -0.32579434
-0.118312605 0.41164768 0.05787031 0.13185877 -0.3491649 0.48150656 0.10273029 -0.3501462
0.32537732 -0.11520759 -0.046289347 -0.39200583 0.22674076 0.0896091 -0.08017955 0.329403
-0.20515168 0.3907778 0.2767413 -0.3711361 -0.43481192 -0.4094877 -0.49410164 -0.30242977
0.30405882 0.29802477 -0.43408597 0.2679308 -0.34519997 -0.06277055 -0.16110857 0.4199565
0.09836013 -0.0039545204 -0.3539157 -0.47948235 0.46916586 0.44882968 -0.32666376 0.43060154
0.21109493 0.4841729 -0.49017885 -0.2184836 -0.049701538 -0.120364 -0.42092925 -0.32001683
00000000: b10a c0be ebf6 3b3d 4a6f ef3d 8503 a93c
00000010: 15d7 bebe 51cd 96bd a26a c2be 3197 cebe
00000020: b00b 92be e6d1 e2be a228 b7be 28e4 a03e
00000030: 8f21 f43e 10f2 683e 5e4b d1be 84ce a6be
00000040: e14d f2bd 7cc3 d23e 6b09 6d3d fc05 073e
00000050: bec5 b2be 0788 f63e 4264 d23d 5d46 b3be
00000060: db97 a63e f5f1 ebbd e699 3dbd fdb4 c8be
00000070: bb2e 683e fa84 b73d 2d35 a4bd 83a7 a83e
00000080: 4813 52be 0714 c83e 09b1 8d3e 8d05 bebe
00000090: ab9f debe 5fa8 d1be e4fa fcbe 13d8 9abe
000000a0: 99ad 9b3e b496 983e 8440 debe 3a2e 893e
000000b0: 0dbe b0be d98d 80bd a5f9 24be 8a04 d73e
000000c0: 0971 c93d ec94 81bb 7034 b5be b67e f5be
000000d0: 8236 f03e 01cd e53e 7940 a7be ce77 dc3e
000000e0: 4529 583e 83e5 f73e b9f8 fabe 2aba 5fbe
000000f0: d793 4bbd 6781 f6bd 0a84 d7be 3fd9 a3be

encoder2.bias_ih_l0 f4 [16]
0.17870879 0.3243387 -0.02420997 0.3947262 -0.48039892 -0.2843748 -0.054214675 0.17619714
0.09850834 -0.0042048837 -0.39345253 -0.48973557 -0.35385486 -0.15918031 0.0453599 0.24592453
00000000: 70ff 363e b90f a63e fd53 c6bc 8d19 ca3e
00000010: d9f6 f5be 9399 91be 3510 5ebd 066d 343e
00000020: bebe c93d 1fc9 89bb 9c72 c9be 9fbe fabe
00000030: 772c b5be 2a00 23be 4dcb 393d a4d3 7b3e

encoder2.bias_hh_l0 f4 [16]
0.078185886 0.2248897 0.25247645 0.006237096 0.1550966 0.32607743 0.37493834 0.13289234
-0.37183008 -0.43029428 -0.35991317 0.1537408 -0.18260421 -0.2862987 0.30614492 -0.047748007
00000000: ec1f a03d 7c49 663e 9844 813e 8e60 cc3b
00000010: a5d1 1e3e 9ff3 a63e ebf7 bf3e ee14 083e
00000020: 8360 bebe 884f dcbe 8a46 b8be 3a6e 1d3e
00000030: 99fc 3abe be95 92be 07bf 9c3e 6a93 43bd

decoder1.weight_ih_l0 f4 [32, 4]
-0.15433921 -0.2706485 -0.09281617 -0.22705202 -0.23395315 -0.092227414 -0.0907942 0.05320468
-0.29551592 -0.023474988 -0.3353481 -0.08851169 0.1386178 0.08760508 0.14308399 -0.14158556
-0.05163985 0.04891472 0.16696669 0.05309441 -0.09029204 0.25922364 -0.34719756 0.26219097
0.046767633 0.08888243 -0.34285423 0.31058884 -0.0262141 -0.24902074 0.08386959 -0.09620731
-0.10538479 0.30070665 -0.28627843 -0.2163379 -0.13326858 -0.31318983 -0.10964919 0.34775832
-0.285887 -0.07407564 0.29013857 0.11145244 -0.24332362 0.015941812 -0.17549218 0.08192925
-0.22242288 0.15435937 -0.31805924 -0.03450012 -0.3445208 -0.22736286 0.018255068 -0.18402857
0.10142217 0.21801881 0.14470507 -0.11741497 -0.3234146 0.17519276 -0.034092158 -0.04274931
-0.19071753 0.22617152 0.04122725 -0.05898707 0.27568084 0.16965625 0.10056446 -0.084304884
0.23126508 -0.31609204 -0.2056457 0.036643725 -0.18952253 0.30505222 0.00573794 0.17871937
-0.26437318 -0.14885986 0.17833634 -0.27949077 -0.2068646 0.07834063 0.14815257 -0.045718342
-0.23912859 -0.06786825 0.08978164 0.23938839 0.32307243 -0.28062105 0.33676082 0.16229491
0.31316182 -0.30017656 0.26318404 -0.08346469 0.17734584 0.19323407 0.109063014 -0.07148375
0.23525198 0.19810675 -0.2857348 0.3012878 -0.012109154 -0.090068646 0.16502014 -0.16939518
-0.15897772 0.07261494 -0.29864928 -0.33320954 -0.195752 -0.13382272 0.1385768 0.05648274
0.3009824 -0.059555244 0.17698942 0.30094805 -0.26348215 -0.06471143 -0.012302542 0.1740678
00000000: 190b 1ebe 7192 8abe 6716 bebd 5380 68be
00000010: 6a91 6fbe bae1 bcbd 4ff2 b9bd 27ed 593d
00000020: dd4d 97be 9e4e c0bc bfb2 abbe 9e45 b5bd
00000030: d3f1 0d3e 4b6a b33d 9c84 123e cefb 10be
00000040: 4f84 53bd cd5a 483d 51f9 2a3e 8679 593d
00000050: 08eb b8bd f6b8 843e e1c3 b1be e53d 863e
00000060: 6b8f 3f3d fe07 b63d 978a afbe 8005 9f3e
00000070: f4be d6bc 4bff 7ebe d2c3 ab3d 5708 c5bd
00000080: fbd3 d7bd 39f6 993e 1693 92be af87 5dbe
00000090: 8f77 08be 6b5a a0be c18f e0bd 610d b23e
000000a0: c85f 92be f8b4 97bd 0b8d 943e 2d41 e43d
000000b0: d429 79be 6798 823c 39b4 33be 86ca a73d
000000c0: d3c2 63be 6210 1e3e a9d8 a2be ff4f 0dbd
000000d0: 0865 b0be cfd1 68be a78b 953c fc71 3cbe
000000e0: 6db6 cf3d 5340 5f3e 912d 143e 4377 f0bd
000000f0: 9996 a5be bb65 333e 38a4 0bbd e719 2fbd
00000100: 754b 43be 8299 673e e8dd 283d 6d9c 71bd
00000110: 0a26 8d3e 5eba 2d3e bdf4 cd3d 0aa8 acbd
00000120: c1d0 6c3e d1d6 a1be c994 52be bb17 163d
00000130: 3212 42be ce2f 9c3e 5405 bc3b 3602 373e
00000140: ec5b 87be b86e 18be cd9d 363e 6a19 8fbe
00000150: 50d4 53be 0d71 a03d 4fb5 173e 2843 3bbd
00000160: 20de 74be 82fe 8abd 70df b73d 3b22 753e
00000170: c069 a53e 90ad 8fbe ea6b ac3e a330 263e
00000180: bf56 a03e beb0 99be 0fc0 863e 89ef aabd
00000190: 269a 353e 27df 453e 6e5c df3d 1366 92bd
000001a0: e5e5 703e 7fdc 4a3e d54b 92be 6542 9a3e
000001b0: 7965 46bc e975 b8bd 0afb 283e ee75 2dbe
000001c0: 0ecb 22be 24b7 943d 8fe8 98be 719a aabe
000001d0: 3673 48be d308 09be 14e7 0d3e 725a 673d
000001e0: 5d1a 9a3e 33f0 73bd b73c 353e dd15 9a3e
000001f0: 22e7 86be 6d87 84bd 9a90 49bc d43e 323e

decoder1.weight_hh_l0 f4 [32, 8]
0.10781012 0.23515938 -0.08340635 -0.27089283 0.056611605 0.16600278 0.015201336 -0.0151818395
-0.09756604 0.034539524 -0.13324982 -0.29123133 -0.019508645 0.07364858 -0.2158115 0.0021708135
0.19023575 -0.017975671 -0.25573355 0.081770524 0.3001708 0.20874868 -0.2688113 -0.067123316
0.19737618 0.24558532 0.024937399 0.042625643 -0.26602417 -0.1986076 -0.33204964 0.21572977
0.352538 -0.31022578 -0.3473777 -0.24854146 -0.2355722 -0.24837111 0.17695275 0.32371494
-0.3113537 -0.22911464 0.347091 0.1503624 -0.0019074904 0.25293744 -0.1005421 0.2776915
-0.35179064 0.34071118 -0.1218423 0.22957514 0.040761627 -0.050156683 0.072769254 0.120250605
0.14459208 -0.17021652 -0.17634888 0.32811016 -0.26755288 0.07617853 0.0012228594 -0.22114573
-0.25097984 0.34071293 0.020455668 -0.1954664 0.06973486 0.31851643 -0.03879142 0.11066902
0.1524073 -0.099655345 -0.062078822 0.27284998 0.18203363 -0.27752566 0.25246456 -0.20083183
0.11713179 -0.052725106 -0.07563087 -0.261677 -0.18707967 0.030100567 -0.0017883426 -0.22771284
-0.27967605 0.34349802 -0.08597412 0.33571061 0.33171192 0.28697336 0.037971493 0.1396585
0.16087022 0.03463598 -0.050918397 0.27520183 0.17008594 -0.13222781 -0.17919353 0.2940128
-0.3277783 0.20273262 0.12879479 0.18525955 0.30267602 0.26270488 -0.076519035 0.118851244
0.2700323 0.0135896765 0.013337648 -0.14120878 0.14953178 -0.35221842 0.27209988 -0.11360561
-0.26005414 0.2381271 0.1720825 -0.17230152 -0.014913466 -0.23323497 -0.24509497 -0.017512096
-0.28922254 -0.16452824 0.0678056 0.08060406 0.04821303 0.2990209 -0.05511616 -0.20227922
-0.2849891 0.30805245 0.22780006 0.22748436 -0.21245532 0.011826014 -0.3220438 -0.15234888
-0.27173463 0.23842025 -0.24628821 0.2935108 0.1709918 -0.18429118 -0.2754583 0.23909712
-0.049655966 -0.24639784 0.23390359 0.22106206 0.22207507 -0.3045698 0.32446596 0.121649496
0.003065736 0.26639003 0.058053672 -0.25529167 0.31032988 -0.104645416 -0.07945214 -0.10063454
0.17426588 0.2831802 0.148013 0.3022701 0.10018245 0.21094634 0.23251681 0.1426027
0.3012843 -0.34112102 0.04533076 0.00047492623 0.05412957 -0.3216464 0.327901 0.1413743
0.07713737 -0.14604703 0.07904422 0.037654027 -0.029194765 0.2560067 0.29044634 0.25524414
-0.31116226 -0.17445861 -0.13631205 -0.24865413 0.052590918 0.12787332 -0.03590413 0.17908908
-0.10096392 0.071540564 0.32135728 0.32739154 -0.06498883 0.13803625 -0.091764525 -0.15425596
-0.09766444 -0.115075335 -0.08560998 0.041664083 -0.086561985 0.2725422 0.07511418 -0.10627308
-0.098391354 -0.03523246 -0.057500876 0.32793373 -0.31243098 -0.10116699 0.28905 -0.3220869
0.010824053 0.30787537 -0.22645983 0.12437699 -0.3212414 0.24304159 -0.27475208 0.09751114
0.036900114 0.29582396 0.045996074 -0.3305909 -0.15554787 -0.34050822 -0.06752084 -0.14705981
0.15687071 -0.24440426 0.11973227 -0.33314976 0.08724741 0.31638068 0.20115663 0.26035175
0.20666309 0.16313061 -0.123445 -0.005498541 -0.32866338 -0.316572 -0.1881921 0.08205386
00000000: 8dcb dc3d 9fcd 703e f3d0 aabd 77b2 8abe
00000010: 92e1 673d a2fc 293e 060f 793c 40bd 78bc
00000020: b4d0 c7bd 5179 0d3d a472 08be 461c 95be
00000030: 98d0 9fbc 11d5 963d b1fd 5cbe 3544 0e3b
00000040: 29cd 423e b741 93bc 82ef 82be 4e77 a73d
00000050: fdaf 993e 37c2 553e a2a1 89be f377 89bd
00000060: fb1c 4a3e b87a 7b3e 8449 cc3c 3a98 2e3d
00000070: 5234 88be ca5f 4bbe 6902 aabe 44e8 5c3e
00000080: dc7f b43e ead5 9ebe 7ddb b1be a781 7ebe
00000090: d739 71be ff54 7ebe 1a33 353e f7bd a53e
000000a0: c169 9fbe 079d 6abe e9b5 b13e 9af8 193e
000000b0: c204 faba 0481 813e 04e9 cdbd 952d 8e3e
000000c0: e71d b4be b271 ae3e 7588 f9bd bf15 6b3e
000000d0: aaf5 263d 1871 4dbd 0c08 953d f345 f63d
000000e0: f20f 143e 3d4d 2ebe cd94 34be 0efe a73e
000000f0: b1fc 88be 7d03 9c3d 5a48 a03a 0774 62be
00000100: 6e80 80be ed71 ae3e a592 a73c 5828 48be
00000110: 26d1 8e3d 9614 a33e c1e3 1ebd 70a6 e23d
00000120: a910 1c3e 1a18 ccbd 5d46 7ebd feb2 8b3e
00000130: 0667 3a3e d817 8ebe 0943 813e dca6 4dbe
00000140: cbe2 ef3d 48f6 57bd 5ce4 9abd 87fa 85be
00000150: d091 3fbe 7795 f63c d266 eaba 8e2d 69be
00000160: b331 8fbe f9de af3e 3313 b0bd 43e2 ab3e
00000170: 25d6 a93e 2cee 923e ff87 1b3d a302 0f3e
00000180: 2abb 243e 75de 0d3d cf8f 50bd 41e7 8c3e
00000190: 022b 2e3e ba66 07be 827e 37be d988 963e
000001a0: 8fd2 a7be 2499 4f3e c8e2 033e aeb4 3d3e
000001b0: 5af8 9a3e 4181 863e 03b6 9cbd 4868 f33d
000001c0: ac41 8a3e 3ca7 5e3c 2686 5a3c 0999 10be
000001d0: dc1e 193e f955 b4be ad50 8b3e 0faa e8bd
000001e0: d125 85be 97d7 733e 6536 303e cf6f 30be
000001f0: 9c57 74bc 26d5 6ebe 2dfa 7abe 8775 8fbc
00000200: fa14 94be 177a 28be aadd 8a3d be13 a53d
00000210: 077b 453d 4419 993e 7cc1 61bd 4922 4fbe
00000220: 17ea 91be 0db9 9d3e 6b44 693e a9f1 683e
00000230: e38d 59be e6c1 413c ede2 a4be 5801 1cbe
00000240: cd20 8bbe 7024 743e fa32 7cbe 0c47 963e
00000250: 7918 2f3e d4b6 3cbe df08 8dbe e0d5 743e
00000260: 0e64 4bbd b74f 7cbe 6c84 6f3e 185e 623e
00000270: a667 633e 93f0 9bbe 6720 a63e 5f23 f93d
00000280: 84ea 483b 4664 883e b0c9 6d3d 97b5 82be
00000290: 8fe3 9e3e 5650 d6bd ceb7 a2bd 7b19 cebd
000002a0: c172 323e fffc 903e b890 173e 26c3 9a3e
000002b0: 752c cd3d 5102 583e e318 6e3e 7106 123e
000002c0: f041 9a3e 6aa7 aebe bfac 393d 85ff f839
000002d0: f8b6 5d3d d6ae a4be a4e2 a73e 6dc4 103e
000002e0: 33fa 9d3d 5a8d 15be f0e1 a13d 1c3b 1a3d
000002f0: dc29 efbc 4f13 833e 62b5 943e 5caf 823e
00000300: a950 9fbe 47a5 32be 6395 0bbe 309f 7ebe
00000310: 9369 573d 39f1 023e 3610 13bd 2163 373e
00000320: 2cc6 cebd dc83 923d f188 a43e dd9f a73e
00000330: dd18 85bd 6059 0d3e 0aef bbbd 46f5 1dbe
00000340: 4b04 c8bd 9eac ebbd 4954 afbd f5a7 2a3d
00000350: 6947 b1bd a78a 8b3e 77d5 993d b3a5 d9bd
00000360: 6881 c9bd e94f 10bd 0a86 6bbd eee6 a73e
00000370: f4f6 9fbe a430 cfbd 5dfe 933e 93e8 a4be
00000380: 5e57 313c d7a1 9d3e 16e5 67be 5db9 fe3d
00000390: c179 a4be e5df 783e 4eac 8cbe ecb3 c73d
000003a0: 9324 173d 3d76 973e 6166 3c3d 3643 a9be
000003b0: f147 1fbe 1857 aebe 5e48 8abd d996 16be
000003c0: b7a2 203e 1c45 7abe 3136 f53d 9b92 aabe
000003d0: c5ae b23d a6fc a13e 01fc 4d3e d34c 853e
000003e0: 7d9f 533e b60b 273e bbd0 fcbd 1b2d b4bb
000003f0: 9146 a8be ba15 a2be 6eb5 40be db0b a83d

decoder1.bias_ih_l0 f4 [32]
-0.28260475 -0.08730461 -0.23208141 -0.20222856 0.07398182 -0.14270185 0.34999314 0.27141494
0.19093813 -0.23718974 0.12700695 0.044782165 -0.09917319 -0.15588854 0.14345351 -0.07905241
-0.12223643 -0.15969288 0.2833272 -0.15284672 -0.3042128 0.1866156 -0.06924935 0.047698047
-0.17034067 -0.06590488 -0.043421693 0.27629387 0.2180671 -0.06194421 -0.3231531 -0.079103105
00000000: 92b1 90be c2cc b2bd c0a6 6dbe 0115 4fbe
00000010: c883 973d 6f20 12be 4d32 b33e e6f6 8a3e
00000020: 4985 433e dee1 72be 1c0e 023e 816d 373d
00000030: 501b cbbd 3fa1 1fbe 7ae5 123e 3be6 a1bd
00000040: 1857 fabd 8886 23be 4310 913e da83 1cbe
00000050: c8c1 9bbe 2918 3f3e 9ad2 8dbd 075f 433d
00000060: c96d 2ebe 23f9 86bd f2da 31bd 6476 8d3e
00000070: fb4c 5f3e 36b9 7dbd 5374 a5be cf00 a2bd

decoder1.bias_hh_l0 f4 [32]
-0.18994893 -0.3002414 -0.32320836 -0.1719986 -0.24897361 -0.058604363 -0.16433856 -0.26144233
0.22783126 0.21688071 -0.22487931 0.2471542 -0.18702988 -0.061176125 -0.059006955 0.19575778
-0.28394604 -0.2755921 0.09571532 -0.2745885 -0.31045878 0.100312896 0.181259 -0.059332613
-0.21032354 -0.10569767 0.16552529 -0.22691372 0.35306612 -0.001938149 0.21124864 -0.16472454
00000000: f981 42be 3eb9 99be 917b a5be 6720 30be
00000010: f0f2 7ebe 210b 70bd 5e48 28be c5db 85be
00000020: 994c 693e fa15 5e3e c346 66be fe15 7d3e
00000030: c384 3fbe d193 7abd 47b1 71bd ba74 483e
00000040: 6061 91be 681a 8dbe 6506 c43d dd96 8cbe
00000050: 74f4 9ebe d970 cd3d f69b 393e c106 73bd
00000060: 0e5f 57be 0578 d8bd 767f 293e 125c 68be
00000070: 15c5 b43e 7d09 feba 9051 583e 8dad 28be

decoder2.weight_ih_l0 f4 [32, 8]
0.2554015 -0.16748916 -0.22687583 -0.013720236 0.013584449 -0.0018992363 0.35152408 -0.2981423
0.19656128 0.27116552 -0.20571461 0.16543673 -0.2519127 -0.27760497 0.34320137 -0.121958174
0.18078221 0.31323522 -0.31636462 -0.120471686 -0.24372388 -0.11451829 0.26909754 -0.08415712
-0.10627123 0.33527216 0.23036537 0.056449138 -0.007280301 -0.14829032 0.2657947 0.27901408
0.08893857 0.11798699 0.21267903 0.19868228 -0.1977483 0.1580627 -0.1600837 0.32925117
0.15976714 0.020697992 -0.32417196 -0.17406347 0.24961062 0.22976382 0.15625791 -0.16681132
-0.22708051 0.17041509 0.22233927 0.2855997 0.31070492 0.01000429 0.015367257 -0.25317565
0.33534133 0.22604871 -0.16041076 0.16618517 -0.24938743 0.2635665 -0.16745862 -0.32138002
-0.24104616 -0.13997282 0.19905241 -0.14393477 0.0064874184 0.019086003 -0.07787367 0.33488855
-0.25777128 -0.2124826 0.1700668 0.2882252 0.10198469 -0.16712795 0.15873478 0.008411917
-0.11040166 -0.3189798 -0.29947683 0.034719262 0.029061174 0.03511163 -0.299862 -0.21118201
-0.25124177 0.23385808 0.3296147 0.20110771 0.20290121 -0.021649152 0.30007508 -0.23904234
-0.21460436 -0.34310988 0.19608997 0.13615446 0.2968385 -0.24141106 0.17392069 -0.09531695
-0.17256075 0.27704006 -0.294321 -0.24583848 0.3367135 -0.00082768395 0.18458453 0.28072807
-0.21388468 -0.34333774 0.09957821 -0.07742706 0.18656208 0.24891327 -0.0176046 0.10097302
0.2463733 -0.20218058 0.29679286 -0.2570827 0.055868395 0.06781796 0.33743614 0.17653674
0.24839191 0.25728825 0.35203728 -0.2844128 -0.117050804 0.14778501 0.21891823 0.02318521
0.23234856 -0.18866809 -0.34248233 0.17271452 -0.17652644 -0.08197982 -0.28059727 -0.3050925
-0.24788338 -0.32884982 -0.26369357 -0.2640663 0.015095738 0.14319132 0.031953245 0.31558344
-0.08407503 0.09913243 0.13172613 -0.25750285 0.24546215 -0.046555873 0.3038895 0.14612551
0.03604218 0.30893147 -0.17965746 0.029179154 -0.2759842 0.0707374 0.08202854 0.13594568
0.20727794 0.28348002 -0.20248479 -0.022729198 0.23127167 -0.0057876506 0.107652 -0.08686111
-0.3374745 0.121594176 -0.18833144 0.22703359 0.034498945 -0.14097446 -0.22525144 0.11398175
0.020048592 -0.13789125 -0.13815549 0.13765806 -0.24110076 0.26325428 -0.029111153 0.119501404
0.16167285 -0.3230451 0.020647427 -0.17330886 0.19899303 -0.28779143 0.103330165 0.21783897
0.0845587 -0.17958403 -0.22962573 -0.33538228 -0.19783694 0.16078286 0.22065967 0.111136526
0.10438293 -0.08187385 -0.24207354 0.29188612 0.26866904 -0.19224687 -0.0841273 -0.33644024
-0.054403715 -0.0012707432 -0.16403289 -0.07504411 -0.24956314 -0.06622908 0.0049783518 0.094620824
0.29815575 -0.14892074 -0.070341475 -0.02449072 0.13748442 0.34690794 0.24368876 0.25045577
-0.139199 0.34388638 -0.060537927 -0.33819672 0.051366918 -0.23811857 -0.02486002 -0.27932417
0.3211968 0.13608891 -0.2205594 -0.34089398 -0.19519505 -0.09312175 -0.28804323 -0.093587875
-0.23542579 0.05345615 0.021421503 -0.3103763 0.2305853 0.27720362 -0.1160419 -0.30608758
00000000: fcc3 823e 4782 2bbe 2352 68be d7ca 60bc
00000010: 4f91 5e3c ccef f8ba f7fa b33e 1ca6 98be
00000020: 5c47 493e 35d6 8a3e daa6 52be 3f68 293e
00000030: b4fa 80be 3d22 8ebe 17b8 af3e 35c5 f9bd
00000040: f91e 393e 5e60 a03e 8bfa a1be dcb9 f6bd
00000050: c192 79be 9188 eabd 27c7 893e 915a acbd
00000060: bba4 d9bd cba8 ab3e e6e4 6b3e 3637 673d
00000070: 978f eebb 6bd9 17be 3e16 883e efda 8e3e
00000080: 6d25 b63d 2aa3 f13d 88c8 593e 5e73 4b3e
00000090: 887e 4abe 30db 213e fbec 23be 9c93 a83e
000000a0: ff99 233e d68e a93c def9 a5be b23d 32be
000000b0: ed99 7f3e 3547 6b3e 1302 203e 96d0 2abe
000000c0: cb87 68be 4b81 2e3e e8ac 633e 203a 923e
000000d0: b714 9f3e 09e9 233c f3c6 7b3c 3da0 81be
000000e0: dcb1 ab3e 5079 673e b842 24be 722c 2a3e
000000f0: 6b5f 7fbe 30f2 863e 467a 2bbe ec8b a4be
00000100: ced4 76be 0955 0fbe 65d4 4b3e a363 13be
00000110: 6994 d43b 405a 9c3c 3b7c 9fbd 8376 ab3e
00000120: 99fa 83be 0a95 59be fe25 2e3e 4192 933e
00000130: 59dd d03d 9723 2bbe 5f8b 223e 23d2 093c
00000140: 441a e2bd 5251 a3be 0755 99be c935 0e3d
00000150: b311 ee3c 36d1 0f3d 8387 99be 1940 58be
00000160: c3a2 80be 7e78 6f3e 42c3 a83e 2eef 4d3e
00000170: 56c5 4f3e 9059 b1bc 71a3 993e 84c7 74be
00000180: 3fc1 5bbe 19ac afbe cfcb 483e 136c 0b3e
00000190: 37fb 973e 7634 77be 4418 323e 8835 c3bd
000001a0: c4b3 30be 32d8 8d3e 3eb1 96be 15bd 7bbe
000001b0: b665 ac3e eef8 58ba ba03 3d3e 97bb 8f3e
000001c0: 9604 5bbe f7c9 afbe a9ef cb3d 1492 9ebd
000001d0: 210a 3f3e 1fe3 7e3e 8637 90bc f1ca ce3d
000001e0: 4849 7c3e 6d08 4fbe 3cf5 973e 58a0 83be
000001f0: 42d6 643d 25e4 8a3d 6ec4 ac3e 0cc6 343e
00000200: 735a 7e3e 49bb 833e 3b3e b43e 8e9e 91be
00000210: 55b8 efbd f454 173e 1a2c 603e e9ee bd3c
00000220: c8ec 6d3e 3532 41be d859 afbe 13dc 303e
00000230: 59c3 34be 09e5 a7bd 72aa 8fbe 1635 9cbe
00000240: 24d5 7dbe 015f a8be d802 87be b333 87be
00000250: 1d54 773c bfa0 123e 68e1 023d 2794 a13e
00000260: 882f acbd f205 cb3d 37e3 063e 6ad7 83be
00000270: 6e5a 7b3e 5fb1 3ebd 6897 9b3e eda1 153e
00000280: f7a0 133d 442c 9e3e 20f8 37be 1f09 ef3c
00000290: cd4d 8dbe c5de 903d 94fe a73d 5835 0b3e
000002a0: ab40 543e 4b24 913e 2c58 4fbe 9532 babc
000002b0: 7bd2 6c3e 55a6 bdbb a778 dc3d 3de4 b1bd
000002c0: 75c9 acbe 5e06 f93d f5d9 40be 7e7b 683e
000002d0: c44e 0d3d 9c5b 10be 50a8 66be 446f e93d
000002e0: f23c a43c 5d33 0dbe a278 0dbe 3cf6 0c3e
000002f0: 1ee3 76be 44c9 863e 837a eebc 27bd f43d
00000300: 918d 253e 2b66 a5be cb24 a93c e177 31be
00000310: d4c4 4b3e 6659 93be c49e d33d 2e11 5f3e
00000320: 1d2d ad3d e0e4 37be 0223 6bbe 3ab7 abbe
00000330: c495 4abe 43a4 243e 9cf4 613e 8c9b e33d
00000340: b8c6 d53d 7aad a7bd 20e2 77be 1972 953e
00000350: fd8e 893e 5ddc 44be ef4a acbd e541 acbe
00000360: 6ed6 5ebd 118f a6ba 3df8 27be bab0 99bd
00000370: 7b8d 7fbe 1da3 87bd 7121 a33b 90c8 c13d
00000380: dfa7 983e ae7e 18be 310f 90bd c3a0 c8bc
00000390: b7c8 0c3e eb9d b13e 8c89 793e bd3b 803e
000003a0: 2f8a 0ebe e011 b03e 9ef6 77bd 1f28 adbe
000003b0: 1e66 523d 5bd5 73be 3ea7 cbbc 9403 8fbe
000003c0: e873 a43e e45a 0b3e 53da 61be a889 aebe
000003d0: 36e1 47be 9eb6 bebd 677a 93be 00ab bfbd
000003e0: 7513 71be d6f4 5a3d 267c af3c a4e9 9ebe
000003f0: 8e1e 6c3e a2ed 8d3e 60a7 edbd 83b7 9cbe

decoder2.weight_hh_l0 f4 [32, 8]
-0.34151185 -0.14548552 -0.05154755 -0.07567683 -0.32051107 0.26110232 0.21179974 -0.006554483
0.17477755 -0.14151083 -0.024039242 0.18922804 0.16384067 -0.27408373 -0.061130594 0.008233999
0.14857191 -0.074700564 -0.10137265 -0.20252982 0.08961255 0.2267656 -0.29638878 -0.23328066
-0.16361383 -0.21589635 0.037069406 -0.019459613 0.150353 0.21710822 -0.1430399 -0.30715847
0.061987612 0.28186008 -0.16042875 -0.31514794 0.00924294 0.2784235 -0.32433632 -0.121569514
0.057929493 -0.2524885 -0.34916356 -0.04932503 0.17768589 0.32686436 0.08041733 0.30249295
-0.18440892 -0.23253231 -0.019863432 -0.31307855 0.2688413 -0.27439356 -0.26503178 -0.20932315
-0.1058065 0.2932792 0.02874232 -0.054718256 -0.27164078 -0.20618424 -0.23135497 -0.17417726
0.32081574 -0.13990378 -0.35327065 -0.23798472 0.3253706 0.17206787 -0.24943776 0.1480897
0.30784458 -0.24796773 0.062144678 -0.07511319 -0.07868187 -0.11533264 0.29511362 -0.024242658
-0.2523318 0.27817622 -0.19957504 0.18476424 0.089603916 0.119028844 -0.12309585 -0.06578668
-0.011092818 -0.33546534 -0.016507015 0.014276829 0.030749328 0.023708906 0.007222829 -0.3183664
0.06828166 -0.0076565244 -0.091638744 -0.10438662 0.23712692 -0.02820296 -0.016393134 0.34979472
-0.30785564 0.16064382 -0.053162623 -0.24877109 -0.24259776 -0.27266464 0.117164224 -0.32700482
0.29691654 -0.17444918 0.23959368 0.041841976 0.012071956 0.3379983 -0.26284435 -0.23548874
-0.32332018 -0.08503576 0.3348932 0.2762378 0.1697824 -0.18026505 0.11180461 0.0889703
-0.20700896 -0.19724594 0.05047498 -0.264287 -0.067878395 -0.24357902 -0.07597298 0.12204335
0.010274032 -0.08369897 0.12111192 0.22618084 -0.12508993 -0.003307595 0.29129142 0.31182605
0.09250484 0.25298202 -0.28752002 -0.29623944 -0.1316683 -0.24660848 0.30994356 0.11942592
0.15701665 0.32153505 -0.27140114 -0.08388109 0.08267216 -0.10329222 0.05072709 -0.19951579
-0.07360384 -0.22312497 0.110492654 0.19179142 -0.121570304 0.008473646 0.016437726 -0.1639566
-0.30609584 -0.19133195 -0.158464 0.30049202 -0.09203133 -0.07489441 -0.3223164 -0.06342349
-0.26509172 0.15300156 -0.094221584 -0.24791461 0.023504544 -0.2863626 0.18629597 0.22143972
0.09069396 -0.17913222 -0.16792114 -0.18292978 -0.05123608 0.0741744 0.21221708 -0.12274977
-0.30236593 -0.016216077 -0.07243187 -0.22195807 0.16969547 0.17677748 0.23610862 -0.13866623
-0.24259047 -0.19609201 -0.09191442 0.0049196794 0.034872755 0.17586541 -0.079937965 -0.18607835
-0.0793799 0.21990678 0.26226106 -0.07011496 -0.19601619 0.050462168 0.13058388 0.01256295
-0.25111154 -0.23227005 -0.25924924 -0.3321903 -0.014065674 0.06433475 0.14611594 0.12750721
0.104793444 -0.23674853 0.33547097 0.14790574 -0.035052598 -0.084024735 -0.13894856 -0.17827575
-0.14973447 0.21386842 0.3487498 -0.27981108 -0.27737296 0.16241339 -0.15010767 0.30808735
-0.09003154 0.056799334 0.046681635 -0.09588163 -0.3326056 -0.19546731 0.08515405 -0.26235288
0.2974657 -0.13604778 -0.0975763 0.3009374 -0.012500127 -0.029526558 -0.33766067 0.018568788
00000000: a4da aebe 28fa 14be 8623 53bd 74fc 9abd
00000010: 071a a4be 34af 853e 08e2 583e fdc6 d6bb
00000020: e3f8 323e 37e8 10be f2ed c4bc ffc4 413e
00000030: d9c5 273e b454 8cbe 1364 7abd e5e7 063c
00000040: 3c23 183e 9cfc 98bd 779c cfbd fa63 4fbe
00000050: c986 b73d 3e35 683e 45c0 97be 20e1 6ebe
00000060: 628a 27be ef13 5dbe 17d6 173d c469 9fbc
00000070: 23f6 193e 9e51 5e3e 0d79 12be e043 9dbe
00000080: b9e6 7d3d f74f 903e 6f47 24be 125b a1be
00000090: b36f 173c 868d 8e3e 690f a6be 70f9 f8bd
000000a0: 7a47 6d3d 2c46 81be 91c5 b2be 0b09 4abd
000000b0: 4af3 353e c45a a73e d7b1 a43d 5be0 9a3e
000000c0: b1d5 3cbe f31c 6ebe a3b8 a2bc d54b a0be
000000d0: 91a5 893e 507d 8cbe 3fb2 87be cf58 56be
000000e0: 14b1 d8bd b128 963e 0475 eb3c 4020 60bd
000000f0: 8014 8bbe f621 53be 51e8 6cbe 865b 32be
00000100: f641 a43e f042 0fbe e4df b4be 44b2 73be
00000110: fa96 a63e 8f32 303e 9d6c 7fbe d4a4 173e
00000120: ce9d 9d3e 41eb 7dbe 6b8b 7e3d f2d4 99bd
00000130: f623 a1bd 8533 ecbd 2219 973e 8a98 c6bc
00000140: a231 81be 1d6d 8e3e 665d 4cbe d632 3d3e
00000150: 4282 b73d 65c5 f33d ad19 fcbd 2bbb 86bd
00000160: a7be 35bc 1dc2 abbe b839 87bc 5ce9 693c
00000170: 04e6 fb3c 2e39 c23c 7bad ec3b ec00 a3be
00000180: 41d7 8b3d 95e3 fabb 18ad bbbd a7c8 d5bd
00000190: 66d1 723e e509 e7bc e54a 86bc 4b18 b33e
000001a0: 419f 9dbe d07f 243e 0dc1 59bd d9bd 7ebe
000001b0: 8c6b 78be b39a 8bbe ccf3 ef3d 2d6d a7be
000001c0: 7205 983e cea2 32be 0c58 753e 7e62 2b3d
000001d0: 74c9 453c 1d0e ad3e 8993 86be f623 71be
000001e0: 398a a5be 3b27 aebd 1f77 ab3e 0a6f 8d3e
000001f0: 70db 2d3e 6797 38be d1f9 e43d 1036 b63d
00000200: 28fa 53be d7fa 49be dabe 4e3d a050 87be
00000210: d403 8bbd c76c 79be b997 9bbd ddf1 f93d
00000220: 6a54 283c 5e6a abbd 8709 f83d f39b 673e
00000230: 9317 00be 3cc4 58bb 2624 953e aaa7 9f3e
00000240: 2d73 bd3d dc86 813e d335 93be b2ac 97be
00000250: 0ed4 06be ef86 7cbe ecb0 9e3e 9495 f43d
00000260: f9c8 203e 3ea0 a43e 17f5 8abe d9c9 abbd
00000270: 0550 a93d df8a d3bd 36c7 4f3d de4d 4cbe
00000280: 9cbd 96bd df7a 64be f949 e23d f864 443e
00000290: daf9 f8bd 0cd5 0a3c 69a8 863c 3de4 27be
000002a0: 98b8 9cbe 86ec 43be 6344 22be 17da 993e
000002b0: ec7a bcbd 3e62 99bd a806 a5be 2de4 81bd
000002c0: 1aba 87be 71ac 1c3e 3ff7 c0bd 54dd 7dbe
000002d0: 9a8c c03c 1e9e 92be 5fc4 3e3e 18c1 623e
000002e0: c1bd b93d 706e 37be 85f3 2bbe f251 3bbe
000002f0: ecdc 51bd bfe8 973d 6f4f 593e 3b64 fbbd
00000300: b5cf 9abe 94d7 84bc 2957 94bd fa48 63be
00000310: a6c4 2d3e 2805 353e 75c6 713e 85fe 0dbe
00000320: a369 78be 58cc 48be a13d bcbd 4335 a13b
00000330: bcd6 0e3d 1016 343e 84b6 a3bd 538b 3ebe
00000340: ee91 a2bd 3e2f 613e 1547 863e 6f98 8fbd
00000350: 78b8 48be 6bb1 4e3d c8b7 053e d5d4 4d3c
00000360: b191 80be 33d8 6dbe 51bc 84be d914 aabe
00000370: b673 66bc f0c1 833d 6b9f 153e 4091 023e
00000380: f29d d63d 356e 72be dac2 ab3e 9a74 173e
00000390: 5093 0fbd 2915 acbd 8848 0ebe eb8d 36be
000003a0: fe53 19be 5300 5b3e 558f b23e 6643 8fbe
000003b0: d403 8ebe b24f 263e d3b5 19be a0bd 9d3e
000003c0: 7562 b8bd 6ba6 683d 3e35 3f3d 975d c4bd
000003d0: 484b aabe 9528 48be 3f65 ae3d 1e53 86be
000003e0: 6d4d 983e 1c50 0bbe 15d6 c7bd 7814 9a3e
000003f0: 55cd 4cbc aee1 f1bc dce1 acbe 921d 983c

decoder2.bias_ih_l0 f4 [32]
-0.029276337 0.20044884 0.17148398 -0.116611235 0.07325565 -0.12277123 0.22573279 -0.20063977
0.31297216 -0.15745248 -0.294867 0.25675556 0.10907734 0.20465349 -0.012037119 0.20289144
0.13306153 0.18977284 -0.10317243 -0.31221116 0.05176746 0.058048032 0.19138454 -0.19541691
-0.043214664 0.29982376 0.22038661 -0.069096304 -0.15947679 0.35014936 0.17955105 0.29106015
00000000: eed4 efbc 7642 4d3e 7f99 2f3e dfd1 eebd
00000010: 0f07 963d 7c6f fbbd 7f26 673e 8374 4dbe
00000020: e33d a03e 393b 21be cff8 96be 7775 833e
00000030: f163 df3d af90 513e 5637 45bc c6c2 4f3e
00000040: 4841 083e d053 423e 114c d3bd 24da 9fbe
00000050: 1e0a 543d c6c3 6d3d 4ffa 433e 5f1b 48be
00000060: dc01 31bd 8082 993e 07ad 613e 5d82 8dbd
00000070: e24d 23be c746 b33e 3bdc 373e d605 953e

decoder2.bias_hh_l0 f4 [32]
-0.30330968 0.3313832 0.082534395 -0.23458143 0.08876818 -0.16521393 -0.014509072 -0.17847815
-0.22228973 0.1454793 0.20059359 0.2450156 -0.20586233 -0.08926617 0.14471602 0.08656508
0.15316534 -0.04518384 -0.1695378 0.25640047 -0.10761169 0.21848994 -0.0755667 0.11257877
0.110810496 -0.25417134 0.22037147 0.0772899 -0.052610744 0.038290035 -0.08046106 -0.28288737
00000000: 684b 9bbe 0fab a93e cb07 a93d 1d36 70be
00000010: 17cc b53d d72d 29be 75b7 6dbc fac2 36be
00000020: eb9f 63be 87f8 143e 6868 4d3e 5fe5 7a3e
00000030: 93cd 52be 2fd1 b6bd 7030 143e 0849 b13d
00000040: 60d7 1c3e b112 39bd 519b 2dbe ec46 833e
00000050: 8563 dcbd d4bb 5f3e b7c2 9abd b38f e63d
00000060: 9df0 e23d bf22 82be 0fa9 613e 2b4a 9e3d
00000070: 5d7e 57bd 03d6 1c3d c5c8 a4bd 9dd6 90be
