lightning_logs/lstm/version_1/checkpoints/epoch=19-step=20.ckpt (torch, 120439 bytes, 57 tensors)

embed.weight f4 [387, 16]
0.0 0.0 0.0 0.0 0.0 0.0 0.0 0.0
0.0 0.0 0.0 0.0 0.0 0.0 0.0 0.0
-1.6723973 -1.0487292 0.4692177 -0.7446383 -0.8929656 -0.09363876 1.4032907 -1.8001882
1.1759791 1.9037086 -0.7146195 0.580953 1.0422143 0.08525726 -0.09600169 -0.05688093
-0.5861325 0.1187003 -0.4900998 1.4529741 -2.336996 -0.19128716 -1.6825193 0.6676933
-0.35373968 1.0961488 2.2245061 1.2569785 2.3159888 0.49756557 0.2547469 -0.15399739
-0.51940024 -1.4239078 -1.4359528 0.5177162 -0.31529903 1.0038252 -2.192189 0.79613674
1.4986423 -0.94580364 0.17256127 0.4235672 0.19619027 0.9707375 -0.14839391 -0.11066989
-1.1215501 -1.5400244 1.6093228 0.60123813 1.5828123 0.26316246 1.4807539 0.18136087
1.1331888 -0.22432785 -0.9794581 -0.3654709 0.48007146 0.9361301 0.4926744 0.3643895
-0.27628526 1.3265957 0.01722832 -0.9098309 0.88284343 -1.0460348 0.03495392 0.43174013
-0.3595559 -1.4446568 0.79535884 0.045612466 1.5590441 1.6931651 0.29252684 -1.184177
0.0031894755 1.5579706 -0.25885078 -1.1992011 0.75285953 -2.0018468 0.8776144 0.9950056
1.3322984 -0.6702312 -1.1798102 -1.0154109 0.63383776 -0.034635622 0.029558124 -2.2434845
0.34359616 0.73305696 0.36473292 -0.4847363 0.52611345 0.9297883 -0.5983032 0.29010594
-1.2541127 -0.82733214 1.178965 -1.8357387 0.5829955 0.80085 -0.9330566 -0.09882185
-1.6068469 0.037960306 0.90876853 0.8496075 1.0074257 1.0063316 0.2597382 0.91215265
-0.21366115 1.3741611 -0.34980834 -1.3219566 -0.13527586 -0.5767563 1.1240523 0.03972647
-0.6764426 -0.22412522 0.3899059 0.84586215 0.32372722 -1.1249237 1.3917801 -1.5115294
-0.18928967 -1.1492339 -1.7298458 -1.1450016 0.63394016 -0.544835 0.58744204 0.9427143
-0.12018509 -0.800933 -0.67130435 -1.954894 -1.0405725 -1.2014554 -1.1156868 0.22712189
-2.147232 0.78688204 -1.4946002 0.87347066 -2.2506366 1.9132663 0.35676253 1.6747553
0.41683194 -0.42937225 0.5121573 -1.9646788 1.0625587 -1.0421151 -0.44527578 -2.1201558
-1.9625658 -0.08205629 0.5551595 1.1610965 0.17051825 -1.6810521 -0.56877077 0.6487529
1.321269 0.5782607 -1.1606332 -1.0829891 -0.21868415 1.777236 0.8583631 -0.6297765
-0.062392224 -0.5192396 -1.2626516 0.14224216 0.75277066 1.0784049 -0.061146446 0.4157944
0.7560963 -0.5208743 0.8993383 0.8236943 1.2979054 -1.6415895 0.25409195 0.6562936
1.4272195 -0.57857525 0.34276286 -1.2187037 2.5326805 0.13527878 2.481426 -0.26985377
-0.9729837 -0.010608729 -1.0598739 0.12583107 0.11463865 -0.8765765 -0.6432113 -1.318164
-0.2365485 0.08766309 -0.7253992 1.2563899 -1.941029 0.21799122 0.9672791 0.39440626
-1.0820891 -0.3683499 -1.920823 -0.30447322 0.49537736 -0.71396846 1.0731812 0.33327067
-1.6085731 1.1158223 0.4202023 0.9415435 -0.41570333 -0.2334028 -1.8603531 0.20626205
00000000: 0000 0000 0000 0000 0000 0000 0000 0000
00000010: 0000 0000 0000 0000 0000 0000 0000 0000
00000020: 0000 0000 0000 0000 0000 0000 0000 0000
00000030: 0000 0000 0000 0000 0000 0000 0000 0000
00000040: 1d11 d6bf c23c 86bf 4d3d f03e 9ea0 3ebf
00000050: 6599 64bf aec5 bfbd 089f b33f 916c e6bf
00000060: 7c86 963f b9ac f33f 4ef1 36bf 56b9 143f
00000070: 4767 853f 5c9b ae3d 899c c4bd fafb 68bd
00000080: c80c 16bf 2519 f33d 5cee fabe 0efb b93f
00000090: 5891 15c0 c8e0 43be cb5c d7bf f3ed 2a3f
000000a0: 5e1d b5be 9b4e 8c3f 4f5e 0e40 ace4 a03f
000000b0: 2939 1440 eac0 fe3e 306e 823e 7eb1 1dbe
000000c0: 6af7 04bf 9c42 b6bf 4dcd b7bf 0d89 043f
000000d0: e06e a1be 587d 803f d34c 0cc0 9ecf 4b3f
000000e0: 83d3 bf3f 3020 72bf e7b3 303e cddd d83e
000000f0: 1ae6 483e 4182 783f 93f4 17be e5a6 e2bd
00000100: f48e 8fbf 851f c5bf 4afe cd3f beea 193f
00000110: 9899 ca3f 3bbd 863e 5889 bd3f aab6 393e
00000120: 550c 913f 33b6 65be c4bd 7abf 001f bbbe
00000130: edcb f53e 39a6 6f3f d23f fc3e 4391 ba3e
00000140: 4375 8dbe e3cd a93f 6822 8d3c aeea 68bf
00000150: 0702 623f 78e4 85bf d72b 0f3d 0b0d dd3e
00000160: b617 b8be 84ea b8bf a39c 4b3f 23d4 3a3d
00000170: c28e c73f a2b9 d83f 14c6 953e 1d93 97bf
00000180: 8506 513b 956b c73f 1788 84be 6c7f 99bf
00000190: 67bb 403f 421e 00c0 56ab 603f b0b8 7e3f
000001a0: c188 aa3f 4694 2bbf 0504 97bf fcf8 81bf
000001b0: 3143 223f 15de 0dbd e123 f23c 4095 0fc0
000001c0: d6eb af3e 9fa9 3b3f 46be ba3e 5b2f f8be
000001d0: 5faf 063f 9b06 6e3f 662a 19bf c488 943e
000001e0: c486 a0bf 0acc 53bf 53e8 963f 7cf9 eabf
000001f0: 313f 153f 8104 4d3f ccdc 6ebf 1c63 cabd
00000200: 29ad cdbf 447c 1b3d 0ea5 683f e17f 593f
00000210: 53f3 803f 79cf 803f 68fc 843e d682 693f
00000220: fdc9 5abe 83e4 af3f 141a b3be e035 a9bf
00000230: c185 0abe 4da6 13bf f2e0 8f3f 39b8 223d
00000240: 582b 2dbf 1581 65be bfa1 c73e 6c8a 583f
00000250: 93bf a53e 80fd 8fbf da25 b23f cc79 c1bf
00000260: 27d5 41be 191a 93bf 966b ddbf 6a8f 92bf
00000270: e749 223f 4e7a 0bbf 9a62 163f b955 713f
00000280: 9a23 f6bd f209 4dbf 9ada 2bbf f739 fabf
00000290: 7b31 85bf 4ac9 99bf d3ce 8ebf a492 683e
000002a0: 406c 09c0 1a71 493f 0f4f bfbf c69b 5f3f
000002b0: 6e0a 10c0 e9e5 f43f 94a9 b63e 625e d63f
000002c0: ff6a d53e aed6 dbbe be1c 033f 987a fbbf
000002d0: ec01 883f 0764 85bf 30fb e3be a2b0 07c0
000002e0: 5b35 fbbf 210d a8bd ef1e 0e3f cf9e 943f
000002f0: 569c 2e3e b72c d7bf f69a 11bf ac14 263f
00000300: 581f a93f e508 143f a18f 94bf 639f 8abf
00000310: bdee 5fbe 787c e33f afbd 5b3f 0839 21bf
00000320: fd8e 7fbd e3ec 04bf 919e a1bf eea7 113e
00000330: 94b5 403f 2c09 8a3f b274 7abd 01e3 d43e
00000340: 878f 413f 0558 05bf 093b 663f a1dd 523f
00000350: c421 a63f 9b1f d2bf 5718 823e db02 283f
00000360: 21af b63f 821d 14bf 9d7e af3e 7cfe 9bbf
00000370: 7017 2240 8586 0a3e afcf 1e40 462a 8abe
00000380: 7615 79bf 3cd0 2dbc f3a9 87bf dcd9 003e
00000390: abc7 ea3d 5167 60bf 7fa9 24bf 99b9 a8bf
000003a0: c539 72be b588 b33d c3b3 39bf 62d1 a03f
000003b0: a373 f8bf 1739 5f3e 9a9f 773f 9eef c93e
000003c0: e581 8abf 5c98 bcbe 87dd f5bf eae3 9bbe
000003d0: 1aa2 fd3e a3c6 36bf 005e 893f 74a2 aa3e
000003e0: b9e5 cdbf 44d3 8e3f c224 d73e ff08 713f
000003f0: 11d7 d4be 2501 6fbe 0d20 eebf 5c36 533e

encoder1.weight_ih_l0 f4 [32, 17]
0.07080213 -0.0632444 0.24228548 -0.0917161 -0.1960478 0.19860138 0.16986685 -0.23663712
0.17743403 0.3430651 0.036116086 -0.09003823 -0.2501723 0.03327577 -0.33107406 0.27416676
0.28284672 0.085790336 0.0023911647 0.33447668 0.049686648 -0.3230951 -0.109647386 0.06662009
-0.30242684 0.2459126 0.053093538 -0.23965196 0.16862257 -0.28289732 -0.33081183 0.13737822
-0.29136956 -0.3271037 0.046796225 -0.07167831 -0.008025471 -0.318609 -0.1650751 0.2443128
0.34388304 0.23340094 0.022108981 -0.22927348 0.28674483 0.30847275 -0.12615274 0.04971146
0.18741411 0.25889352 -0.08925989 0.34378812 0.1229821 -0.2053914 0.35241544 0.048579674
-0.2852906 0.061287932 0.010843067 -0.23646674 0.23092946 -0.18669702 -0.01499307 -0.3178845
-0.12976949 -0.22188139 -0.072428524 -0.3029853 -0.028826091 -0.10119834 -0.11143008 -0.03425271
-0.17705168 -0.11639747 -0.15351142 0.11692982 -0.1597778 -0.034862593 -0.31959924 0.09979922
0.27660006 -0.20155485 -0.046015784 0.16446239 0.31367365 -0.3346814 -0.10000191 0.18819544
-0.14920093 0.311959 -0.17691413 -0.08494463 -0.24272396 -0.16753696 0.31815657 -0.107046865
0.032786485 0.111679725 0.35279307 -0.062694654 0.19255635 0.060024936 -0.045267917 -0.11797139
0.3498706 0.14929017 -0.07978153 0.048291475 -0.22950977 -0.069243915 -0.30403408 -0.31032574
0.01918417 -0.162479 -0.09180034 -0.02745834 -0.08806288 0.017495405 0.28742787 -0.30314007
0.263589 0.09572029 0.1841848 0.10649389 -0.20540193 -0.085906684 0.1778277 0.31638858
-0.34260926 -0.07602256 0.030801114 -0.097321205 0.07468756 -0.14125896 -0.24879032 0.08850449
0.11446927 -0.08195813 -0.02681187 -0.3157266 -0.26368412 -0.32560617 -0.17933771 -0.21201667
-0.19080868 0.27455714 0.20916018 -0.25987783 0.11829182 0.048998922 0.1706694 0.1348733
-0.23999684 0.03561452 0.044251043 0.19370326 -0.122160375 -0.29976207 -0.1712193 0.23702604
0.29724547 -0.3100315 -0.06845253 -0.10297626 -0.12377755 0.3250299 -0.3007076 0.02239592
0.19528645 0.09726302 0.17827986 0.013641423 0.10799698 -0.012348151 0.028653903 -0.077889204
-0.21813516 -0.2082115 -0.1508936 0.060155913 -0.24308 -0.0071421615 0.1723897 0.24587187
-0.31452766 0.119587675 0.13827449 -0.24043311 0.050043628 -0.17036994 0.10985257 0.26885593
-0.1585184 -0.02315639 0.29712266 -0.10133204 0.122074574 -0.22745587 0.113121726 -0.28061342
0.20117018 0.24301384 -0.2997421 -0.005743206 0.112269245 0.07448674 0.20386294 -0.019023346
-0.2665006 -0.029259453 0.30516103 -0.026462303 -0.28519887 0.17680599 0.22583425 0.015300934
-0.24199079 -0.29027396 -0.03286191 -0.31860667 -0.18242423 0.17098328 0.27105632 -0.09847959
-0.0013967522 0.12973094 -0.33164734 0.14345862 -0.07334469 -0.16523285 0.09439589 -0.31614015
0.30923304 -0.11796175 0.24777924 0.34736258 -0.3266404 0.1688458 0.3280001 0.06885341
0.32770216 0.15236405 -0.22654884 -0.28240204 -0.13950297 0.14364956 0.2459473 0.14943013
-0.0693205 -0.022377191 0.3074722 -0.097771324 -0.0002762663 -0.04108894 -0.30890173 0.3384697
00000000: b500 913d 4886 81bd af19 783e a7d5 bbbd
00000010: c1c0 48be 295e 4b3e 93f1 2d3e 0051 72be
00000020: 44b1 353e 3ba6 af3e 76ee 133d f765 b8bd
00000030: 9516 80be 2c4c 083d 8a82 a9be 965f 8c3e
00000040: 49d1 903e d8b2 af3d 16b5 1c3b 8740 ab3e
00000050: 3a84 4b3d b96c a5be cf8e e0bd 1d70 883d
00000060: b1d7 9abe 83d0 7b3e 9c78 593d 5367 75be
00000070: 65ab 2c3e ebd7 90be 2b60 a9be e0ac 0c3e
00000080: 642e 95be 237a a7be 66ad 3f3d 14cc 92bd
00000090: 447d 03bc b820 a3be 7209 29be 222d 7a3e
000000a0: 7011 b03e a800 6f3e e51d b53c abc6 6abe
000000b0: 38d0 923e 24f0 9d3e 2f2e 01be 3e9e 4b3d
000000c0: 7ce9 3f3e b18d 843e e4cd b6bd ff04 b03e
000000d0: 0ade fb3d 2052 52be cc6f b43e 7bfb 463d
000000e0: 9c11 92be 0e09 7b3d 1fa7 313c 5624 72be
000000f0: c678 6c3e 812d 3fbe 7ea5 75bc c2c1 a2be
00000100: 4be2 04be e034 63be 6855 94bd e420 9bbe
00000110: b224 ecbc 1341 cfbd 7435 e4bd 924c 0cbd
00000120: 094d 35be cc61 eebd 1932 1dbe e778 ef3d
00000130: cb9c 23be 14cc 0ebd 83a2 a3be 8963 cc3d
00000140: 869e 8d3e 6564 4ebe 0c7b 3cbd d468 283e
00000150: d599 a03e 5c5b abbe cdcd ccbd 4eb6 403e
00000160: 21c8 18be 17b9 9f3e fa28 35be 73f7 adbd
00000170: a18c 78be cf8e 2bbe 6be5 a23e 633b dbbd
00000180: 1f4b 063d 57b8 e43d 4ba1 b43e 0e66 80bd
00000190: 7e2d 453e b5dc 753d da6a 39bd fc9a f1bd
000001a0: 3d22 b33e 86df 183e 8064 a3bd 48cd 453d
000001b0: 9c04 6bbe c1cf 8dbd 5baa 9bbe 04e3 9ebe
000001c0: 1f28 9d3c e560 26be d101 bcbd 50f0 e0bc
000001d0: 505a b4bd 8652 8f3c bf29 933e 2d35 9bbe
000001e0: 23f5 863e 0009 c43d f19a 3c3e 7819 da3d
000001f0: e254 52be d8ef afbd 7718 363e affd a13e
00000200: 7b6a afbe b7b1 9bbd 9e52 fc3c 5750 c7bd
00000210: cbf5 983d 30a6 10be e4c2 7ebe d841 b53d
00000220: dd6e ea3d aad9 a7bd 91a4 dbbc eba6 a1be
00000230: 9b01 87be dab5 a6be 4ea4 37be e61a 59be
00000240: 5a63 43be c192 8c3e 162e 563e b50e 85be
00000250: fb42 f23d 18b3 483d f6c3 2e3e 3a1c 0a3e
00000260: bbc1 75be 88e0 113d 9540 353d 265a 463e
00000270: 382f fabd 6a7a 99be 1d54 2fbe f4b6 723e
00000280: 8f30 983e 73bc 9ebe d730 8cbd 38e5 d2bd
00000290: 167f fdbd 526a a63e 59f6 99be a677 b73c
000002a0: 2cf9 473e d631 c73d ff8e 363e 4680 5f3c
000002b0: 852d dd3d e64f 4abc 97bb ea3c 6084 9fbd
000002c0: d35e 5fbe 6535 55be da83 1abe 0c66 763d
000002d0: f7e9 78be cb08 eabb ed86 303e d6c5 7b3e
000002e0: c509 a1be 62ea f43d d497 0d3e 1934 76be
000002f0: 8cfa 4c3d 7575 2ebe 62fa e03d 7ca7 893e
00000300: a652 22be 78b2 bdbc 7620 983e 2c87 cfbd
00000310: 3c02 fa3d 31ea 68be 5dac e73d 90ac 8fbe
00000320: 8eff 4d3e 9fd8 783e cc77 99be 8131 bcbb
00000330: 6bed e53d 818c 983d 72c1 503e d9d6 9bbc
00000340: c472 88be 85b1 efbc 113e 9c3e 79c7 d8bc
00000350: 9605 92be a10c 353e 1841 673e c5b0 7a3c
00000360: 6fcc 77be ca9e 94be 369a 06bd 6a20 a3be
00000370: 6bcd 3abe 3e16 2f3e e5c7 8a3e abaf c9bd
00000380: 3a13 b7ba 30d8 043e aecd a9be d1e6 123e
00000390: be35 96bd cd32 29be a252 c13d 1fdd a1be
000003a0: cb53 9e3e ee95 f1bd d7b9 7d3e 82d9 b13e
000003b0: 693d a7be eae5 2c3e a1ef a73e 0403 8d3d
000003c0: 94c8 a73e 5205 1c3e 6bfc 67be 0097 90be
000003d0: ded9 0ebe df18 133e 9cd9 7b3e 3604 193e
000003e0: e8f7 8dbd 5f50 b7bc ff6c 9d3e 553c c8bd
000003f0: d6d7 90b9 e04c 28bd 5e28 9ebe e74b ad3e

encoder1.weight_hh_l0 f4 [32, 8]
-0.17398407 -0.34998396 -0.064513385 0.18385844 -0.29169714 0.24330346 -0.0034928906 0.098151565
0.33280554 0.25191978 0.19215412 0.1527213 -0.13950834 0.09549847 0.07958001 0.27581042
0.10247108 0.27655903 -0.03901254 0.2905459 -0.31341183 0.25053102 0.292805 -0.07809147
0.24791278 0.2835615 -0.31603777 0.20817268 0.045063127 0.13219489 0.084435254 -0.0055701993
-0.20065793 -0.12409439 0.06846162 0.18179509 -0.33461523 0.322321 -0.010703442 -0.06942904
-0.26117316 0.12692815 -0.26806518 -0.040856406 0.1279792 -0.057005074 -0.32300326 0.24941297
0.113130525 0.28791758 -0.1588816 0.10869387 -0.32726175 -0.0013366748 -0.0038767445 -0.2421195
-0.08947315 0.030690594 -0.2454879 -0.031927012 -0.3147277 -0.25786507 -0.14334589 0.15853246
0.15907054 0.21294677 0.3403044 0.18987958 -0.18451846 -0.03958448 -0.17400776 -0.06505125
0.26315832 0.17721811 0.10277833 0.19196734 0.04699321 -0.10278639 -0.34667808 -0.054786142
0.119868726 -0.35266626 -0.2810021 -0.19429202 -0.348202 0.25127023 -0.0758557 -0.16113667
-0.31715155 0.21433304 0.08141104 -0.13543303 -0.06482099 -0.09720885 -0.22115223 -0.037904587
0.2904552 -0.32873604 0.18674238 -0.21476893 -0.30340642 0.270008 0.22311427 -0.00084590534
-0.2538455 -0.32055858 -0.26526883 -0.15035428 0.17907391 0.16997074 -0.13769192 0.029402472
-0.14719711 -0.2959985 -0.3227335 -0.123927236 -0.13102601 0.2846411 0.13214765 0.047307678
0.3525649 0.30792925 0.32392162 -0.17991269 0.06828386 -0.3406594 0.28449348 0.057310995
-0.11009742 -0.18920574 0.30018687 0.06704509 -0.35254788 0.34817252 -0.05091475 -0.19242999
-0.17595786 0.15421781 -0.03663142 0.26443288 -0.2834493 -0.24793641 -0.29702497 -0.13239041
0.23509704 -0.22027686 -0.115938425 -0.21606943 -0.3338012 -0.28257456 0.01693259 0.12210329
0.043617047 0.22970267 0.3125898 -0.2965761 -0.2427545 0.058457203 0.06928902 -0.3288715
0.107053906 -0.27591935 -0.2731807 -0.18009551 -0.34246528 0.27862254 -0.32095018 0.11286276
0.15818019 0.049378715 -0.28768948 0.15890247 0.2920541 -0.29846206 -0.0022196728 -0.26016694
0.25077555 0.21682954 0.28732046 -0.04342013 -0.33551157 0.18403108 0.24694595 0.10068003
-0.3280673 0.036594115 0.28324643 0.07496362 -0.344905 0.22692716 -0.34032387 -0.046893604
-0.3157024 -0.2686917 0.20554289 0.18214071 -0.3092256 0.24887848 -0.2506163 0.121102296
0.2659508 -0.10585559 -0.26569474 0.3418777 -0.34153414 0.24720305 -0.33646476 0.053314216
0.06607854 -0.043273628 -0.10482193 -0.13731003 0.3195007 0.25487378 0.21829845 0.25714824
-0.04811198 -0.038784776 0.32748422 -0.28978002 0.29450837 0.30208078 0.2651218 -0.020343596
-0.12787324 0.04892543 0.08142768 -0.0843167 0.25294024 -0.3349338 0.26454213 -0.1553141
-0.1479307 -0.02251198 -0.12669471 -0.15331686 -0.12981744 -0.066302575 0.036774073 -0.2578661
-0.13884996 -0.17948696 -0.21300092 -0.093949676 0.11308961 0.084271744 -0.1167105 0.048982814
-0.20048149 -0.33397496 -0.07659881 0.30368 0.25725374 0.09859942 0.22441366 0.33225498
00000000: e128 32be 1931 b3be 981f 84bd 6345 3c3e
00000010: 5459 95be 8b24 793e fbe8 64bb b003 c93d
00000020: 7d65 aa3e a1fb 803e 0dc4 443e f962 1c3e
00000030: 46db 0ebe b494 c33d d8fa a23d 0637 8d3e
00000040: 5cdc d13d 2599 8d3e 9dcb 1fbd 6fc2 943e
00000050: 8477 a0be 9a45 803e 89ea 953e 6cee 9fbd
00000060: d9dc 7d3e f92e 913e b4cf a1be 382b 553e
00000070: 1d94 383d 195e 073e 64ec ac3d 3886 b6bb
00000080: 4679 4dbe 3325 febd 9b35 8c3d 7e28 3a3e
00000090: b052 abbe 4207 a53e 7d5d 2fbc d030 8ebd
000000a0: 7db8 85be 74f9 013e d73f 89be 0c59 27bd
000000b0: fb0c 033e 277e 69bd af60 a5be 1d66 7f3e
000000c0: fab0 e73d ef69 933e dcb1 22be e49a de3d
000000d0: da8e a7be 5d33 afba fb10 7ebb 2dee 77be
000000e0: b33d b7bd d76a fb3c 2e61 7bbe e6c5 02bd
000000f0: fd23 a1be e406 84be 44c9 12be 5556 223e
00000100: 63e3 223e b80e 5a3e 613c ae3e cb6f 423e
00000110: 68f2 3cbe 5623 22bd 172f 32be 9739 85bd
00000120: b0bc 863e aa78 353e 727d d23d 1693 443e
00000130: f47b 403d ac81 d2bd ca7f b1be 6f67 60bd
00000140: bc7d f53d ac90 b4be 82df 8fbe 7df4 46be
00000150: 8847 b2be 7ea6 803e 3c5a 9bbd 0301 25be
00000160: b061 a2be 1f7a 5b3e d5ba a63d f5ae 0abe
00000170: dec0 84bd 6f15 c7bd bb75 62be d741 1bbd
00000180: 8bb6 943e 1750 a8be 6539 3f3e 63ec 5bbe
00000190: 1658 9bbe 7d3e 8a3e 1178 643e bfbf 5dba
000001a0: 0af8 81be 4120 a4be 51d1 87be 79f6 19be
000001b0: 275f 373e cf0c 2e3e 1cff 0cbe 74dd f03c
000001c0: d7ba 16be 1e8d 97be 533d a5be 90cd fdbd
000001d0: af2b 06be 7abc 913e b751 073e b2c5 413d
000001e0: 6383 b43e e7a8 9d3e 0ed9 a53e 083b 38be
000001f0: 69d8 8b3d e96a aebe 21a9 913e efbe 6a3d
00000200: c27a e1bd 26bf 41be 18b2 993e f04e 893d
00000210: 2881 b4be ab43 b23e fc8b 50bd 5e0c 45be
00000220: 4c2e 34be 46eb 1d3e d40a 16bd bf63 873e
00000230: 4420 91be 0be3 7dbe a813 98be 5a91 07be
00000240: 47bd 703e 4290 61be 2071 edbd 4e41 5dbe
00000250: fee7 aabe 9dad 90be 37b6 8a3c 4a11 fa3d
00000260: caa7 323d 2d37 6b3e c50b a03e d3d8 97be
00000270: a394 78be d270 6f3d 67e7 8d3d d861 a8be
00000280: 143f db3d 4d45 8dbe 57de 8bbe f56a 38be
00000290: 9c57 afbe 9da7 8e3e 9553 a4be 9724 e73d
000002a0: fdf9 213e 5641 4a3d 094c 93be 54b7 223e
000002b0: 1d88 953e 05d0 98be ee77 11bb 9a34 85be
000002c0: a765 803e 9008 5e3e ab1b 933e 4ed9 31bd
000002d0: 2cc8 abbe a572 3c3e 66df 7c3e 5531 ce3d
000002e0: 70f8 a7be b6e3 153d ad05 913e 8786 993d
000002f0: 6397 b0be 985f 683e ee3e aebe 8213 40bd
00000300: bfa3 a1be f591 89be d679 523e 1883 3a3e
00000310: d152 9ebe 00da 7e3e c850 80be 7b04 f83d
00000320: b42a 883e d1ca d8bd 2409 88be 980a af3e
00000330: 90dd aebe cc22 7d3e 1c45 acbe 0260 5a3d
00000340: 3054 873d b03f 31bd e1ac d6bd 009b 0cbe
00000350: 9995 a33e d17e 823e a189 5f3e efa8 833e
00000360: 1111 45bd c9dc 1ebd 03ac a73e 0c5e 94be
00000370: cdc9 963e 55aa 9a3e 0bbe 873e 9da7 a6bc
00000380: 34f1 02be 0866 483d 8ec3 a63d 3cae acbd
00000390: 6281 813e 717c abbe 1172 873e a90a 1fbe
000003a0: 257b 17be 0b6b b8bc 42bc 01be 18ff 1cbe
000003b0: ddee 04be a5c9 87bd 69a0 163d 0707 84be
000003c0: af2e 0ebe 6ecb 37be ea1c 5abe b068 c0bd
000003d0: 879b e73d aa96 ac3d ea05 efbd 34a2 483d
000003e0: 054b 4dbe c4fe aabe d6df 9cbd f27b 9b3e
000003f0: c3b6 833e 7eee c93d b2cc 653e 531d aa3e

encoder1.bias_ih_l0 f4 [32]
0.064908534 0.07069916 -0.0014718865 -0.13984686 -0.31575143 -0.29122445 0.26244786 -0.14530884
-0.25581872 0.0458459 -0.29541993 0.3301876 0.16844164 0.2623063 -0.26511616 -0.34955066
0.29164892 -0.3397915 0.060850687 0.27642217 -0.298809 -0.2586736 -0.30768934 -0.008317025
0.2215104 -0.024862206 -0.0114167435 -0.09760377 -0.0027581702 -0.064368695 -0.13328575 -0.037088126
00000000: c4ee 843d b9ca 903d 51ec c0ba 0434 0fbe
00000010: 2caa a1be 5f1b 95be 915f 863e d7cb 14be
00000020: acfa 82be e9c8 3b3d 4841 97be 590e a93e
00000030: f77b 2c3e 034d 863e 4ebd 87be 4ef8 b2be
00000040: 0253 953e 27f9 adbe 923e 793d 3587 8d3e
00000050: 7efd 98be de70 84be 7589 9dbe 2244 08bc
00000060: 9fd3 623e d3ab cbbc 4b0d 3bbc 7ce4 c7bd
00000070: 6bc2 34bb bcd3 83bd 0f7c 08be b8e9 17bd

encoder1.bias_hh_l0 f4 [32]
0.09805691 -0.34268114 -0.31352663 -0.042346697 -0.18725538 0.12022392 -0.28040168 -0.014658374
-0.1684548 -0.002381767 0.28080317 -0.03511566 0.24511836 -0.10498232 0.14168106 0.22379717
-0.10884745 0.17978644 0.35071075 -0.25258452 -0.09249257 0.1259667 0.0814252 -0.33075064
-0.14602144 -0.068917766 0.03311183 -0.15195177 -0.33444622 -0.2464761 -0.06262684 0.2769686
00000000: 10d2 c83d e773 afbe 9086 a0be bb73 2dbd
00000010: e0bf 3fbe f537 f63d cf90 8fbe ad29 70bc
00000020: 6a7f 2cbe 6b17 1cbb 6fc5 8f3e 70d5 0fbd
00000030: 4f00 7b3e f800 d7bd d714 113e 162b 653e
00000040: 69eb debd f019 383e 5c90 b33e c252 81be
00000050: bf6c bdbd 6afd 003e 41c2 a63d 2658 a9be
00000060: a586 15be c224 8dbd 45a0 073d 3f99 1bbe
00000070: 893c abbe 3b64 7cbe 8042 80bd d4ce 8d3e

encoder2.weight_ih_l0 f4 [16, 8]
-0.45653427 0.014798172 0.09865178 0.39841855 -0.015556686 0.17779884 -0.009553956 -0.043958157
-0.17549479 0.15422957 0.002249558 -0.0650852 -0.015945908 0.2821398 -0.06735746 -0.20232397
0.009098175 0.41427523 0.090629905 -0.24734294 0.044663582 -0.24452206 -0.43141404 -0.3552326
0.40376988 -0.19946337 -0.36313882 0.396111 0.15642478 0.25795576 -0.3574971 -0.4239752
0.37942356 -0.4460134 -0.31918916 0.44938725 -0.09919071 0.42840186 0.36142993 0.28525704
-0.17477386 -0.27786553 -0.18479498 -0.08531037 -0.27425385 -0.23989527 -0.0858591 0.4658743
-0.2149087 -0.0022965993 -0.031365786 -0.45304465 -0.121042706 -0.40051362 0.49514747 0.287686
0.0051326887 -0.22921169 -0.30029815 -0.40231353 -0.17410758 -0.44668758 0.21957588 0.26459256
-0.019109465 0.22952864 0.012557873 -0.2279828 -0.22593172 -0.3385637 -0.36097634 0.37841642
0.13899195 -0.2361009 0.26220292 -0.09081114 0.098749265 -0.18566021 0.4880461 0.4231796
-0.37710637 0.35391298 -0.29116857 0.44464868 -0.3726509 -0.043874368 0.12830734 0.012906161
0.38008377 0.31926584 0.19277543 -0.4800099 0.33262604 0.48374736 -0.27781916 -0.3153276
0.32538855 0.42053053 0.30691385 0.35784662 -0.28693488 -0.48457316 0.038662154 0.45607105
0.381258 0.47456238 -0.42234588 -0.2365851 -0.20438299 -0.09628404 0.34567517 0.06957016
-0.48536694 0.21801667 0.27176246 0.33954343 0.36068445 -0.14368623 -0.0658252 -0.28602356
0.2699346 -0.3259375 0.4862138 -0.3540093 0.32997134 -0.15673846 -0.055217218 -0.28967535
00000000: dcbe e9be 0874 723c f209 ca3d 84fd cb3e
00000010: 78e1 7ebc e610 363e 3288 1cbc 780d 34bd
00000020: e8b4 33be 5bee 1d3e 526d 133b 644b 85bd
00000030: fea0 82bc a174 903e b5f2 89bd 042e 4fbe
00000040: 8310 153c e21b d43e 2c9c b93d 7847 7dbe
00000050: 29f1 363d fe63 7abe 4de2 dcbe 0ce1 b5be
00000060: edba ce3e 2040 4cbe 55ed b9be 10cf ca3e
00000070: d12d 203e c712 843e dc09 b7be 4713 d9be
00000080: ce43 c23e de5b e4be c36c a3be 1616 e63e
00000090: 8024 cbbd 7d57 db3e 580d b93e 360d 923e
000000a0: ebf7 32be 6444 8ebe e53a 3dbe 34b7 aebd
000000b0: 006b 8cbe 1ba7 75be e5d6 afbd 1487 ee3e
000000c0: 0711 5cbe 8b82 16bb 6979 00bd 78f5 e7be
000000d0: 3de5 f7bd 1f10 cdbe f883 fd3e 944b 933e
000000e0: 1d30 a83b 78b6 6abe aec0 99be 0afc cdbe
000000f0: 4249 32be 3cb4 e4be 80d8 603e ad78 873e
00000100: 748b 9cbc 8e09 6b3e 89bf 4d3c 5374 69be
00000110: a55a 67be 3958 adbe e4d1 b8be ccbf c13e
00000120: e853 0e3e 6fc4 71be 763f 863e 31fb b9bd
00000130: 0e3d ca3d b61d 3ebe 2ee1 f93e ffaa d83e
00000140: 1614 c1be 1534 b53e 0c14 95be fea8 e33e
00000150: 19cc bebe 9cb5 33bd 0063 033e 5d74 533c
00000160: 579a c23e d076 a33e ec66 453e dcc3 f5be
00000170: f64d aa3e bcad f73e 503e 8ebe 9f72 a1be
00000180: 5499 a63e c74f d73e d023 9d3e ac37 b73e
00000190: 21e9 92be f919 f8be 355c 1e3d 2582 e93e
000001a0: 4034 c33e d7f9 f23e b83d d8be 5d43 72be
000001b0: c649 51be 9130 c5bd 56fc b03e cd7a 8e3d
000001c0: 0482 f8be c33f 5f3e 7324 8b3e a3d8 ad3e
000001d0: a2ab b83e 7c22 13be 5dcf 86bd ae71 92be
000001e0: de34 8a3e 48e1 a6be 04f1 f83e b540 b5be
000001f0: 01f2 a83e 0c80 20be 732b 62bd 5450 94be

encoder2.weight_hh_l0 f4 [16, 4]
0.07067904 0.43036744 0.3538163 -0.030459091 -0.11154003 0.32689556 -0.3983259 0.3540272
-0.03432291 -0.06508275 0.13094673 0.1054532 -0.035119772 0.47138608 0.105270036 -0.25243077
-0.4049782 0.16199963 -0.19047548 -0.3605859 0.022639547 0.07452299 0.43563572 -0.10915521
0.3500174 0.17492673 0.30117688 -0.22502178 0.480066 0.0098229265 -0.26136112 -0.021796132
-0.24716954 0.0064597093 0.0074407444 0.13329507 -0.42678547 -0.18732196 0.14161856 -0.33159488
0.28966725 0.18315314 -0.18524764 -0.19545616 0.28421193 0.35439014 -0.17218582 -0.0032056638
0.23255278 0.42057034 -0.10367946 -0.3727406 -0.07556421 0.39385957 -0.3211737 0.28683096
-0.305442 -0.14309086 -0.0047331294 0.11644762 0.07257836 -0.38797277 -0.17110382 -0.3013568
00000000: 2cc0 903d 1f59 dc3e 6927 b53e 5885 f9bc
00000010: 196f e4bd db5e a73e 5ff1 cbbe 0e43 b53e
00000020: 2e96 0cbd 1b4a 85bd e616 063e d9f7 d73d
00000030: c0d9 0fbd 8459 f13e d197 d73d 9b3e 81be
00000040: 4d59 cfbe 3be3 253e 010c 43be b79e b8be
00000050: 9276 b93c 829f 983d a50b df3e c48c dfbd
00000060: 7b35 b33e fe1f 333e db33 9a3e 1c6c 66be
00000070: 36cb f53e 57f0 203c 20d1 85be cd8d b2bc
00000080: 031a 7dbe f8ab d33b 7dd1 f33b 817e 083e
00000090: a083 dabe 54d1 3fbe 7504 113e cec6 a9be
000000a0: 444f 943e 7f8c 3b3e 8fb1 3dbe a925 48be
000000b0: 3a84 913e a072 b53e 7b51 30be 1d16 52bb
000000c0: 5122 6e3e ff54 d73e e655 d4bd dbd7 bebe
000000d0: 69c1 9abd f6a7 c93e e170 a4be 82db 923e
000000e0: e562 9cbe 6986 12be 5e18 9bbb 177c ee3d
000000f0: f7a3 943d 5ea4 c6be d735 2fbe 704b 9abe

encoder2.bias_ih_l0 f4 [16]
0.41491848 0.103032716 -0.29305595 -0.011789594 0.2965099 -0.3835401 0.18704386 -0.3037497
-0.39000887 0.34250087 0.4084995 -0.48166257 -0.4064928 -0.32145852 0.26010013 -0.32246956
00000000: 3270 d43e d102 d33d 6e0b 96be 2429 41bc
00000010: 25d0 973e 5e5f c4be 6d88 3f3e 1585 9bbe
00000020: 3eaf c7be 465c af3e d926 d13e 7a9c f6be
00000030: d31f d0be 3696 a4be d82b 853e bb1a a5be

encoder2.bias_hh_l0 f4 [16]
0.43526495 0.118781276 -0.25951815 0.4524879 0.14187981 0.052280754 0.16742726 0.32766816
0.008956425 -0.25606745 -0.13296282 -0.13623732 0.4202656 0.26970112 0.22579052 -0.3515971
00000000: 0cdb de3e 9943 f33d 90df 84be 7eac e73e
00000010: f148 113e 5824 563d 0d72 2b3e 1fc4 a73e
00000020: f8bd 123c 461b 83be 6827 08be cc81 0bbe
00000030: 0d2d d73e 4416 8a3e a135 673e 8904 b4be

decoder1.weight_ih_l0 f4 [32, 4]
-0.18743078 -0.3041322 0.30051553 0.27431536 -0.25094414 0.097940415 -0.33563575 -0.2205249
0.34678736 -0.1341198 0.13389593 -0.14114136 -0.2997163 -0.30858755 -0.0063766497 -0.20138443
-0.2059162 0.29550654 0.3463925 -0.24042991 0.09926104 -0.35003307 -0.14396492 0.272379
-0.17865072 -0.013130944 -0.20062637 0.16307722 -0.10303406 0.21146461 0.13028054 0.004275134
0.28812563 0.19112162 0.25714654 0.016966809 -0.23167807 -0.1924742 -0.19506931 0.31504598
0.21315221 0.13623346 -0.06642417 -0.1024758 -0.16434439 0.22215548 -0.119271874 0.34008792
0.19041224 0.23603544 0.017163781 -0.018802762 -0.26080045 -0.09517395 0.3067933 -0.00062214694
0.040409725 -0.14103179 -0.0031374234 -0.047969926 0.13854109 0.34737155 -0.18638285 0.2754335
-0.0028424428 0.26827222 0.22817591 0.2457713 0.00961907 -0.2534014 -0.333222 -0.12126763
0.05661325 0.17022893 -0.103218384 0.29027608 -0.17653844 0.17792365 0.30898926 -0.19896434
0.03656259 0.23766677 -0.27389163 -0.22261843 -0.047824185 0.3426399 0.23807053 0.102728106
0.21568663 0.23495951 -0.28382948 0.25716966 -0.31835073 -0.015425969 -0.19414902 -0.34603333
0.14855406 0.16127174 0.28124568 0.14086692 0.31541649 -0.21872693 -0.054711033 0.16121218
-0.06037749 0.039006043 -0.26909468 0.124663115 0.052093778 -0.041741505 -0.21459329 -0.067769945
-0.18416575 0.14970957 -0.07286889 0.01935734 -0.123413645 0.060941283 0.22104518 0.34895125
-0.08750869 0.3275656 0.27382365 -0.09632609 0.09513949 0.20112434 -0.003411133 0.0084922705
00000000: dbed 3fbe 37b7 9bbe 2cdd 993e 1073 8c3e
00000010: c07b 80be fc94 c83d 73d8 abbe 48d1 61be
00000020: 1d8e b13e b356 09be 041c 093e 5c87 10be
00000030: 6a74 99be 30ff 9dbe 37f3 d0bb b837 4ebe
00000040: b2db 52be a24c 973e 5c5a b13e 4233 76be
00000050: 5f49 cb3d 8937 b3be 8a6b 13be 4375 8b3e
00000060: 37f0 36be 2c23 57bc 0071 4dbe b7fd 263e
00000070: 8503 d3bd 2e8a 583e 4368 053e 6c16 8c3b
00000080: 3485 933e 63b5 433e b6a8 833e fafd 8a3c
00000090: 043d 6dbe f517 45be 40c0 47be b54d a13e
000000a0: 9344 5a3e c980 0b3e 6509 88bd d5de d1bd
000000b0: e549 28be ba7c 633e d044 f4bd 0120 ae3e
000000c0: 6dfb 423e 46b3 713e 0f9b 8c3c 4008 9abc
000000d0: a387 85be 8fea c2bd 0314 9d3e 9317 23ba
000000e0: ab84 253d a36a 10be 3b9d 4dbb 1d7c 44bd
000000f0: b7dd 0d3e afda b13e 25db 3ebe 9f05 8d3e
00000100: 4748 3abb fa5a 893e f2a6 693e 79ab 7b3e
00000110: 4e99 1d3c d4bd 81be 139c aabe 2a5b f8bd
00000120: 4ce3 673d 7e50 2e3e 2964 d3bd 119f 943e
00000130: 7ec6 34be 9e31 363e d733 9e3e 4fbd 4bbe
00000140: a8c2 153d eb5e 733e 863b 8cbe 16f6 63be
00000150: 4be3 43bd 7f6e af3e c3c8 733e 1d63 d23d
00000160: f5dc 5c3e 3a99 703e 1952 91be beab 833e
00000170: defe a2be 34bd 7cbc 00cf 46be 482b b1be
00000180: 8e1e 183e 6b24 253e 6fff 8f3e 6b3f 103e
00000190: 457e a13e f4f9 5fbe ad18 60bd ce14 253e
000001a0: 634e 77bd cdc4 1f3d c7c6 89be 604f ff3d
000001b0: 4960 553d 24f9 2abd 58be 5bbe f8ca 8abd
000001c0: f295 3cbe 774d 193e 493c 95bd 4993 9e3c
000001d0: 4bc0 fcbd 919d 793d ab59 623e bda9 b23e
000001e0: c237 b3bd aeb6 a73e 9d32 8c3e 9d46 c5bd
000001f0: 7ed8 c23d 8af3 4d3e 518d 5fbb 2a23 0b3c

decoder1.weight_hh_l0 f4 [32, 8]
-0.116231225 0.29959372 0.30934247 0.009081622 0.21240658 0.044014428 0.03184163 -0.18266684
-0.2716883 0.26194122 -0.09168706 0.031742208 0.28587708 -0.29122305 -0.22171088 -0.13504142
0.23351005 -0.15845911 0.013745478 -0.29799208 -0.15889771 0.25397712 -0.16100436 0.1596739
-0.22232386 0.29614082 0.1263433 -0.28584254 0.3343974 0.039256662 -0.08065493 0.17025188
-0.3249836 -0.34676543 0.09987421 -0.14160454 0.26181847 -0.20424946 -0.31758285 0.33108494
0.23338644 0.03868736 0.21747091 0.09688086 0.11909524 -0.18977448 0.26164955 0.048360255
0.002918086 -0.27325022 0.3529013 0.007842492 -0.28014898 -0.13620049 0.29498413 0.20790747
0.1330601 0.12062791 0.23641104 -0.0137347365 0.3404033 0.26741418 -0.25438437 -0.19526426
0.25819916 -0.01682996 0.1948125 -0.2073591 0.19806437 -0.3080419 0.03014074 0.23619238
0.0045893244 0.30398685 -0.22010648 0.063328564 -0.04498786 0.20424226 0.11628162 0.09221974
-0.2067936 0.2404393 0.04426584 0.05715426 -0.13546896 0.04672404 0.15371934 0.018893624
-0.02661762 -0.30200788 0.04848004 -0.04848387 -0.050832406 0.25286934 0.00031279234 0.27194843
0.01494189 0.07983097 0.28295407 0.35340422 -0.08068911 -0.06759631 0.008263665 0.24681413
0.33864865 0.08856507 -0.3197401 0.2162928 0.35262048 0.26589915 0.15330178 0.026594734
-0.23170252 0.14118475 0.23152182 -0.011887418 -0.1145183 0.13548602 -0.319907 0.29819378
-0.10102002 0.24586514 0.12576856 0.325097 0.16663674 0.16695364 0.20418914 -0.31186518
-0.20882864 0.26489815 0.095936656 -0.108678535 0.28508303 -0.12768783 -0.3399724 -0.24397828
-0.30575928 0.18737027 -0.21121687 0.26507923 -0.24661516 -0.3329769 0.24628766 -0.32661352
0.29503646 0.048520286 0.02465539 0.08362929 0.25614604 0.07165096 -0.04198541 0.035463303
-0.06725454 -0.2182952 -0.0190976 0.07890572 -0.11290914 -0.09420155 0.16050515 0.0049165315
0.17846222 0.074313276 -0.32562697 -0.18580993 -0.33659667 0.080230065 -0.09959825 0.23484178
0.10327173 -0.34676757 0.3030143 -0.31829035 -0.10012897 0.24376237 0.32696462 -0.19106467
0.24837743 0.19865939 -0.007936287 -0.25072768 0.06251811 -0.14847988 0.34277534 0.129862
0.31812534 0.18254498 -0.05619645 -0.27299637 -0.32275403 0.2804701 -0.3030497 -0.06500279
0.2742666 -0.0624013 0.28703627 0.21350712 0.09427451 -0.29473737 0.029838223 0.10750089
0.21317044 -0.21463647 -0.26841575 0.0012454707 -0.2372922 -0.05907875 -0.3470258 -0.31309727
-0.19520022 0.25345135 -0.09032143 -0.08773394 0.22153333 -0.16287267 -0.16027123 -0.17238604
0.12461519 -0.21795337 -0.041025426 0.20528992 -0.25077176 0.17189345 0.18745564 0.06793788
-0.12864581 -0.22491807 -0.22880332 0.20931472 0.1151636 0.06866613 0.24346957 0.018191068
-0.14070863 -0.19598736 0.1602897 -0.16265154 0.3347504 0.049649466 0.054813698 -0.007917498
-0.05742846 0.20229505 0.18633178 -0.051891074 0.21516658 -0.16397057 -0.35315147 0.14885178
-0.082941 -0.061453342 -0.2883321 -0.32253382 0.050605845 -0.22071745 0.20441766 0.018976117
00000000: a30a eebd 5964 993e 2362 9e3e 15cb 143c
00000010: 1c81 593e 7948 343d 5e6c 023d 040d 3bbe
00000020: bb1a 8bbe 291d 863e 6dc6 bbbd 1e04 023d
00000030: 7b5e 923e 301b 95be 2d08 63be 4c48 0abe
00000040: 421d 6f3e 1b43 22be b734 613c 6b92 98be
00000050: 15b6 22be 4a09 823e 54de 24be 8e81 233e
00000060: dea8 63be c59f 973e 2360 013e f459 92be
00000070: 2336 ab3e 98cb 203d 692e a5bd 8256 2e3e
00000080: 4064 a6be 3d8b b1be da8a cc3d c800 11be
00000090: 120d 863e c526 51be 389a a2be f783 a93e
000000a0: dbfc 6e3e a376 1e3d b2b0 5e3e 7969 c63d
000000b0: 35e8 f33d 3e54 42be eef6 853e 6715 463d
000000c0: 5c3d 3f3b 74e7 8bbe 7baf b43e cc7d 003c
000000d0: b06f 8fbe 2478 0bbe 2908 973e b2e5 543e
000000e0: e840 083e c40b f73d bc15 723e a907 61bc
000000f0: 5749 ae3e 83ea 883e ab3e 82be 5bf3 47be
00000100: ae32 843e fcde 89bc ee7c 473e f255 54be
00000110: 63d1 4a3e abb7 9dbe b7e9 f63c 6adc 713e
00000120: 0b62 963b 2aa4 9b3e 9863 61be 68b2 813d
00000130: 3145 38bd e224 513e 0f25 ee3d b4dd bc3d
00000140: b4c1 53be b835 763e 1950 353d 961a 6a3d
00000150: 60b8 0abe b561 3f3d 9a68 1d3e cdc6 9a3c
00000160: 320d dabc c7a0 9abe 0293 463d 0697 46bd
00000170: a435 50bd 1778 813e 47fe a339 d33c 8b3e
00000180: d4ce 743c 6b7e a33d 5bdf 903e 66f1 b43e
00000190: 5540 a5bd ef6f 8abd 5364 073c d8bc 7c3e
000001a0: 5b63 ad3e 9a61 b53d f9b4 a3be dc7b 5d3e
000001b0: ac8a b43e ef23 883e 24fb 1c3e 33dd d93c
000001c0: 6d43 6dbe bc92 103e 0e14 6d3e 72c3 42bc
000001d0: 9288 eabd d9bc 0a3e daca a3be dbac 983e
000001e0: 96e3 cebd 12c4 7b3e 79c9 003e 1d73 a63e
000001f0: d2a2 2a3e e5f5 2a3e f516 513e cbac 9fbe
00000200: 2dd7 55be bba0 873e 707a c43d da92 debd
00000210: 67f6 913e 99c0 02be dd10 aebe 71d5 79be
00000220: 7b8c 9cbe fedd 3f3e 3c49 58be 77b8 873e
00000230: af88 7cbe f37b aabe d532 7c3e e339 a7be
00000240: 050f 973e 35bd 463d 1afa c93c d545 ab3d
00000250: 9325 833e bdbd 923d e5f8 2bbd f841 113d
00000260: c0bc 89bd c788 5fbe 9272 9cbc 5299 a13d
00000270: e83c e7bd beec c0bd 765b 243e db1a a13b
00000280: cdbe 363e 8f31 983d 94b8 a6be f544 3ebe
00000290: 6656 acbe a94f a43d 2bfa cbbd 5d7a 703e
000002a0: 2180 d33d 858b b1be b124 9b3e f4f6 a2be
000002b0: 6b10 cdbd d89c 793e e867 a73e 75a6 43be
000002c0: a756 7e3e 5e6d 4b3e 3307 02bc 615f 80be
000002d0: 7f09 803d 1c0b 18be 4080 af3e 8bfa 043e
000002e0: 53e1 a23e 12ed 3a3e 402e 66bd 2ec6 8bbe
000002f0: 0440 a5be c799 8f3e 5529 9bbe 2f20 85bd
00000300: ac6c 8c3e 8198 7fbd 6bf6 923e 9ca1 5a3e
00000310: ff12 c13d d1e7 96be 4a6f f43c 6d29 dc3d
00000320: 5a49 5a3e aac9 5bbe ca6d 89be 103f a33a
00000330: bafc 72be 8ffc 71bd 5ead b1be 494e a0be
00000340: 91e2 47be 60c4 813e 71fa b8bd daad b3bd
00000350: a2d9 623e 18c8 26be 241e 24be f785 30be
00000360: 4036 ff3d 2b2f 5fbe 470a 28bd 8537 523e
00000370: 2865 80be d604 303e 5ff4 3f3e 0423 8b3d
00000380: babb 03be ec50 66be 6b4b 6abe 9956 563e
00000390: e5da eb3d d4a0 8c3d 1650 793e 6f05 953c
000003a0: ec15 10be e9b0 48be fc22 243e 208e 26be
000003b0: 6864 ab3e 3d5d 4b3d 5484 603d 65b8 01bc
000003c0: 1b3a 6bbd 6f26 4f3e c2cd 3e3e bc8b 54bd
000003d0: a154 5c3e e7e7 27be 45d0 b4be 9a6c 183e
000003e0: f9dc a9bd 80b6 7bbd 44a0 93be 2723 a5be
000003f0: 1348 4f3d c103 62be dd52 513e cd73 9b3c

decoder1.bias_ih_l0 f4 [32]
0.33103725 0.18480793 0.1780488 -0.34264207 0.021306084 0.31535304 -0.17285897 0.112565495
0.24779435 -0.21438634 0.353357 -0.23919222 -0.30796307 0.06019945 0.14356934 -0.28320336
0.2559227 0.1548427 -0.06893401 0.059743214 -0.24851665 -0.26869097 0.1643091 0.33215758
-0.14509797 -0.26153573 -0.28880444 0.05458385 0.32006323 -0.025988191 0.35317883 0.069414295
00000000: b77d a93e 4a3e 3d3e 6d52 363e c86e afbe
00000010: 198a ae3c f475 a13e f101 31be bd88 e63d
00000020: cdbd 7d3e 1888 5bbe 35eb b43e ceee 74be
00000030: 56ad 9dbe b393 763d d703 133e 0800 91be
00000040: 4d08 833e 168f 1e3e 462d 8dbd 4db5 743d
00000050: 267b 7ebe dd91 89be a540 283e 8f10 aa3e
00000060: 9094 14be 03e8 85be 2dde 93be 5193 5f3d
00000070: 54df a33e 30e5 d4bc dbd3 b43e 1529 8e3d

decoder1.bias_hh_l0 f4 [32]
0.030614266 0.30938473 -0.0871963 -0.06910395 0.030627655 0.25953436 0.10070882 0.0060714036
-0.25831997 0.09192834 0.29162177 -0.28401455 0.295579 -0.19365552 0.2840115 0.22861615
0.18047847 0.20667401 0.006576938 0.0009675191 -0.043377466 -0.22458959 -0.3533682 -0.10411291
0.30897108 0.22997269 -0.29989663 -0.123167716 -0.16189674 -0.25715637 -0.33476454 -0.049217053
00000000: c5ca fa3c ad67 9e3e f993 b2bd 5f86 8dbd
00000010: d9e6 fa3c b0e1 843e 6d40 ce3d a0f2 c63b
00000020: 8442 84be ed44 bc3d 734f 953e 5b6a 91be
00000030: 2156 973e a24d 46be f569 913e 5a1a 6a3e
00000040: 59cf 383e 5aa2 533e 5b83 d73b 1ca1 7d3a
00000050: 92ac 31bd d0fa 65be adec b4be 2639 d5bd
00000060: 7531 9e3e f67d 6b3e 0d8c 99be 5b3f fcbd
00000070: 42c8 25be 00aa 83be 4266 abbe d297 49bd

decoder2.weight_ih_l0 f4 [32, 8]
0.082247086 -0.1691906 0.076492436 -0.10372275 0.16808861 0.11340395 -0.010922622 0.16116306
-0.009665219 0.06928089 0.31817934 -0.23245153 -0.15853189 0.1699887 -0.3365542 0.32549083
0.3387636 -0.07100025 -0.3273768 -0.20748709 0.296841 0.16572219 0.32965693 0.0009977081
0.23830299 -0.19653484 -0.25256696 0.12705618 -0.26046187 0.2090477 -0.11637495 0.22866862
-0.3505444 -0.048072424 -0.34425616 0.20986673 -0.08756695 0.26569223 -0.33888793 0.261588
0.018001288 0.06078586 -0.03537763 0.28802857 -0.17884839 0.2648457 -0.09524049 0.12970988
-0.26620698 0.039291143 -0.0030676879 0.11602654 -0.06717152 0.15132657 -0.03984076 0.13577925
0.22075726 -0.0040748487 -0.34195942 -0.20098005 -0.26361227 0.10886279 0.3514085 0.28626305
-0.20463024 -0.1288142 -0.013061908 -0.3196141 -0.29925424 0.1618238 0.28081584 -0.3279148
0.27894583 -0.18209636 -0.1566257 0.2154132 -0.26852626 -0.3054945 -0.1745925 -0.17983423
0.12223132 -0.31567147 0.26682863 -0.20595503 -0.3169071 0.14059514 0.2788881 -0.0869735
0.29676458 -0.06142375 -0.2877615 -0.03794062 0.06355459 0.1090926 -0.25960112 0.22689253
-0.30118287 0.067638755 -0.26356444 -0.012365613 0.11628811 0.11177664 -0.2255095 0.2997916
0.2197825 -0.27943212 -0.00019858124 -0.18010184 0.2871283 -0.32137305 0.015440225 0.055398494
0.22472437 -0.26863888 -0.19847429 0.17643556 -0.34276536 0.2034159 0.16414496 -0.14042091
0.353679 0.2371816 -0.2658005 -0.2288393 -0.15599592 0.22610793 -0.19860092 -0.15005781
-0.21951865 -0.20038533 0.02395665 -0.19001603 0.15910527 -0.03790941 -0.04855703 0.34009668
0.32823285 0.05116093 0.16466573 0.19983032 -0.35009685 -0.07437013 0.13935767 0.34451565
-0.21796006 -0.30450338 0.037593752 -0.15390866 -0.24727423 0.12408989 -0.023405723 -0.016406843
0.20267044 0.19210526 -0.15734102 -0.023670878 0.08417821 -0.044731773 -0.026165992 -0.3153615
0.2071058 0.061304074 0.16155311 0.28312543 -0.08956943 -0.28540048 0.06327609 0.050413396
-0.2763771 0.0961226 -0.035669304 0.23283783 -0.28662646 0.29948595 -0.008618849 0.042835698
0.009987299 0.0025568507 0.25782615 0.2746891 -0.26242036 -0.11427203 0.038389422 -0.31147382
0.08533811 -0.30785924 0.31789404 0.27437618 0.27953103 -0.027233003 -0.09323317 -0.12800904
0.09839279 -0.09077871 0.11971219 -0.15141678 0.032210726 0.09283189 -0.3321399 0.22478959
0.1631181 -0.11092972 -0.351494 0.026832532 0.010112961 -0.04519656 0.13994892 -0.09502078
-0.12395993 0.006559345 0.17131121 0.30637988 0.11891682 0.18009669 0.08017053 -0.30682695
-0.23016691 -0.233751 -0.33262107 -0.31713003 -0.31198496 -0.34388936 -0.096121036 0.19357675
-0.23136877 -0.07541422 0.14676788 -0.2672112 0.3466567 0.17343087 0.13063255 -0.057301927
0.061365202 -0.20895712 0.24217167 -0.3366085 0.021753931 -0.02752468 -0.014471272 -0.013270932
-0.12755623 -0.016533598 -0.048459414 0.06799754 -0.131506 0.038583796 -0.27437392 0.042623643
0.1299126 -0.04385323 -0.04907478 0.18550642 0.082727 0.26120636 0.14073576 -0.28734186
00000000: 2971 a83d 4d40 2dbe 11a8 9c3d 986c d4bd
00000010: 6c1f 2c3e 5540 e83d ccf4 32bc ee07 253e
00000020: de5a 1ebc 24e3 8d3d 67e8 a23e c607 6ebe
00000030: 2f56 22be 8511 2e3e d550 acbe bca6 a63e
00000040: 6c72 ad3e 9468 91bd ef9d a7be 7f77 54be
00000050: 8bfb 973e 14b3 293e cbc8 a83e 87c5 823a
00000060: b305 743e 6e40 49be 7550 81be 041b 023e
00000070: 425b 85be 9a10 563e fd55 eebd 1b28 6a3e
00000080: 8e7a b3be 97e7 44bd 5842 b0be 4ee7 563e
00000090: 4d56 b3bd d008 883e b882 adbe ddee 853e
000000a0: 7077 933c 98fa 783d 22e8 10bd 7b78 933e
000000b0: 0824 37be db99 873e 720d c3bd abd2 043e
000000c0: 484c 88be c0ef 203d 430b 49bb 539f ed3d
000000d0: 3991 89bd 5af5 1a3e 1130 23bd b709 0b3e
000000e0: 310e 623e 4f86 85bb 4e15 afbe b7cd 4dbe
000000f0: 30f8 86be 74f3 de3d d1eb b33e 1291 923e
00000100: 978a 51be dfe7 03be 9d01 56bc 76a4 a3be
00000110: da37 99be 23b5 253e 18c7 8f3e 73e4 a7be
00000120: fdd1 8e3e 7877 3abe 7d62 20be 4795 5c3e
00000130: 467c 89be c669 9cbe 60c8 32be 7726 38be
00000140: 6a54 fa3d b19f a1be c39d 883e e0e5 52be
00000150: a641 a2be 2cf8 0f3e 6cca 8e3e 2a1f b2bd
00000160: 87f1 973e 7897 7bbd 7a55 93be a067 1bbd
00000170: e928 823d f16b df3d 70ea 84be 8456 683e
00000180: a434 9abe 3086 8a3d ebf1 86be 2499 4abc
00000190: 7628 ee3d 27eb e43d f6eb 66be 497e 993e
000001a0: aa0e 613e ba11 8fbe 3f3a 50b9 9e6c 38be
000001b0: 7b02 933e 028b a4be fff8 7c3c 88e9 623d
000001c0: 251e 663e 098b 89be d83c 4bbe 86ab 343e
000001d0: f17e afbe 424c 503e 9e15 283e 80ca 0fbe
000001e0: 6a15 b53e bcdf 723e 0117 88be d954 6abe
000001f0: 65bd 1fbe d688 673e 0a5e 4bbe c1a8 19be
00000200: 7fc9 60be d031 4dbe bd40 c43c 9093 42be
00000210: 7eec 223e e646 1bbd bce3 46bd 2721 ae3e
00000220: 230e a83e 208e 513d 229e 283e 52a0 4c3e
00000230: e53f b3be 5e4f 98bd c7b3 0e3e 5b64 b03e
00000240: ec30 5fbe dee7 9bbe e8fb 193d 3b9a 1dbe
00000250: 7535 7dbe d722 fe3d 5cbd bfbc a567 86bc
00000260: d788 4f3e 3eb7 443e 011e 21be 6ee9 c1bc
00000270: a065 ac3d aa38 37bd 105a d6bc 1077 a1be
00000280: 8b13 543e fb19 7b3d 2e6e 253e d1f5 903e
00000290: 2d70 b7bd 0320 92be e596 813d 477e 4e3d
000002a0: 4d81 8dbe eddb c43d fa19 12bd 0a6d 6e3e
000002b0: b4c0 92be 3956 993e 1336 0dbc 7c74 2f3d
000002c0: c5a1 233c d690 273b ca01 843e 0da4 8c3e
000002d0: f65b 86be 7407 eabd 3a3e 1d3d 7f79 9fbe
000002e0: bfc5 ae3d ba9f 9dbe 02c3 a23e 097b 8c3e
000002f0: b11e 8f3e bf17 dfbc 08f1 bebd cd14 03be
00000300: 2982 c93d 30ea b9bd aa2b f53d 000d 1bbe
00000310: 65ef 033d a51e be3d 3e0e aabe 3e2f 663e
00000320: 6e08 273e 1f2f e3bd 06f7 b3be e6cf db3c
00000330: d5b0 253c 0720 39bd c54e 0f3e 419a c2bd
00000340: b4de fdbd c6ef d63b 356c 2f3e d3dd 9c3e
00000350: a98a f33d 446b 383e 7230 a43d 6c18 9dbe
00000360: e0b0 6bbe 6c5c 6fbe 4f4d aabe de5e a2be
00000370: 7ebc 9fbe 4412 b0be 1bdb c4bd fc38 463e
00000380: efeb 6cbe c572 9abd 524a 163e e8cf 88be
00000390: fd7c b13e dd97 313e 8ac4 053e 6db5 6abd
000003a0: 145a 7b3d dbf8 55be dafb 773e f357 acbe
000003b0: 4d35 b23c 707b e1bc ea18 6dbc 536e 59bc
000003c0: 1a9e 02be 7871 87bc 617d 46bd 4b42 8b3d
000003d0: 82a9 06be 0b0a 1e3d bd7a 8cbe 2196 2e3d
000003e0: cf07 053e 729f 33bd a302 49bd 65f5 3d3e
000003f0: c66c a93d d7bc 853e 091d 103e 791e 93be

decoder2.weight_hh_l0 f4 [32, 8]
0.21796502 -0.3353536 0.0546126 -0.07342524 0.22587916 0.04497711 -0.009747348 -0.1555962
0.22421016 -0.23460452 0.03346459 0.006235604 -0.34015095 -0.06363278 -0.32772622 0.20047028
0.28883174 -0.33927616 0.19428177 -0.047325864 0.29413274 0.21313427 0.2645361 0.28460267
0.28737694 0.29279482 0.13465059 -0.24047394 -0.043567576 -0.25994942 0.24548762 -0.31090108
0.18942586 -0.27183187 -0.19007424 0.24203868 0.16719185 -0.29912212 0.14607894 -0.28550428
-0.22773762 -0.19252191 -0.18827231 0.012421227 -0.094092354 -0.22621256 0.0206898 0.15419848
-0.2853436 -0.15466204 0.3168701 0.12628685 0.33767176 0.009299369 0.04387932 0.052424
-0.056700494 0.21069093 0.09546535 0.043704025 -0.070240945 -0.032484595 -0.21286783 -0.037658382
0.045502737 -0.032877754 -0.124577716 0.11006566 0.029968094 -0.16695896 0.31231984 -0.21967816
-0.053018723 -0.10363253 -0.12849696 -0.15184166 0.105935685 -0.054300923 0.120887905 0.08109306
-0.2000335 -0.23016714 0.1937801 0.081767604 -0.16399401 -0.15678722 -0.06761122 0.09863454
0.16782483 0.08169345 -0.22879735 -0.15987131 0.24111873 0.17347847 0.013333233 0.20498183
-0.20810471 0.01983576 0.29942507 0.20754623 -0.31973127 -0.117453285 0.092867255 -0.1136053
-0.1306919 -0.008877363 -0.0923137 -0.1811282 0.28068674 0.021973241 0.2567704 -0.30594146
0.12528765 0.32413343 0.25049177 -0.21521936 -0.095971756 -0.1262545 -0.074747816 0.1674599
-0.3389614 0.08655855 0.298854 -0.3291134 -0.26855242 -0.24255393 0.30368966 -0.31745794
0.15453763 -0.31177488 -0.21185774 0.27958032 -0.24502712 -0.03254852 -0.24357715 -0.08201958
0.18838081 0.04630614 -0.32799625 -0.2875167 0.15949778 -0.2081783 -0.19331339 0.084178746
0.30657956 0.34362757 -0.16276197 0.058647163 -0.05814056 -0.25724152 -0.28577822 0.03248491
0.24851757 0.15915921 0.06815734 -0.029272307 -0.13241005 0.23756947 -0.16235253 0.10716753
0.3300383 -0.09249384 -0.15116353 -0.057008322 -0.0744064 0.22274901 -0.08344865 0.042518377
0.21242309 0.12990499 -0.069980256 0.21940216 -0.2823027 -0.29267716 0.28921607 -0.13495402
-0.2401218 0.11795726 0.09412336 -0.13017829 0.14434552 0.3378549 0.11618115 -0.061740067
-0.11100253 0.21781239 -0.25741014 0.02532976 0.07379601 0.004143073 -0.010855495 0.34334192
-0.108803846 3.9471804e-05 -0.26394567 -0.039262187 0.18243904 -0.025027351 -0.29637647 0.05909415
-0.08138543 -0.20125847 -0.242693 0.2530678 -0.023010135 -0.19263867 0.20931438 -0.07300267
-0.16031152 -0.20902583 -0.034553435 -0.34809545 0.14524162 0.112952605 0.25456205 -0.35076377
0.09928595 0.32729325 -0.28882635 -0.31786832 0.31244275 -0.15686257 0.30998597 -0.08875043
-0.1246677 0.086041495 0.259831 0.23551293 0.106590874 -0.08771556 -0.26864168 0.054621678
-0.16482884 0.33933592 -0.32436353 -0.34131894 -0.20328012 -0.182351 0.18162712 0.2672335
-0.10365731 -0.3441212 -0.2879819 0.12882677 -0.19002953 -0.0002434892 0.35032013 0.30705085
-0.07190299 -0.1719602 -0.12231845 -0.11174598 0.15862103 0.14656125 0.11816121 -0.30304083
00000000: 3932 5f3e 78b3 abbe 76b1 5f3d f95f 96bd
00000010: de4c 673e eb39 383d 57b3 1fbc 9c54 1fbe
00000020: 5997 653e 2b3c 70be 2a12 093d 0a54 cc3b
00000030: 4428 aebe e751 82bd bbcb a7be 1548 4d3e
00000040: c1e1 933e 9bb5 adbe cdf1 463e c4d8 41bd
00000050: 9198 963e df3f 5a3e 4771 873e 71b7 913e
00000060: 1223 933e 34e9 953e d8e1 093e cd3e 76be
00000070: ea73 32bd 1718 85be 1b61 7b3e 6d2e 9fbe
00000080: daf8 413e 8c2d 8bbe d2a2 42be fdd8 773e
00000090: 5734 2b3e 8926 99be b895 153e 9e2d 92be
000000a0: 0d34 69be 7724 45be 75ca 40be 6782 4b3c
000000b0: 7eb3 c0bd 44a4 67be a87d a93c 35e6 1d3e
000000c0: 8e18 92be ba5f 1ebe cc3c a23e 5751 013e
000000d0: 50e3 ac3e 615c 183c cdba 333d 8cba 563d
000000e0: c73e 68bd 5dbf 573e 5683 c33d fe02 333d
000000f0: 7cda 8fbd 910e 05bd 06fa 59be ad3f 1abd
00000100: 1461 3a3d d3aa 06bd 9a22 ffbd 1b6a e13d
00000110: a67f f53c 4af7 2abe 63e8 9f3e 50f3 60be
00000120: 292a 59bd 4b3d d4bd b594 03be 617c 1bbe
00000130: cff4 d83d a56a 5ebd 1494 f73d 1e14 a63d
00000140: 95d5 4cbe efb0 6bbe 4a6e 463e c675 a73d
00000150: 0cee 27be d48c 20be c077 8abd e800 ca3d
00000160: 46da 2b3e e54e a73d da49 6abe 4eb5 23be
00000170: d4e7 763e 57a4 313e a273 5a3c c2e6 513e
00000180: 6719 55be 9b7e a23c 3e4e 993e 0087 543e
00000190: d1b3 a3be 598b f0bd 3031 be3d e5a9 e8bd
000001a0: 19d4 05be 5c72 11bc f70e bdbd ac79 39be
000001b0: 2cb6 8f3e 3a01 b43c 6977 833e 5ca4 9cbe
000001c0: 684b 003e d1f4 a53e 7540 803e 7762 5cbe
000001d0: d78c c4bd dc48 01be 6215 99bd 9c7a 2b3e
000001e0: 598c adbe 9c45 b13d 6403 993e 8d81 a8be
000001f0: b47f 89be 0f60 78be 367d 9b3e d989 a2be
00000200: 1d3f 1e3e f5a0 9fbe 3cf1 58be 2725 8f3e
00000210: 64e8 7abe 9951 05bd 4a6c 79be e2f9 a7bd
00000220: e6e6 403e 82ab 3d3d 20ef a7be 6435 93be
00000230: 6353 233e b12c 55be f2f3 45be e865 ac3d
00000240: fff7 9c3e f4ef af3e 13ab 26be 0238 703d
00000250: cc24 6ebd 29b5 83be 8651 92be e60e 053d
00000260: 647b 7e3e a2fa 223e 1396 8b3d 7acc efbc
00000270: 8096 07be 6945 733e be3f 26be a67a db3d
00000280: c8fa a83e 696d bdbd 9dca 1abe 8f81 69bd
00000290: 6262 98bd 5118 643e 20e7 aabd c027 2e3d
000002a0: 7085 593e d005 053e cf51 8fbd f6aa 603e
000002b0: fb89 90be c8d9 95be 2114 943e 6331 0abe
000002c0: 7de2 75be 9393 f13d c0c3 c03d 754d 05be
000002d0: 50cf 133e 51fb ac3e 62f0 ed3d 27e3 7cbd
000002e0: 4b55 e3bd 360a 5f3e 43cb 83be 5b80 cf3c
000002f0: 5d22 973d 9ec2 873b 3fdb 31bc 83ca af3e
00000300: 8dd4 debd 878e 2538 e323 87be 63d1 20bd
00000310: 4dd1 3a3e 2906 cdbc a8be 97be b50c 723d
00000320: 68ad a6bd b316 4ebe 8484 78be 1a92 813e
00000330: c07f bcbc 1243 45be 8256 563e 6d82 95bd
00000340: b428 24be de0a 56be e787 0dbd 9139 b2be
00000350: 38ba 143e b253 e73d f555 823e 4f97 b3be
00000360: 6f56 cb3d fb92 a73e 0ce1 93be a3bf a2be
00000370: 7ff8 9f3e 95a0 20be 7bb6 9e3e c9c2 b5bd
00000380: c751 ffbd 8636 b03d 9208 853e 4d2a 713e
00000390: 514c da3d 37a4 b3bd 678b 89be fbba 5f3d
000003a0: e4c8 28be 70bd ad3e fa12 a6be 5bc1 aebe
000003b0: aa28 50be 38ba 3abe 76fc 393e d4d2 883e
000003c0: 494a d4bd a730 b0be 5d72 93be 2aeb 033e
000003d0: 1a97 42be 2251 7fb9 295d b33e c535 9d3e
000003e0: e041 93bd 5616 30be 1882 fabd 14db e4bd
000003f0: 8d6d 223e 2714 163e 81fe f13d 2b28 9bbe

decoder2.bias_ih_l0 f4 [32]
-0.05712964 0.0891036 0.04766563 -0.046049714 0.2923132 0.29494336 0.35040376 -0.29033697
-0.10036267 -0.20930718 0.05254965 0.22984645 0.044180803 -0.080459386 -0.005634151 -0.26825854
-0.33788285 0.11473167 0.33192778 -0.2590071 0.14010699 -0.24573904 -0.25046557 -0.11094461
0.046972435 -0.14971709 -0.025734771 0.15480472 -0.0023024806 0.18348831 -0.012459892 -0.15317129
00000000: c500 6abd f37b b63d 093d 433d a09e 3cbd
00000010: 13aa 953e d102 973e 1f68 b33e 0ca7 94be
00000020: f28a cdbd 9f54 56be 4d3e 573d de5c 6b3e
00000030: eef6 343d e4c7 a4bd af9e b8bb 2f59 89be
00000040: fbfe acbe 70f8 ea3d 70f2 a93e 949c 84be
00000050: 3578 0f3e 04a3 7bbe 063d 80be ed36 e3bd
00000060: 2b66 403d 704f 19be bad1 d2bc 2185 1e3e
00000070: 37e5 16bb 5ce4 3b3e 9324 4cbc efd8 1cbe

decoder2.bias_hh_l0 f4 [32]
-0.1261335 0.10045483 0.07598158 -0.2722599 0.16473976 0.09433337 0.22641407 -0.038266327
0.22196603 0.0801631 -0.1995938 -0.2847521 -0.15555121 0.29366198 0.21600644 0.23439479
0.32244208 -0.2033547 0.16247901 -0.31746954 0.31668782 -0.23087335 0.34417656 0.07484209
0.33121464 0.015754439 -0.29970875 -0.13716611 -0.2486404 0.1317341 -0.10423723 -0.24632552
00000000: 2429 01be 43bb cd3d 3b9c 9b3d a665 8bbe
00000010: 8ab1 283e db31 c13d 17d9 673e 27bd 1cbd
00000020: 104b 633e 8d2c a43d 5162 4cbe 07cb 91be
00000030: d148 1fbe dd5a 963e cb30 5d3e 3005 703e
00000040: 2117 a53e 373c 50be e660 263e 5e8b a2be
00000050: e824 a23e 106a 6cbe e937 b03e cf46 993d
00000060: f794 a93e 740f 813c 6d73 99be 4675 0cbe
00000070: 979b 7ebe 4ee5 063e 547a d5bd c23c 7cbe
