lightning_logs/lstm/version_0/checkpoints/epoch=19-step=20.ckpt (torch, 120439 bytes, 57 tensors)

embed.weight f4 [387, 16]
0.0 0.0 0.0 0.0 0.0 0.0 0.0 0.0
0.0 0.0 0.0 0.0 0.0 0.0 0.0 0.0
-0.39701888 -0.46261692 1.0818272 -0.86755526 0.22040635 -0.083201714 -0.42434356 -0.19694677
-0.9119751 -1.0048766 0.46047664 0.40177166 0.7192795 1.1075563 -0.49750984 -1.3002709
-0.53458434 -0.50279146 1.3732702 0.5653748 1.4111745 0.3437091 0.44625068 -0.79101175
-1.2582468 0.27796447 -1.1890509 -0.24741514 0.038596902 -0.19706164 -0.4033715 1.3475947
-0.3933571 0.15690987 -0.05397705 0.69398916 0.5586973 -0.17112824 2.6962097 -0.3229113
1.3116869 0.7490107 -1.3563294 -0.6242954 0.7720068 0.12675563 0.46139523 0.83383685
-0.17060632 1.3537477 -0.5299185 1.1641325 -0.23939686 1.2898341 -1.5547718 -0.67816716
-0.94589204 0.79158115 -1.2928567 -1.2170655 1.1124603 -1.0665736 1.1448871 0.70709044
1.6455781 0.94216 0.5684265 0.031658273 0.7418838 0.52654356 -0.33612671 1.2438085
-1.0677937 0.8931991 -0.77594304 0.11583575 -1.7708613 0.32885712 -0.350152 -0.21105072
0.7151777 0.719907 0.18449904 -0.03543439 0.062286403 -0.4271853 0.4809 0.8766846
0.3437996 -0.024402672 0.5657258 2.837783 0.16993488 -0.5230543 -1.2763517 0.22951272
0.098655276 -0.59473246 -1.8823035 1.0830728 0.9893946 0.1423252 -0.013696377 0.9437562
-0.1422457 -0.89979136 0.22832169 0.57504517 -0.21443638 0.47555467 0.5870864 0.51514894
-0.36111763 -0.46144214 -0.35304478 1.8711205 0.8020501 0.07163009 0.20680022 -0.71443194
-0.52490294 -0.7919751 -0.20020172 1.1988599 -0.5388579 -0.8298885 -0.34378535 0.024463503
-1.1074691 -1.7222837 0.13816595 -0.043389194 0.8522958 -0.00035982893 -0.37132102 -1.5581334
-0.894886 -0.3664461 -0.7633622 -1.4644933 -1.2290063 -1.5101074 0.064199395 0.51201725
1.0750251 0.79138714 0.6806113 -1.6549908 0.51717806 0.14196414 1.3515279 -0.52978384
1.4034568 1.0697399 -0.45219865 1.4929534 -0.25697628 0.8536834 -0.70792335 0.73441386
0.07262443 -0.18158297 0.67863655 -0.72215116 -0.33460137 0.35148576 -0.15039924 -0.50495714
1.7543316 -1.8333473 -0.5421258 0.8769951 0.22273661 1.5021279 0.06207005 1.4550945
0.014087312 -1.4410388 -0.09716469 0.14109969 -0.7636872 0.6569363 -1.555847 -0.5508205
0.5194993 1.0251176 -0.49870253 -0.8679077 0.6955245 -0.10526345 1.1930447 0.5397275
0.6444646 -0.07267383 0.50704294 -0.22216552 0.6805691 0.3628145 0.28747666 0.64425635
0.050826903 0.083736315 -0.77674806 2.3936474 1.3133367 0.80328697 -0.411352 -1.4490395
0.47748408 -0.6816077 0.7611364 0.04083329 0.5651641 0.35137013 0.5421838 -1.6117749
1.4656315 -0.62661535 -0.34218046 2.317181 -0.36004904 0.80442804 -0.25396365 0.93562466
-0.55191654 0.7052316 1.247968 -0.056732304 -0.16959925 -0.31428593 -1.3322388 -0.6671165
0.34201705 -0.8106772 0.46759668 -0.62153643 -1.1834008 1.0436664 -0.18492006 1.6092352
00000000: 0000 0000 0000 0000 0000 0000 0000 0000
00000010: 0000 0000 0000 0000 0000 0000 0000 0000
00000020: 0000 0000 0000 0000 0000 0000 0000 0000
00000030: 0000 0000 0000 0000 0000 0000 0000 0000
00000040: 0f46 cbbe 20dc ecbe 5079 8a3f 1a18 5ebf
00000050: 34b2 613e a965 aabd 8f43 d9be 6aac 49be
00000060: 3377 69bf cc9f 80bf 98c3 eb3e 04b5 cd3e
00000070: b422 383f 68c4 8d3f 9cb9 febe 476f a6bf
00000080: 85da 08bf f1b6 00bf 51c7 af3f 67bc 103f
00000090: 5ea1 b43f a4fa af3e f87a e43e bf7f 4abf
000000a0: 3b0e a1bf 5c51 8e3e d232 98bf 655a 7dbe
000000b0: c917 1e3d 87ca 49be b686 cebe fc7d ac3f
000000c0: 1a66 c9be fbac 203e 0a17 5dbd 46a9 313f
000000d0: c906 0f3f 3e3c 2fbe b38e 2c40 a154 a5be
000000e0: 5be5 a73f 2abf 3f3f 349c adbf d3d1 1fbf
000000f0: 3da2 453f 3acc 013e ff3b ec3e 5576 553f
00000100: 6cb3 2ebe 9b47 ad3f bda8 07bf 4b02 953f
00000110: 7324 75be 4919 a53f c302 c7bf 5d9c 2dbf
00000120: fb25 72bf 10a5 4a3f 547c a5bf cdc8 9bbf
00000130: 1965 8e3f 7c85 88bf a98b 923f e103 353f
00000140: 4ea2 d23f 6631 713f 6684 113f 1bac 013d
00000150: 19ec 3d3f 8fcb 063f cd18 acbe 1e35 9f3f
00000160: 77ad 88bf b2a8 643f 34a4 46bf 4b3b ed3d
00000170: 95ab e2bf f65f a83e 1f47 b3be ae1d 58be
00000180: e315 373f d34b 383f 51ed 3c3e a723 11bd
00000190: 0720 7f3d 08b8 dabe 8638 f63e 676e 603f
000001a0: 8006 b03e 1de8 c7bc 68d3 103f 3d9e 3540
000001b0: 6903 2e3e e3e6 05bf 7e5f a3bf 6205 6b3e
000001c0: c70b ca3d 6340 18bf 52ef f0bf 21a2 8a3f
000001d0: f748 7d3f b2bd 113e c566 60bc 029a 713f
000001e0: dba8 11be ba58 66bf 29cd 693e 2936 133f
000001f0: 3695 5bbe e77b f33e 4b4b 163f cde0 033f
00000200: 69e4 b8be 2542 ecbe 49c2 b4be e080 ef3f
00000210: 2853 4d3f ccb2 923d 70c3 533e 03e5 36bf
00000220: 0a60 06bf e1be 4abf ae01 4dbe 3e74 993f
00000230: 97f2 09bf 9373 54bf a204 b0be af67 c83c
00000240: 8cc1 8dbf cb73 dcbf 607b 0d3e deb8 31bd
00000250: 0f30 5a3f 6ca7 bcb9 ca1d bebe ea70 c7bf
00000260: 4017 65bf d39e bbbe b56b 43bf 8474 bbbf
00000270: 1450 9dbf 334b c1bf f97a 833d 9013 033f
00000280: 6c9a 893f 5998 4a3f 8b3c 2e3f bdd6 d3bf
00000290: c865 043f 0c5f 113e defe ac3f ea9f 07bf
000002a0: 79a4 b33f 3ded 883f 9586 e7be 1919 bf3f
000002b0: 6592 83be ff8a 5a3f 773a 35bf 8c02 3c3f
000002c0: 1ebc 943d e3f0 39be 20bb 2d3f e6de 38bf
000002d0: df50 abbe f1f5 b33e 4202 1abe df44 01bf
000002e0: f08d e03f 20ab eabf c2c8 0abf c082 603f
000002f0: 1115 643e ba45 c03f 2a3d 7e3d 8940 ba3f
00000300: 78ce 663c f673 b8bf 48fe c6bd 707c 103e
00000310: 0181 43bf fa2c 283f ff25 c7bf 9302 0dbf
00000320: e8fd 043f 0e37 833f f055 ffbe 332f 5ebf
00000330: e50d 323f 5d94 d7bd b0b5 983f 952b 0a3f
00000340: a2fb 243f 04d6 94bd 91cd 013f 5c7f 63be
00000350: c739 2e3f d2c2 b93e 2430 933e fced 243f
00000360: df2f 503d f27d ab3d f6d8 46bf 8531 1940
00000370: 6b1b a83f 37a4 4d3f bb9c d2be 207a b9bf
00000380: cb78 f43e d87d 2ebf d6d9 423f cf40 273d
00000390: 98ae 103f c9e6 b33e 8fcc 0a3f a44e cebf
000003a0: d099 bb3f dd69 20bf 4732 afbe b24c 1440
000003b0: 5958 b8be ffee 4d3f 8607 82be 1985 6f3f
000003c0: 674a 0dbf 0f8a 343f 6abd 9f3f 2260 68bd
000003d0: 6dab 2dbe 16ea a0be cd86 aabf 26c8 2abf
000003e0: dc1c af3e 8a88 4fbf d568 ef3e 031d 1fbf
000003f0: ad79 97bf dc96 853f af5b 3dbe 6bfb cd3f

encoder1.weight_ih_l0 f4 [32, 17]
0.043974664 -0.09062477 -0.15887024 -0.1665044 0.09425855 0.011246245 0.006634089 -0.30614713
0.21497221 0.18686017 0.32444957 0.1726003 -0.15976664 0.33521274 -0.31208178 -0.2111337
-0.2981196 0.20873865 0.033397503 -0.12021215 0.033524245 0.34740797 0.3355039 -0.009783499
0.1047869 0.29997757 0.1494076 0.21245629 0.33384517 0.21712704 0.006313769 0.043375447
-0.1547824 0.14980802 0.20306447 0.05195508 0.08024714 0.12886107 0.2655289 -0.030998698
-0.015043573 -0.0898625 -0.30619866 0.10742214 0.14796914 0.28668526 0.04908943 0.12794663
0.10953811 0.010995013 0.2960885 0.02901711 -0.036893174 0.22139135 -0.21316692 0.2933559
-0.19144405 0.13946009 0.34803948 -0.051089242 0.109213285 -0.14708148 -0.12717985 0.24110208
-0.24016339 0.2564465 0.20497927 0.32014826 0.018009542 -0.21810994 0.06659105 -0.29080197
0.08351639 0.011203035 -0.18744947 0.096551545 0.24454167 -0.050657567 -0.22944123 -0.28516358
-0.20385842 -0.14648315 -0.090004966 0.1292985 -0.04999354 -0.15167044 0.33620432 0.039100442
-0.011424027 0.31941643 -0.30115274 -0.2486128 0.30446056 -0.30571678 -0.25098324 0.2627183
0.24899226 0.29976234 -0.07613523 0.2603458 -0.18534032 -0.116877526 -0.02184662 0.29828432
-0.20163053 -0.03102084 -0.24570882 -0.11032483 0.084699675 0.3098471 0.2661452 0.16313067
-0.33026725 -0.22313145 -0.14710073 -0.10683292 -0.11113055 0.028657857 -0.17812142 0.22008632
-0.14748694 0.107714385 0.19141856 0.19803187 0.31548092 0.25514743 -0.26372993 -0.12889253
0.13208526 -0.081320785 0.25828466 -0.111366734 -0.05153164 0.32332322 -0.08164179 -0.28770417
0.15801908 0.26127926 -0.189324 0.12783033 -0.11049939 0.21687645 -0.0864029 -0.19616681
0.05678748 0.26754785 -0.023702629 -0.034718066 -0.009325474 0.012787508 0.12693667 -0.022908421
-0.13572015 -0.17458504 -0.201402 0.1446408 -0.2034311 -0.21035174 0.21605167 -0.12095143
0.05781127 0.13332626 -0.3482344 0.08399846 0.047279574 0.034771357 0.25770524 0.32561016
-0.16529498 -0.09009187 0.33323535 -0.34416163 -0.1063738 0.22115096 -0.32797238 0.12855537
0.33695987 0.14340031 -0.3408686 0.30521873 0.21218482 0.1619494 -0.008877395 -0.24327037
0.28065458 0.3187609 0.04333263 0.16814527 0.21473758 -0.009407566 0.009702799 0.03022868
0.023211649 -0.06967829 0.18818912 -0.34927946 -0.31343374 -0.12276019 -0.30077988 0.009346161
0.2778854 0.21933818 -0.1587969 -0.04746908 0.03762934 0.06697914 0.1600205 -0.15928753
0.021744872 -0.3414606 0.09798356 0.29327932 0.00993007 0.24972914 0.09966669 0.22171281
0.24766502 -0.3217791 -0.2940535 -0.2581154 -0.17753096 0.14005741 0.1891289 0.22076514
-0.23452891 0.13355336 -0.144334 -0.33571252 0.007235099 0.069531016 0.27193466 0.2749471
-0.33998016 0.30053806 0.032838818 -0.045119446 0.24857733 0.2250805 0.24995826 0.18227114
-0.017880633 0.16611263 0.24879794 0.3156695 0.09885967 0.035542294 0.26163504 0.0644772
0.005067687 0.32024065 0.2977762 -0.34478408 -0.3377268 0.26760915 0.028335225 -0.29438764
00000000: c71e 343d 7b99 b9bd e1ae 22be 2180 2abe
00000010: a00a c13d 2c42 383c c662 d93b 51bf 9cbe
00000020: ad21 5c3e 4658 3f3e 411e a63e 22be 303e
00000030: de99 23be 01a1 ab3e 2fc9 9fbe 6f33 58be
00000040: 22a3 98be 96bf 553e d2cb 083d ca31 f6bd
00000050: b850 093d 75df b13e 2bc7 ab3e f84a 20bc
00000060: 849a d63d a996 993e 4efe 183e 248e 593e
00000070: c1ed aa3e 8d56 5e3e bce3 ce3b 74aa 313d
00000080: 477f 1ebe 4667 193e 22f0 4f3e dace 543d
00000090: 9d58 a43d 28f4 033e 67f3 873e fbf0 fdbc
000000a0: 5279 76bc d509 b8bd 12c6 9cbe 2400 dc3d
000000b0: 3985 173e 69c8 923e 0012 493d 7104 033e
000000c0: 8455 e03d 6d24 343c e998 973e 4ab5 ed3c
000000d0: 4c1d 17bd 6ab4 623e 6e48 5abe bf32 963e
000000e0: e909 44be a0ce 0e3e 3b32 b23e f442 51bd
000000f0: 37ab df3d 879c 16be 6f3b 02be 77e3 763e
00000100: 64ed 75be f54c 833e 16e6 513e 79ea a33e
00000110: bf88 933c 3658 5fbe e360 883d ffe3 94be
00000120: a40a ab3d ef8c 373c c1f2 3fbe d1bc c53d
00000130: 2269 7a3e 4f7e 4fbd a4f2 6abe f600 92be
00000140: 43c0 50be aeff 15be 8654 b8bd d366 043e
00000150: 07c6 4cbd 7f4f 1bbe f922 ac3e c927 203d
00000160: d82b 3bbc 8d8a a33e b130 9abe 5b94 7ebe
00000170: 41e2 9b3e e986 9cbe e080 80be 0383 863e
00000180: d4f7 7e3e 737a 993e caec 9bbd 0b4c 853e
00000190: dac9 3dbe 7c5d efbd aff7 b2bc b9b8 983e
000001a0: 3c78 4ebe 6b1f febc 189b 7bbe fcf1 e1bd
000001b0: 0677 ad3d 47a4 9e3e 2f44 883e ba0b 273e
000001c0: ca18 a9be 927c 64be 93a1 16be 38cb dabd
000001d0: 6a98 e3bd e2c3 ea3c 7665 36be 4f5e 613e
000001e0: d106 17be 5c99 dc3d 3a03 443e dec8 4a3e
000001f0: b786 a13e afa2 823e 9c07 87be 67fc 03be
00000200: 5c41 073e 838b a6bd e33d 843e 3e14 e4bd
00000210: d712 53bd 9f8a a53e d033 a7bd f64d 93be
00000220: c1cf 213e 65c6 853e 27de 41be f4e5 023e
00000230: 814d e2bd dc14 5e3e 01f4 b0bd f4df 48be
00000240: fd99 683d 08fc 883e 042c c2bc 8834 0ebd
00000250: dfc9 18bc b282 513c b0fb 013e 71aa bbbc
00000260: 39fa 0abe 6cc6 32be 533c 4ebe b81c 143e
00000270: 3e50 50be 7266 57be a63c 5d3e 62b5 f7bd
00000280: 83cb 6c3d ae86 083e c74b b2be 6207 ac3d
00000290: 3aa8 413d 696c 0e3d f1f1 833e 60b6 a63e
000002a0: 1643 29be 1682 b8bd d39d aa3e f435 b0be
000002b0: 82da d9bd 6675 623e ffeb a7be 05a4 033e
000002c0: 0186 ac3e 88d7 123e 5486 aebe a145 9c3e
000002d0: fa46 593e 10d6 253e 7e72 11bc de1b 79be
000002e0: f5b1 8f3e a134 a33e 8e7d 313d 462e 2c3e
000002f0: 2be4 5b3e 3122 1abc 7df8 1e3c 23a2 f73c
00000300: 5b26 be3c 7eb3 8ebd a6b4 403e c2d4 b2be
00000310: 637a a0be b269 fbbd d2ff 99be a420 193c
00000320: ff46 8e3e 309a 603e a89b 22be f06e 42bd
00000330: 3921 1a3d 5c2c 893d 6adc 233e 451c 23be
00000340: 4d22 b23c ecd3 aebe 9bab c83d b528 963e
00000350: bbb1 223c ffb8 7f3e 0d1e cc3d af08 633e
00000360: e69b 7d3e 3bc0 a4be 2e8e 96be b427 84be
00000370: adca 35be 366b 0f3e 02ab 413e 4210 623e
00000380: 5928 70be 36c2 083e 4bcc 13be 83e2 abbe
00000390: 6914 ed3b 4766 8e3d 053b 8b3e dec5 8c3e
000003a0: e111 aebe 20e0 993e ff81 063d 2bcf 38bd
000003b0: 0e8b 7e3e 817b 663e 0ff5 7f3e 49a5 3a3e
000003c0: 687a 92bc 6e19 2a3e e3c4 7e3e 6f9f a13e
000003d0: f076 ca3d cc94 113d 07f5 853e 9f0c 843d
000003e0: d70e a63b 95f6 a33e 1f76 983e 8a87 b0be
000003f0: 87ea acbe 1104 893e 461f e83c fab9 96be

encoder1.weight_hh_l0 f4 [32, 8]
0.33917308 -0.25941157 0.009292771 -0.08365059 -0.1837889 -0.17761505 -0.056055944 -0.30001998
-0.33937743 0.0925331 -0.2376065 0.13150755 0.34233752 0.30164716 0.20961961 -0.07792834
-0.23359106 -0.23698874 0.15510032 0.26500311 -0.0620902 0.2937719 -0.35199344 0.08556961
0.009401372 0.049066085 0.16346039 -0.16506164 0.23370078 0.0025270095 0.054890368 0.19803563
-0.18083675 -0.34929612 0.31652915 -0.28695115 -0.031766143 0.24817121 0.27947152 0.24034458
-0.022594761 -0.3054919 0.1955261 0.32199165 0.33136728 0.2371592 0.32360187 0.25647154
-0.34912777 -0.064686626 0.07735577 0.12674797 -0.10493526 -0.3509956 -0.3416649 0.31653318
0.19421662 0.13643473 0.07474224 0.25821084 -0.05857448 -0.1453514 0.32026643 0.10306909
-0.21262614 0.21723126 -0.15501131 -0.20168927 -0.24428193 -0.045700554 0.038604725 -0.23279025
0.10232078 0.24146384 -0.2401402 0.089093596 0.13000143 -0.1417527 0.07230609 -0.30572116
-0.33393484 -0.02150013 -0.087057486 -0.17533985 -0.019589292 -0.27392852 -0.17856014 0.19564897
0.17695281 0.17294571 -0.23935544 0.12915069 -0.23411033 -0.30725124 -0.018520769 0.13961512
0.34186772 0.14053315 -0.027995376 0.29141623 0.11323763 0.0686479 -0.29528636 0.09677242
-0.34985316 0.31819388 -0.3199588 -0.2600953 -0.10292043 -0.3479594 0.0851512 0.21696384
-0.22382359 0.22462007 -0.2820462 0.23688495 -0.14345364 0.16760573 0.16467056 0.25524423
-0.014884378 -0.10777342 -0.21269538 -0.32544276 0.06284585 0.033807844 -0.045546416 -0.09471193
0.33233413 0.12015212 -0.1605395 0.018114634 0.12379769 0.27621862 0.3388327 0.32761493
-0.22008748 0.0008101883 0.29683277 -0.19762379 0.14477688 0.09327473 0.04510851 -0.21897344
0.21382673 -0.28538874 -0.1338997 -0.2944329 -0.19475381 0.24658746 0.24251744 0.16716243
0.32985887 0.27126768 -0.05924974 0.35208496 -0.09144883 0.110257246 0.03586538 0.036901806
0.22271062 0.1532949 -0.007940493 0.1934384 0.07133473 0.20928091 0.12542343 -0.1667819
0.08865407 -0.26116976 0.3065814 0.34792933 -0.2242352 0.29171458 0.3295578 -0.07222343
0.14443812 -0.2482655 -0.009943551 0.30665508 0.2970056 -0.3235211 0.097465575 -0.14996009
-0.33448267 0.2526264 -0.22233112 0.24554242 0.31347898 0.18846944 -0.21334174 0.31935188
0.1865716 -0.32067168 0.02256918 0.23174176 -0.2884668 0.13900821 -0.238901 -0.33245793
0.18607938 0.20356461 -0.3518616 0.2044963 0.23519515 0.24780916 -0.20392017 0.13044596
0.20638874 -0.028116161 -0.010949715 -0.11672071 0.11776813 -0.21775974 -0.010344644 0.3355376
-0.17578156 -0.13317135 0.30228475 -0.043108527 -0.06174722 -0.08249606 -0.23098105 -0.29114798
-0.07785383 0.030272389 -0.1151484 0.2256942 0.2204308 -0.04118067 0.13239166 0.19305441
-0.33069348 0.19758318 -0.19965498 0.3235964 -0.025958398 0.04681583 -0.34172812 0.27881408
0.12259045 0.23377326 -0.093310796 0.28601837 -0.32049668 0.05377668 0.026985833 0.12009692
-0.14819115 -0.29855996 -0.20826636 0.060913976 0.10181513 -0.0441539 0.33698443 -0.24211714
00000000: 18a8 ad3e 98d1 84be b540 183c 0051 abbd
00000010: 2833 3cbe b8e0 35be eb9a 65bd 389c 99be
00000020: e1c2 adbe fe81 bd3d 1e4f 73be eaa9 063e
00000030: dd46 af3e 7f71 9a3e 86a6 563e e598 9fbd
00000040: 7f32 6fbe 2dad 72be 9ed2 1e3e 7dae 873e
00000050: 4b52 7ebd 4569 963e 7c38 b4be 1f3f af3d
00000060: 3608 1a3c 85f9 483d 2962 273e eb05 29be
00000070: 424f 6f3e 2f9c 253b b9d4 603d dac9 4a3e
00000080: 452d 39be f1d6 b2be 1c10 a23e 43eb 92be
00000090: 371d 02bd 9820 7e3e e416 8f3e e41c 763e
000000a0: a618 b9bc 6f69 9cbe fe37 483e 17dc a43e
000000b0: f9a8 a93e dcd9 723e 25af a53e 3d50 833e
000000c0: e0c0 b2be 6c7a 84bd b46c 9e3d 38ca 013e
000000d0: 4ce8 d6bd b2b5 b3be b4ee aebe a310 a23e
000000e0: b9e0 463e 8cb5 0b3e 7612 993d 3634 843e
000000f0: cbeb 6fbd ffd6 14be f6f9 a33e e315 d33d
00000100: abba 59be df71 5e3e 49bb 1ebe a287 4ebe
00000110: 0b25 7abe 8130 3bbd fd1f 1e3d 9160 6ebe
00000120: 8f8d d13d 4c42 773e 50e7 75be b476 b63d
00000130: 181f 053e 9f27 11be 3715 943d 7c87 9cbe
00000140: 82f9 aabe 0a21 b0bc 324b b2bd 4a8c 33be
00000150: b979 a0bc 5c40 8cbe 78d8 36be 3458 483e
00000160: 1e33 353e ae18 313e 9819 75be 1440 043e
00000170: 9eba 6fbe 0950 9dbe deb8 97bc 44f7 0e3e
00000180: 4909 af3e ece7 0f3e 8f56 e5bc 8234 953e
00000190: 21e9 e73d 4597 8c3d c62f 97be 9e30 c63d
000001a0: f41f b3be 4fea a23e a4d1 a3be 362b 85be
000001b0: f2c7 d2bd bc27 b2be c163 ae3d c52b 5e3e
000001c0: 0332 65be ce02 663e 5c68 90be f891 723e
000001d0: 83e5 12be d6a0 2b3e 669f 283e 5faf 823e
000001e0: 9bdd 73bc 50b8 dcbd d1cc 59be 6fa0 a6be
000001f0: 53b5 803d 187a 0a3d e18e 3abd 54f8 c1bd
00000200: b327 aa3e 5112 f63d 7764 24be 2465 943c
00000210: a589 fd3d 876c 8d3e 7b7b ad3e 25bd a73e
00000220: 9d5e 61be d162 543a 77fa 973e e45d 4abe
00000230: 6440 143e d206 bf3d b3c3 383d 933a 60be
00000240: 65f5 5a3e 791e 92be 011d 09be e9bf 96be
00000250: 8b6d 47be 6c81 7c3e 7e56 783e a12c 2b3e
00000260: 43e3 a83e 99e3 8a3e dbaf 72bd 7b44 b43e
00000270: 8649 bbbd 8dce e13d 94e7 123d 5926 173d
00000280: 410e 643e 57f9 1c3e d718 02bc b714 463e
00000290: f117 923d bc4d 563e 006f 003e e0c8 2abe
000002a0: 4490 b53d 0bb8 85be 3df8 9c3e cb23 b23e
000002b0: ea9d 65be 9d5b 953e cdbb a83e e1e9 93bd
000002c0: 96e7 133e 5039 7ebe 47ea 22bc e501 9d3e
000002d0: 1e11 983e 8fa4 a5be 089c c73d 238f 19be
000002e0: 5041 abbe 3f58 813e c5aa 63be 796f 7b3e
000002f0: 5180 a03e 22fe 403e 4276 5abe 1782 a33e
00000300: a00c 3f3e 142f a4be 00e3 b83c b64d 6d3e
00000310: ecb1 93be 2b58 0e3e 77a2 74be ed37 aabe
00000320: 988b 3e3e 3e73 503e 3427 b4be 7a67 513e
00000330: ffd6 703e afc1 7d3e 73d0 50be a093 053e
00000340: 9257 533e dd53 e6bc 6f66 33bc 450b efbd
00000350: 6b30 f13d 69fc 5ebe 957c 29bc 96cb ab3e
00000360: 1500 34be 125e 08be 11c5 9a3e 9192 30bd
00000370: a7ea 7cbd b2f3 a8bd 4c86 6cbe 5911 95be
00000380: d471 9fbd cdfd f73c edd2 ebbd 611c 673e
00000390: 9db8 613e 10ad 28bd ae91 073e 0eb0 453e
000003a0: a850 a9be 3f53 4a3e 5b72 4cbe 6dae a53e
000003b0: b5a6 d4bc f5c1 3f3d fdf6 aebe b8c0 8e3e
000003c0: b410 fb3d 4262 6f3e bb19 bfbd 0071 923e
000003d0: 2418 a4be f044 5c3d 6511 dd3c 60f5 f53d
000003e0: 6cbf 17be dadc 98be c743 55be ef80 793d
000003f0: 7384 d03d b8da 34bd 3989 ac3e 8eed 77be

encoder1.bias_ih_l0 f4 [32]
0.17165804 -0.27146238 -0.06323963 0.24801269 0.0786838 0.24509531 -0.018639164 0.05673369
0.080077484 0.27526245 -0.12244625 -0.007998161 0.26514795 -0.1800572 0.005477603 -0.34345558
0.08234981 0.21968272 0.22912906 0.21650687 0.24159011 -0.054932024 0.20566168 0.23268278
-0.31484854 0.31346288 -0.34889227 -0.2658301 -0.1694825 -0.2041501 -0.26806074 -0.16284941
00000000: 20c7 2f3e 1efd 8abe c783 81bd 0af7 7d3e
00000010: f924 a13d 44fa 7a3e 29b1 98bc 9661 683d
00000020: aaff a33d 33ef 8c3e 19c5 fabd b80a 03bc
00000030: 79c1 873e ea60 38be 777d b33b 69d9 afbe
00000040: 04a7 a83d 82f4 603e cfa0 6a3e fab3 5d3e
00000050: 6663 773e 6700 61bd fa98 523e 6544 6e3e
00000060: d433 a1be 357e a03e 02a2 b2be e21a 88be
00000070: d28c 2dbe b90c 51be 423f 89be ffc1 26be

encoder1.bias_hh_l0 f4 [32]
0.12681863 -0.13386054 0.33602467 0.12917969 0.15719043 0.3479415 0.08314207 0.24103037
0.26071534 -0.069175154 0.09267754 -0.22422187 0.04498207 -0.08785703 -0.22453198 0.21938285
0.18224439 0.3060358 0.24345563 0.14212099 -0.034943778 -0.19505447 -0.2585622 -0.16630791
0.072095886 0.3251436 -0.05413937 -0.034000985 -0.30743137 0.19518693 -0.2029976 0.027270949
00000000: bedc 013e bd12 09be 6d0b ac3e ae47 043e
00000010: 87f6 203e 6325 b23e 6446 aa3d aad0 763e
00000020: 7b7c 853e b4ab 8dbd b9cd bd3d 6b9a 65be
00000030: 1e3f 383d 63ee b3bd b6eb 65be e6a5 603e
00000040: 469e 3a3e b9b0 9c3e 6f4c 793e 2a88 113e
00000050: 3521 0fbd 5cbc 47be 4462 84be 9f4c 2abe
00000060: 02a7 933d 3979 a63e 3ec1 5dbd 9e44 0bbd
00000070: a567 9dbe 15df 473e 9ade 4fbe 5367 df3c

encoder2.weight_ih_l0 f4 [16, 8]
0.45916218 0.49365032 -0.32867855 -0.48425296 0.27818978 0.03178336 0.01957477 0.14393428
-0.05847382 0.07389385 -0.08017214 -0.23154035 -0.46078548 -0.2155817 -0.29034966 -0.4790538
0.40793422 0.17009689 0.23456934 0.29188868 0.2671391 -0.22016752 0.48137727 0.13040702
-0.48360473 0.2744282 0.34589577 -0.19584022 0.49902385 -0.13892114 -0.18614115 0.071362644
-0.3265595 0.27696788 -0.21125618 0.17985797 -0.34886312 -0.4180775 0.4267948 -0.34353894
-0.39251405 -0.2033202 -0.26672447 -0.09450882 -0.22315416 -0.20512602 -0.44471407 -0.14173575
-0.018544257 0.33120307 0.056272697 0.27916047 -0.43375328 -0.04547749 0.31424403 -0.45363072
0.17434454 -0.43706384 0.19900043 0.09278685 0.28667116 -0.36573297 -0.015266389 0.04113101
0.4216858 -0.02513305 0.15416104 -0.3888042 -0.038017236 -0.29764965 0.49620092 0.29971528
0.491843 0.12019414 -0.09545249 -0.24760264 0.12425061 0.012130401 0.39440542 0.11889577
0.14936319 -0.14969361 -0.21947998 -0.007863029 -0.12872185 -0.010015913 0.16616961 -0.32165262
0.19567731 0.02256873 -0.067198224 -0.38650554 -0.45585257 0.165357 -0.2732765 0.2725313
0.1346748 -0.15854861 -0.07293297 0.030177012 -0.02800291 -0.39238298 -0.09793196 -0.13961206
-0.08394148 0.33343416 -0.34223324 0.31357843 0.2518156 0.11719372 0.09113995 0.4168098
-0.36265522 -0.0875565 0.42842242 0.18644883 0.03109562 0.4310727 -0.1997695 0.006283021
-0.31328213 0.35167468 0.21290727 0.37398756 0.019611146 0.32773247 0.12582004 -0.03483384
00000000: 4e17 eb3e bcbf fc3e 8e48 a8be 01f0 f7be
00000010: e46e 8e3e 452f 023d 455b a03c 8263 133e
00000020: 3f82 6fbd a955 973d 4a31 a4bd ea18 6dbe
00000030: 13ec ebbe 73c1 5cbe b6a8 94be 8a46 f5be
00000040: c1dc d03e e12d 2e3e f232 703e 6f72 953e
00000050: 75c6 883e 9873 61be 1577 f63e 6b89 053e
00000060: 0a9b f7be da81 8c3e 4019 b13e 578a 48be
00000070: 0e80 ff3e 5841 0ebe c99b 3ebe 9426 923d
00000080: cf32 a7be bcce 8d3e 8a53 58be b02c 383e
00000090: 309e b2be 410e d6be d984 da3e 56e4 afbe
000000a0: 9af7 c8be 2c33 50be 1c90 88be d78d c1bd
000000b0: 8682 64be 8e0c 52be 90b1 e3be 2d23 11be
000000c0: 20ea 97bc 7393 a93e 337e 663d 1fee 8e3e
000000d0: e914 debe 9b46 3abd 98e4 a03e 4942 e8be
000000e0: 6087 323e d5c6 dfbe c5c6 4b3e 0807 be3d
000000f0: 90c6 923e 5a41 bbbe e01f 7abc fd78 283d
00000100: 34e7 d73e d3e3 cdbc 64dc 1d3e 5811 c7be
00000110: f6b7 1bbd 8965 98be 0c0e fe3e 4874 993e
00000120: d8d2 fb3e 5828 f63d 987c c3bd 8c8b 7dbe
00000130: 1b77 fe3d 97be 463c 82ef c93e a07f f33d
00000140: aaf2 183e 4849 19be 5cbf 60be efd3 00bc
00000150: a9cf 03be c919 24bc 5e28 2a3e a7af a4be
00000160: a25f 483e 0fe2 b83c 399f 89bd 0ee4 c5be
00000170: 8265 e9be 5853 293e e6ea 8bbe 3989 8b3e
00000180: 31e8 093e 915a 22be e25d 95bd c835 f73c
00000190: 5c66 e5bc 6ce6 c8be 8d90 c8bd 77f6 0ebe
000001a0: 83e9 abbd e2b7 aa3e 3239 afbe 5a8d a03e
000001b0: f9ed 803e 4303 f03d 95a7 ba3d 1868 d53e
000001c0: f2ad b9be d350 b3bd 2f5a db3e 71ec 3e3e
000001d0: 3ebc fe3c 90b5 dc3e 6090 4cbe cde1 cd3b
000001e0: 8466 a0be b40e b43e 5d04 5a3e 4c7b bf3e
000001f0: 8ea7 a03c 8dcc a73e f8d6 003e eead 0ebd

encoder2.weight_hh_l0 f4 [16, 4]
-0.28559446 0.23825052 0.103643715 0.37211183 -0.3036357 -0.37732714 0.28271103 -0.07722074
0.08945908 0.31939209 0.09047433 -0.07529418 -0.17055684 0.05693743 0.13961542 -0.059943803
0.31388175 0.09351404 -0.07053252 -0.3748363 0.42400345 -0.24087268 0.12555188 0.49806863
-0.06009894 -0.47024593 0.21199636 0.36377198 0.21782798 -0.0013373805 0.2674762 -0.41697285
-0.39234415 0.42085195 0.49755383 0.24305856 0.10899982 0.22123379 -0.04605094 -0.25627375
-0.35590953 0.16716184 0.47534835 0.4150494 -0.083202116 0.45050585 -0.23831192 0.35099334
0.051478747 0.38113707 0.3349012 -0.4486233 -0.00564903 0.11629051 -0.38390374 -0.3829614
0.3362515 0.27046892 -0.21496509 -0.19604513 -0.30279124 -0.1291963 -0.07273816 0.21773683
00000000: 7039 92be f2f7 733e 2843 d43d 7185 be3e
00000010: 2376 9bbe 0631 c1be 80bf 903e e825 9ebd
00000020: 5236 b73d 5c87 a33e 9b4a b93d d633 9abd
00000030: 74a6 2ebe 3937 693d 58f7 0e3e a287 75bd
00000040: 1cb5 a03e 4a84 bf3d 5b73 90bd 8bea bfbe
00000050: fb16 d93e 54a7 76be ac90 003e da02 ff3e
00000060: 4e2a 76bd 13c4 f0be 9315 593e 5240 ba3e
00000070: 4c0e 5f3e 0b4b afba a4f2 883e 777d d5be
00000080: 55e1 c8be e879 d73e 60bf fe3e 58e4 783e
00000090: 4c3b df3d 1c8b 623e e99f 3cbd 5036 83be
000000a0: c639 b6be 792c 2b3e dc60 f33e 5b81 d43e
000000b0: df65 aabd b4a8 e63e 0a08 74be 66b5 b33e
000000c0: 61db 523d 6624 c33e 2c78 ab3e f4b1 e5be
000000d0: 801b b9bb b829 ee3d 088f c4be 8413 c4be
000000e0: 2829 ac3e e77a 8a3e cf1f 5cbe 0ec0 48be
000000f0: 7407 9bbe 094c 04be bff7 94bd 67f6 5e3e

encoder2.bias_ih_l0 f4 [16]
-0.0750599 -0.33841807 0.026503427 0.10382275 -0.34229663 0.16263844 -0.46762216 0.15047358
0.252967 -0.12292439 0.46164382 -0.26971418 0.34791216 -0.03617836 -0.34119496 -0.45319885
00000000: 01b9 99bd 2245 adbe b71d d93c 06a1 d43d
00000010: 8141 afbe b18a 263e 2c6c efbe bf15 1a3e
00000020: e484 813e c8bf fbbd 945c ec3e fa17 8abe
00000030: 8b21 b23e c32f 14bd 1bb1 aebe ae09 e8be

encoder2.bias_hh_l0 f4 [16]
0.38476217 0.01758926 0.0039389576 0.317531 0.16946678 -0.1930096 -0.093248725 -0.21016218
-0.4336676 0.37490314 -0.16850074 0.46088505 -0.37283447 -0.22949407 0.41077211 -0.1763097
00000000: 8cff c43e 5a17 903c 5f12 813b 6c93 a23e
00000010: b388 2d3e 4fa4 45be 30f9 bebd c134 57be
00000020: ae09 debe 4ef3 bf3e 758b 2cbe 20f9 eb3e
00000030: 29e4 bebe 7e00 6bbe b950 d23e 888a 34be

decoder1.weight_ih_l0 f4 [32, 4]
-0.28538036 -0.10148869 0.27982673 0.15038453 0.0841382 0.1660146 0.21504332 0.24002638
-0.22122653 -0.0711056 0.1992396 -0.10408402 -0.070491 -0.18994877 -0.16754837 -0.32825315
0.28798002 -0.26064914 -0.088470325 -0.073207915 -0.15173571 -0.086418584 0.005511509 0.29755303
-0.2819682 0.29016027 0.29108915 -0.0863235 0.29050785 0.26751563 0.29502162 -0.21999876
-0.24678661 0.13466907 0.18599422 0.115302466 -0.13822983 -0.18531504 0.0780496 -0.071387835
-0.28271878 0.25162247 0.081556216 0.26261356 0.117870875 -0.023261188 -0.049360942 -0.13725953
-0.18849564 -0.16328348 0.28956428 -0.26062492 0.15732248 0.06222533 0.1989827 -0.19973303
0.17343199 0.088432364 0.056878753 -0.26976132 0.16069335 -0.21019517 -0.026511285 0.3503802
-0.34898537 -0.30002457 0.11992815 0.034797773 0.04079197 -0.29159892 0.04409813 0.21333258
-0.072810955 -0.025057612 -0.0057185297 -0.102796674 -0.23696475 -0.18957792 0.13450715 -0.27712935
0.13678612 0.079130195 -0.3376532 -0.23942164 -0.20389457 -0.34311995 -0.05158393 0.2206619
0.059801478 0.2602568 -0.32845557 0.17882958 -0.16908541 0.06654768 -0.10819593 -0.3213971
0.17603971 -0.13552319 -0.23732878 0.28362006 0.028214507 -0.28924677 -0.3498119 0.0708699
-0.24043666 0.088614255 -0.020426286 -0.24786867 0.03397802 -0.09508869 -0.17190702 -0.35171887
-0.31558862 -0.14463422 -0.20111762 0.29575846 0.024723846 0.14359899 -0.24995296 0.13037919
0.30424717 0.21211514 -0.01746254 -0.29044348 0.34074208 0.22862801 0.008164835 -0.19314617
00000000: 601d 92be 4dd9 cfbd 7345 8f3e 67fe 193e
00000010: a650 ac3d bbff 293e 5134 5c3e 7ac9 753e
00000020: 3589 62be d09f 91bd 7705 4c3e 012a d5bd
00000030: 965d 90bd ee81 42be cd91 2bbe cc10 a8be
00000040: 1e72 933e ce73 85be ee2f b5bd 08ee 95bd
00000050: 9b60 1bbe 3afc b0bd e399 b43b df58 983e
00000060: 235e 90be e38f 943e a309 953e 60ca b0bd
00000070: 72bd 943e cff7 883e 130d 973e 5b47 61be
00000080: a1b5 7cbe b0e6 093e 4575 3e3e b323 ec3d
00000090: 1f8c 0dbe 3ac3 3dbe 78d8 9f3d c933 92bd
000000a0: 84c0 90be a9d4 803e f206 a73d 4975 863e
000000b0: 4966 f13d 3f8e bebc b32e 4abd c38d 0cbe
000000c0: 0005 41be c933 27be c541 943e a170 85be
000000d0: 2519 213e fddf 7e3d 1fc2 4b3e d186 4cbe
000000e0: 2898 313e 071c b53d b2f9 683d 281e 8abe
000000f0: cc8c 243e 673d 57be 322e d9bc 0965 b33e
00000100: 36ae b2be d29c 99be e49c f53d 1c88 0e3d
00000110: 7b15 273d 744c 95be 3ea0 343d db73 5a3e
00000120: e91d 95bd 9f45 cdbc 8162 bbbb 1087 d2bd
00000130: e3a6 72be b720 42be 3ebc 093e e6e3 8dbe
00000140: a911 0c3e 030f a23d e1e0 acbe f22a 75be
00000150: bdc9 50be 6bad afbe ac49 53bd 31f5 613e
00000160: 65f2 743d 6140 853e 542b a8be 1a1f 373e
00000170: ba24 2dbe 264a 883d d495 ddbd 298e a4be
00000180: c143 343e 97c6 0abe 5106 73be a636 913e
00000190: 1c22 e73c 2718 94be 8c1a b3be 3d24 913d
000001a0: 0735 76be 647b b53d 0755 a7bc 49d1 7dbe
000001b0: 892c 0b3d dcbd c2bd 6508 30be 7f14 b4be
000001c0: d594 a1be fe1a 14be c7f1 4dbe a76d 973e
000001d0: aa89 ca3c 9d0b 133e abf3 7fbe 1f82 053e
000001e0: 49c6 9b3e b634 593e 9a0d 8fbc 02b5 94be
000001f0: bf75 ae3e 761d 6a3e cdc5 053c 1cc8 45be

decoder1.weight_hh_l0 f4 [32, 8]
0.0060927016 0.3530876 0.08692593 -0.10220645 -0.147845 -0.17376171 0.22071281 -0.19719894
0.0376262 0.34296829 -0.16540214 -0.2305996 -0.31583148 -0.1878832 0.038910087 0.27426222
-0.3235011 0.022693288 0.10615518 0.27747908 0.27047047 -0.23356444 -0.1675087 -0.3454046
-0.2100067 0.29839578 -0.12107108 0.12607911 0.111963846 0.09180781 -0.12089597 -0.08881118
-0.18371332 0.16440208 -0.07371601 0.136936 -0.15162025 -0.026283601 0.18235576 0.18517089
0.014822587 0.24955986 0.23583344 -0.33739793 0.2298799 0.018042168 0.052673347 -0.13347471
-0.10458991 0.3262293 -0.03789009 0.17823064 -0.18313122 -0.08733354 0.15279648 -0.11121254
-0.24952976 -0.1978239 -0.2109766 0.29115406 -0.18580043 -0.10129103 -0.31212696 -0.21489935
-0.25374505 0.24908085 -0.10727622 0.048124667 0.121274926 -0.30248582 -0.18196683 -0.12677726
-0.25591773 0.28010944 -0.012333161 -0.12849747 -0.20481439 -0.058618687 -0.069335096 -0.0628083
-0.2912987 -0.12887445 -0.24664418 -0.17112032 -0.251525 -0.27422416 0.2729196 -0.02353386
0.33359656 0.086444356 0.17340803 0.056181617 0.0143262865 -0.12957956 0.25764292 -0.22757784
-0.116212115 -0.30819383 -0.15049021 0.20758764 -0.077847034 -0.1882297 0.3001269 -0.116749845
-0.3002126 -0.31841135 -0.10625721 -0.30217618 -0.1463687 -0.0653397 -0.05992035 0.23858592
0.15678823 0.32189867 -0.10128642 0.2752004 -0.097357035 0.22982416 0.3159239 -0.060515217
0.25396317 -0.16076279 -0.26357043 0.2548611 -0.32086176 -0.15382743 -0.20719674 -0.113322385
-0.16120034 0.07551026 -0.17436588 0.019254962 -0.17779344 -0.101659685 -0.26361406 -0.11409781
0.23964626 -0.30144367 -0.21013387 0.2729906 -0.30882642 0.054077238 -0.2862 0.25292104
0.20284 0.2028942 0.07319997 -0.22756253 0.19698885 0.24024823 -0.28763705 0.21981747
0.005416754 0.121821605 -0.33481815 0.3191054 -0.27445376 0.07483706 0.30710506 -0.2743801
0.29756472 0.28514192 0.1929036 -0.07744496 -0.05426421 -0.17830811 0.34882915 -0.10812321
0.18514475 -0.25601962 0.3348855 0.029531496 -0.28990173 -0.3483603 0.30235806 -0.35157147
-0.2970999 -0.12418833 -0.12689033 -0.17408839 0.32182702 0.28161684 0.11141178 0.25969175
-0.042188637 -0.20202163 0.21399105 0.015440584 -0.010086782 -0.16646259 0.2649065 -0.07912189
0.25437218 0.23462251 -0.08793706 0.03583463 -0.28435168 -0.2642928 0.050866652 -0.18058184
0.025188956 0.32657456 -0.08965561 -0.017521333 0.0002771104 0.30887744 0.14729452 0.021566957
-0.016187802 0.07187854 -0.051444955 0.23872916 -0.23029663 -0.2930943 0.0633212 0.15628707
-0.3049378 0.10551155 -0.32330823 0.26797095 0.16917725 0.20242818 0.34483737 -0.35336992
0.103531815 0.0293883 0.14318465 0.07693561 0.23794103 -0.057977833 0.35098153 -0.013735448
-0.08781695 -0.34261176 0.1442576 0.251265 -0.31198147 -0.14247896 0.09703094 0.20172507
0.0058037224 -0.04703902 -0.22838287 -0.12736738 0.20507345 -0.06947728 -0.22669756 -0.16542645
0.17132069 -0.2206004 0.10661573 0.2371914 0.27672353 -0.07344419 0.34297845 0.051899206
00000000: 49a5 c73b e6c7 b43e 3906 b23d 9e51 d1bd
00000010: ae64 17be 97ee 31be 8a02 623e 85ee 49be
00000020: ee1d 1a3d 8a99 af3e 2e5f 29be 4d22 6cbe
00000030: aab4 a1be 7464 40be 2f60 1f3d 196c 8c3e
00000040: f0a1 a5be 46e7 b93c e367 d93d bd11 8e3e
00000050: 1b7b 8a3e 842b 6fbe 6787 2bbe dfd8 b0be
00000060: ff0b 57be 55c7 983e 1df4 f7bd e21a 013e
00000070: 4d4d e53d bc05 bc3d 4e98 f7bd a3e2 b5bd
00000080: 581f 3cbe 0559 283e 6bf8 96bd f338 0c3e
00000090: 5742 1bbe b550 d7bc 78bb 3a3e 709d 3d3e
000000a0: 70da 723c 9f8c 7f3e 527e 713e 6cbf acbe
000000b0: a365 6b3e 2bcd 933c 02c0 573d 98ad 08be
000000c0: 3c33 d6bd 8707 a73e a432 1bbd 1882 363e
000000d0: c086 3bbe eddb b2bd ae76 1c3e 66c3 e3bd
000000e0: bb84 7fbe 5992 4abe 400a 58be 2512 953e
000000f0: 7842 3ebe ac71 cfbd 1bcf 9fbe 930e 5cbe
00000100: dfea 81be 0d0f 7f3e a3b3 dbbd 5f1e 453d
00000110: fd5e f83d 6cdf 9abe 8355 3abe e6d1 01be
00000120: a607 83be 816a 8f3e 0711 4abc d794 03be
00000130: ddba 51be 261a 70bd 8fff 8dbd a3a1 80bd
00000140: 1a25 95be aaf7 03be 4b90 7cbe 2a3a 2fbe
00000150: e3c7 80be 1c67 8cbe 1ebc 8b3e 15ca c0bc
00000160: 2bcd aa3e bd09 b13d e091 313e b21e 663d
00000170: cdb8 6a3c 81b0 04be c6e9 833e 2a0a 69be
00000180: 9e00 eebd 95cb 9dbe 1b1a 1abe db91 543e
00000190: 446e 9fbd 49bf 40be 3caa 993e 8b1a efbd
000001a0: 77b5 99be d006 a3be 619d d9bd d6b6 9abe
000001b0: ade1 15be d2d0 85bd 0a6f 75bd de4f 743e
000001c0: 188d 203e e7cf a43e 416f cfbd 11e7 8c3e
000001d0: 2063 c7bd 0657 6b3e c7c0 a13e cede 77bd
000001e0: 7607 823e 009f 24be b4f2 86be 277d 823e
000001f0: fe47 a4be f084 1dbe 622b 54be 9115 e8bd
00000200: b411 25be 20a5 9a3d f88c 32be 95bc 9d3c
00000210: 7c0f 36be f432 d0bd 6cf8 86be 1dac e9bd
00000220: d465 753e d356 9abe 552d 57be 6dc5 8b3e
00000230: 7f1e 9ebe 1880 5d3d ce88 92be de7e 813e
00000240: 4ab5 4f3e 7fc3 4f3e dee9 953d 2706 69be
00000250: 72b7 493e a203 763e 2a45 93be d517 613e
00000260: 077f b13b 9b7d f93d 496d abbe c861 a33e
00000270: 3485 8cbe 2c44 993d e03c 9d3e 8c7b 8cbe
00000280: 675a 983e 1ffe 913e 8588 453e 779b 9ebd
00000290: 2644 5ebd 6796 36be bc99 b23e b46f ddbd
000002a0: 9696 3d3e 0115 83be 1d76 ab3e 09ec f13c
000002b0: 006e 94be 485c b2be adce 9a3e 2d01 b4be
000002c0: 7a1d 98be 7356 febd 8aef 01be 3a44 32be
000002d0: 83c6 a43e 1530 903e dc2b e43d 51f6 843e
000002e0: fecd 2cbd c2de 4ebe 7820 5b3e 81fa 7c3c
000002f0: 0843 25bc 2b75 2abe d3a1 873e a80a a2bd
00000300: 123d 823e e240 703e 5818 b4bd 55c7 123d
00000310: 8b96 91be 6351 87be 8d59 503d 72ea 38be
00000320: 1259 ce3c c834 a73e 5c9d b7bd e688 8fbc
00000330: 2149 9139 2f25 9e3e 60d4 163e 30ad b03c
00000340: 489c 84bc 0e35 933d f2b7 52bd 6b75 743e
00000350: e1d2 6bbe 7510 96be 8cae 813d b809 203e
00000360: cf20 9cbe 7116 d83d a888 a5be 7d33 893e
00000370: cd3c 2d3e 5549 4f3e 868e b03e e7ec b4be
00000380: 7d08 d43d bbbf f03c ff9e 123e 6b90 9d3d
00000390: d0a6 733e 2a7a 6dbd dab3 b33e a50a 61bc
000003a0: 60d9 b3bd cf6a afbe 44b8 133e cea5 803e
000003b0: 09bc 9fbe 01e6 11be 28b8 c63d 0491 4e3e
000003c0: 272d be3b fdab 40bd 33dd 69be 986c 02be
000003d0: c6fe 513e 1b4a 8ebd 6823 68be 8d65 29be
000003e0: b16e 2f3e 12e5 61be 5959 da3d 4de2 723e
000003f0: b5ae 8d3e e869 96bd df9a af3e 4394 543d

decoder1.bias_ih_l0 f4 [32]
-0.04312697 0.1111431 -0.07961318 0.2868803 0.098056294 0.31484807 0.2181615 -0.12695013
0.3225245 0.1049091 0.03665306 0.013740792 -0.04559802 -0.19957851 -0.06769407 0.064456634
0.16836867 0.14769919 0.094289206 0.28037846 -0.05647484 -0.16253732 0.29228023 -0.30675846
0.0059857084 -0.044305507 -0.26551992 -0.30864847 0.08490485 0.17995529 -0.29517406 -0.30569148
00000000: e8a5 30bd fe9e e33d 3c0c a3bd fae1 923e
00000010: bdd1 c83d c433 a13e ba65 5f3e 37ff 01be
00000020: ee21 a53e 95da d63d 8521 163d 0f21 613c
00000030: fdc4 3abd 4f5e 4cbe 30a3 8abd d701 843d
00000040: d668 2c3e 753e 173e b31a c13d c48d 8f3e
00000050: 2952 67bd 2f70 26be c1a5 953e 720f 9dbe
00000060: c323 c43b b179 35bd 3af2 87be 2c07 9ebe
00000070: 98e2 ad3d 3346 383e 0e21 97be 9883 9cbe

decoder1.bias_hh_l0 f4 [32]
-0.32458583 0.20215455 0.20697972 0.26697344 0.12343598 0.073001094 -0.11909203 0.031910997
0.10812933 -0.340406 0.1909968 0.016416116 0.23061612 0.29015565 0.014079503 0.26770583
-0.09602505 -0.010609434 -0.09736309 -0.1306454 0.20376965 -0.10718786 0.18471178 0.15060169
-0.117930755 -0.02039397 0.034440137 0.20855483 0.14831947 0.022291373 -0.26842362 -0.33109906
00000000: 1d30 a6be 9a01 4f3e 7ef2 533e beb0 883e
00000010: 01cc fc3d 9981 953d 86e6 f3bd 1bb5 023d
00000020: e972 dd3d b249 aebe aa94 433e 177b 863c
00000030: a226 6c3e 488f 943e b7ad 663c bd10 893e
00000040: c8a8 c4bd 31d3 2dbc 4d66 c7bd e8c7 05be
00000050: fea8 503e 4f85 dbbd 1625 3d3e 5437 1a3e
00000060: ae85 f1bd 4111 a7bc 1a11 0d3d 668f 553e
00000070: 0fe1 173e 669c b63c d26e 89be d185 a9be

decoder2.weight_ih_l0 f4 [32, 8]
-0.12405472 -0.059639793 -0.0063905353 0.2897236 0.2036407 0.056487244 -0.096132465 -0.23129056
0.24425949 0.32839832 0.32576492 -0.2493128 0.16585131 0.20202725 0.28464416 0.078868285
-0.2521993 0.16993141 0.07530238 -0.13790196 -0.17270139 -0.332251 -0.08765575 -0.12456052
0.0064135273 -0.11668994 -0.15405023 -0.3428737 -0.04256401 0.33881062 0.33048788 0.052562404
-0.30093783 -0.028892865 -0.3371615 0.24058947 -0.26842263 0.14360842 0.34076124 -0.23185225
-0.34005025 -0.21062951 0.04483843 0.17858304 -0.18040267 0.18689579 0.21923304 -0.35000896
0.29247028 0.1502302 0.21040565 -0.07845572 -0.123735495 -0.21642888 -0.09553906 -0.3462936
-0.33825374 0.15436518 -0.24478355 0.26239872 0.14727779 -0.28713298 -0.10440345 -0.2819001
-0.11423404 -0.3269622 0.18875961 -0.11846911 0.22831632 -0.013751766 0.2461749 -0.1057334
-0.3378896 0.2522969 0.054344565 0.19492742 0.014304655 0.15823616 -0.2815572 0.25642136
0.18865444 -0.29537624 0.006361194 0.015119828 -0.2926463 0.2798362 -0.1194598 0.3131978
0.12941612 0.3481688 0.22332302 0.18609105 0.20272666 -0.013912787 -0.075825 0.093324624
-0.22654995 0.059475023 -0.3100309 0.11666034 0.11686668 -0.25154787 0.13248193 -0.13685969
-0.30444825 0.25431302 -0.13293137 0.18793185 0.16764055 -0.16790228 -0.3358756 -0.24863909
0.3424231 -0.3355219 0.26087478 -0.2577117 0.25744018 -0.2233192 -0.2516992 -0.13004714
-0.04272961 0.16728635 0.17873436 -0.3242407 0.21558182 -0.05751659 0.068349056 0.1793266
-0.3402134 0.10303471 -0.14340767 -0.31266785 0.031626534 0.33193654 -0.24404761 0.16007349
0.26042846 -0.13008165 0.101232216 0.24428967 -0.050213035 0.28342995 0.019013451 0.30483368
0.3239742 -0.25591856 0.27194685 -0.11142607 -0.00637401 -0.13809563 -0.18373139 -0.05849372
-0.26926532 -0.1556702 -0.07783343 0.12210594 -0.1013188 0.15109132 -0.32489234 0.26821905
0.20919222 -0.12617466 0.07453439 0.13520747 0.25582814 0.106014356 0.1430839 -0.25954652
-0.19594015 0.27069148 -0.258825 0.016359998 0.1602449 -0.2801056 0.16573432 -0.21231836
-0.15582564 -0.3192094 0.102504194 -0.194146 -0.28793538 -0.01156729 0.14486319 -0.13598044
0.07674469 -0.11674095 0.2325879 0.21235861 -0.05622329 -0.2185828 0.18385981 -0.1972276
-0.14346336 0.065108106 -0.2609118 -0.28865325 -0.22571796 0.17164806 0.06752753 -0.071040995
-0.28411502 -0.19400379 -0.32198957 0.05240471 -0.12832701 0.1617203 0.24344128 -0.19572617
0.16095291 0.32047352 0.24865606 0.16526559 -0.1279662 0.18710597 -0.043719336 0.27583578
-0.27988824 -0.12905952 -0.19240473 -0.21237661 0.1718159 0.0699036 -0.12545887 0.090511024
0.20451261 0.3471649 -0.02381184 -0.02376452 0.2878928 -0.20875522 -0.33778617 0.29291317
-0.2913458 0.052591383 -0.2548413 -0.15589792 -0.21574384 0.019155951 0.105665155 0.1028235
-0.22498587 0.26837268 0.2694082 0.10130224 0.0648892 -0.08048905 0.09936257 -0.019319585
-0.16204192 0.042365544 0.2675767 0.08265709 0.16653985 -0.21302764 -0.040849715 -0.15063153
00000000: 6710 febd db48 74bd b267 d1bb a756 943e
00000010: 3087 503e 2b5f 673d 19e1 c4bd 6fd7 6cbe
00000020: 291f 7a3e d323 a83e a9ca a63e db4b 7fbe
00000030: edd4 293e 3be0 4e3e e1bc 913e b285 a13d
00000040: 4420 81be 8002 2e3e 2238 9a3d 2c36 0dbe
00000050: a2d8 30be ce1c aabe dc84 b3bd 9619 ffbd
00000060: 9128 d23b 23fb eebd 58bf 1dbe 248d afbe
00000070: 9957 2ebd 9678 ad3e b535 a93e ad4b 573d
00000080: 8614 9abe bbb0 ecbc 6fa0 acbe 165d 763e
00000090: b16e 89be 160e 133e 4278 ae3e ad6a 6dbe
000000a0: 111b aebe 43af 57be 80a8 373d 79de 363e
000000b0: 7abb 38be 9c61 3f3e a07e 603e 6034 b3be
000000c0: aabe 953e f2d5 193e 9474 573e 64ad a0bd
000000d0: 0969 fdbd 889f 5dbe fca9 c3bd 654d b1be
000000e0: 982f adbe e811 1e3e 8aa8 7abe 2059 863e
000000f0: fdcf 163e 1803 93be 7ad1 d5bd 3655 90be
00000100: 89f3 e9bd 9767 a7be 334a 413e ef9f f2bd
00000110: c1cb 693e 164f 61bc 4615 7c3e c18a d8bd
00000120: deff acbe 0f2d 813e 6898 5e3d 0e9b 473e
00000130: 125e 6a3c a908 223e 4428 90be a949 833e
00000140: a12e 413e 8e3b 97be 9071 d03b 28b9 773c
00000150: bcd5 95be b146 8f3e 57a7 f4bd 765b a03e
00000160: a985 043e 2e43 b23e caae 643e a78e 3e3e
00000170: 9497 4f3e 75f2 63bc 234a 9bbd fb20 bf3d
00000180: b6fc 67be 159c 733d 5fbc 9ebe 9eeb ee3d
00000190: cc57 ef3d e2ca 80be 58a9 073e f224 0cbe
000001a0: a4e0 9bbe 5135 823e 291f 08be 3571 403e
000001b0: f7a9 2b3e 93ee 2bbe e3f7 abbe 3f9b 7ebe
000001c0: 1552 af3e 87c9 abbe 6191 853e caf2 83be
000001d0: 33cf 833e caad 64be b8de 80be 142b 05be
000001e0: 3e05 2fbd 1d4d 2b3e 2406 373e e102 a6be
000001f0: 7bc1 5c3e 8496 6bbd 97fa 8b3d 64a1 373e
00000200: 7330 aebe dd03 d33d 76d9 12be 0016 a0be
00000210: d38a 013d 96f3 a93e 9ee7 79be 4eea 233e
00000220: e156 853e 2034 05be d652 cf3d 1227 7a3e
00000230: 2fac 4dbd bb1d 913e 19c2 9b3c 2913 9c3e
00000240: f2df a53e c207 83be 9e3c 8b3e 5a33 e4bd
00000250: 12dd d0bb f168 0dbe 1524 3cbe 1c97 6fbd
00000260: 25dd 89be 0268 1fbe 2267 9fbd ae12 fa3d
00000270: 3b80 cfbd afb7 1a3e 4a58 a6be 0254 893e
00000280: 7c36 563e ee33 01be 7ca5 983d d473 0a3e
00000290: e8fb 823e 0e1e d93d 9684 123e 48e3 84be
000002a0: 89a4 48be 1398 8a3e b684 84be 6705 863c
000002b0: 3d17 243e 006a 8fbe 42b6 293e fc69 59be
000002c0: c290 1fbe 6a6f a3be b8ed d13d 36ce 46be
000002d0: 446c 93be bb84 3dbc 0457 143e 753e 0bbe
000002e0: 522c 9d3d e115 efbd 862b 6e3e 8974 593e
000002f0: 644a 66bd 2bd4 5fbe bf45 3c3e 08f6 49be
00000300: 0fe8 12be 6657 853d 3b96 85be 5cca 93be
00000310: 9c22 67be 82c4 2f3e e04b 8a3d f17d 91bd
00000320: 8677 91be eea8 46be d1db a4be 52a6 563d
00000330: 2868 03be 029a 253e ac48 793e 716c 48be
00000340: d7d0 243e 1b15 a43e b29f 7e3e 623b 293e
00000350: 9209 03be b598 3f3e 0c13 33bd 593a 8d3e
00000360: 834d 8fbe 2e28 04be bf05 45be 4179 59be
00000370: 82f0 2f3e 9e29 8f3d 4a78 00be d85d b93d
00000380: c16b 513e 99bf b13e 0c11 c3bc d0ad c2bc
00000390: af66 933e eec3 55be 4ff2 acbe b7f8 953e
000003a0: 472b 95be 106a 573d 8f7a 82be b4a3 1fbe
000003b0: f4eb 5cbe f1ec 9c3c f966 d83d 2195 d23d
000003c0: b262 66be 2568 893e dfef 893e 8c77 cf3d
000003d0: a1e4 843d 71d7 a4bd 9a7e cb3d 1b44 9ebc
000003e0: 51ee 25be 7e87 2d3d d0ff 883e 1f48 a93d
000003f0: 6c89 2a3e eb23 5abe 0852 27bd 273f 1abe

decoder2.weight_hh_l0 f4 [32, 8]
0.12121297 -0.12682456 0.18454751 -0.09299896 0.077555805 -0.28522196 -0.27794796 -0.025066357
0.1159761 0.32781112 -0.11779627 0.02851513 -0.18679711 -0.056930758 0.08205099 -0.05820593
-0.122206196 0.04071549 -0.073076375 0.27560875 -0.2805742 -0.15124898 -0.019231213 0.22641453
-0.22991644 0.34134412 0.30600223 -0.26182926 -0.3460433 -0.1852027 0.11070302 0.036282424
-0.014255883 0.07930638 -0.1453048 -0.0013176788 0.13351905 0.3393407 0.15530579 -0.25419688
-0.06486702 0.111817904 -0.3344293 0.14361756 -0.19110902 0.100261666 0.14414178 0.07642071
0.19129917 0.024545098 0.28828302 -0.0029738464 -0.24603857 0.0662164 -0.24060811 -0.250507
0.13405018 -0.34232554 -0.33264673 -0.22810908 0.07064148 0.15154237 0.080759354 0.045139123
0.3434979 0.21061537 0.34309694 -0.17514516 -0.30709007 -0.22654419 0.31140265 -0.15622772
-0.0038962828 0.084596984 0.049895212 -0.058866993 0.16022053 -0.13533689 0.32717198 0.28063843
-0.20963198 -0.00028705233 0.3394575 0.21392861 -0.34978938 0.25724438 -0.27389878 -0.037604105
0.28988624 -0.3446868 -0.16134228 0.16673832 0.22356497 -0.3424038 -0.049982443 -0.16987304
0.22802833 -0.032581344 -0.17479217 0.0831209 0.21862006 0.11471031 -0.24613383 -0.09149855
0.03949451 0.2915326 -0.09499916 0.20937066 -0.3012343 -0.15219314 0.1767372 -0.22026898
-0.12423654 0.050744098 0.20519873 0.22106214 0.018302089 -0.059967265 0.23770817 -0.05802551
-0.14429419 -0.066818975 0.32006562 0.2191947 0.039593287 -0.3002514 0.33818424 -0.095115066
0.22504057 0.2375056 -0.1640192 -0.09885713 0.25119427 0.3300448 -0.112616 0.19624726
0.30483177 0.22614592 0.0020258757 0.32694092 -0.103172764 0.096322395 -0.08121727 0.29097092
0.15038815 0.34740558 -0.16193135 0.142225 -0.16368724 -0.31187737 -0.24719477 -0.041067936
0.25020128 -0.3304379 -0.017558599 0.11553471 0.058203634 -0.16448882 -0.14057463 -0.202736
0.26614815 -0.14620446 0.22864936 0.108943485 0.32905504 -0.28606677 0.35174596 -0.28853896
-0.3223867 0.15603192 0.13572466 -0.01177942 -0.12784442 -0.048471786 0.18081295 0.29207203
0.3361229 -0.3057785 0.09252274 0.12994471 -0.06082129 -0.28353098 -0.08167666 -0.29630357
-0.045746777 -0.03025488 -0.22924533 -0.033692736 -0.14032795 0.1407363 -0.28069213 0.14609985
0.28457773 0.010309972 0.032035906 0.1124892 0.2053961 -0.25673303 -0.3233434 0.30153483
0.22924419 0.25366017 -0.25627276 0.19138159 -0.31165627 0.025830753 0.059022695 -0.025025051
-0.08666215 0.1536369 -0.04873525 0.28745434 -0.21631555 0.010075022 0.32051614 0.13112676
-0.042016912 -0.05910702 -0.3102064 0.22375414 -0.02076446 -0.06691635 0.33100897 0.06224039
0.30961588 -0.081192866 0.31832573 -0.0046053543 0.12404403 0.2654501 0.24855383 -0.35329255
-0.30507094 0.20631564 -0.08369401 -0.34074306 -0.20848183 -0.09883964 -0.19592966 0.113057114
-0.21568453 -0.08411541 -0.012368856 -0.10124166 -0.29150373 0.23408677 0.07081421 0.29622483
0.24448903 0.18020114 0.14681455 0.11268045 -0.30706453 0.1565461 -0.14869924 -0.04763255
00000000: 813e f83d 4cde 01be 06fa 3c3e 3d76 bebd
00000010: 94d5 9e3d 9d08 92be 324f 8ebe f657 cdbc
00000020: e184 ed3d dcd6 a73e 2c3f f1bd 9098 e93c
00000030: be47 3fbe 3a30 69bd 590a a83d 5769 6ebd
00000040: 3e47 fabd 49c5 263d 11a9 95bd 971c 8d3e
00000050: 6ca7 8fbe 03e1 1abe c78a 9dbc 36d9 673e
00000060: 376f 6bbe a8c4 ae3e 53ac 9c3e 7c0e 86be
00000070: 962c b1be c7a5 3dbe 44b8 e23d e19c 143d
00000080: 8291 69bc 626b a23d c8ca 14be f7b5 acba
00000090: 38b9 083e 10be ad3e 7b08 1f3e 1826 82be
000000a0: 00d9 84bd c900 e53d 513a abbe 7b10 133e
000000b0: 15b2 43be fd55 cd3d e799 133e 7682 9c3d
000000c0: eee3 433e cd12 c93c d599 933e dde4 42bb
000000d0: 89f1 7bbe 779c 873d f961 76be 7442 80be
000000e0: 7344 093e 4b45 afbe ac50 aabe 6d95 69be
000000f0: 7bac 903d ec2d 1b3e 2965 a53d cde3 383d
00000100: f5de af3e 8eab 573e 67aa af3e 4159 33be
00000110: e93a 9dbe 33fb 67be 2b70 9f3e 29fa 1fbe
00000120: c758 7fbb 2f41 ad3d ec5e 4c3d 841e 71bd
00000130: da10 243e c195 0abe 1683 a73e d7af 8f3e
00000140: c4a9 56be 837f 96b9 60cd ad3e 1a10 5b3e
00000150: 9817 b3be 89b5 833e 763c 8cbe c306 1abd
00000160: f86b 943e ca7a b0be e936 25be 73bd 2a3e
00000170: 37ee 643e 8d4f afbe 64ba 4cbd 33f3 2dbe
00000180: 4280 693e 0474 05bd b8fc 32be 4a3b aa3d
00000190: f0dd 5f3e 3ded ea3d 820a 7cbe 9763 bbbd
000001a0: ffc4 213d c343 953e eb8e c2bd 4365 563e
000001b0: 623b 9abe 85d8 1bbe 99fa 343e 318e 61be
000001c0: ba6f febd 0bd9 4f3d 9e1f 523e 1d5e 623e
000001d0: 43ee 953c 3ca0 75bd c569 733e 28ac 6dbd
000001e0: dbc1 13be 63d8 88bd a4df a33e 9374 603e
000001f0: 922c 223d 8dba 99be 7c26 ad3e b0cb c2bd
00000200: 0971 663e ab34 733e a6f4 27be 9b75 cabd
00000210: 899c 803e a2fb a83e 38a3 e6bd 0bf5 483e
00000220: e912 9c3e cc92 673e 8ec4 043b cd64 a73e
00000230: 3e4c d3bd ad44 c53d 3d55 a6bd 24fa 943e
00000240: 5aff 193e 25df b13e 55d1 25be 6ea3 113e
00000250: a19d 27be 64ae 9fbe a020 7dbe da36 28bd
00000260: 621a 803e 282f a9be 0dd7 8fbc 769d ec3d
00000270: ef66 6e3d c26f 28be ccf2 0fbe 079a 4fbe
00000280: 9244 883e 9fb6 15be 0f23 6a3e c31d df3d
00000290: e779 a83e 5877 92be 0c18 b43e 61bb 93be
000002a0: df0f a5be d5c6 1f3e 68fb 0a3e 78fe 40bc
000002b0: a6e9 02be 5a8a 46bd 0827 393e 778a 953e
000002c0: 4d18 ac3e 008f 9cbe 907c bd3d 3a10 053e
000002d0: bf1f 79bd f92a 91be 1846 a7bd 1ab5 97be
000002e0: f960 3bbd 15d9 f7bc 4abf 6abe 6501 0abd
000002f0: 21b2 0fbe 2d1d 103e e1b6 8fbe 339b 153e
00000300: 2cb4 913e 28eb 283c 1538 033d bd60 e63d
00000310: 5b53 523e 8372 83be 448d a5be c662 9a3e
00000320: fdbe 6a3e bfdf 813e 2f36 83be 89f9 433e
00000330: 6991 9fbe 049b d33c c8c1 713d 5601 cdbc
00000340: ed7b b1bd fe52 1d3e 9d9e 47bd 372d 933e
00000350: d381 5dbe b411 253c b11a a43e 1846 063e
00000360: ed19 2cbd 341a 72bd 60d3 9ebe ce1f 653e
00000370: 3b1a aabc 700b 89bd 027a a93e c7ef 7e3d
00000380: f985 9e3e 7248 a6bd 97fb a23e 83e8 96bb
00000390: cc0a fe3d 13e9 873e e584 7e3e c3e2 b4be
000003a0: 4232 9cbe 6844 533e c467 abbd e075 aebe
000003b0: 437c 55be 706c cabd c9a1 48be 7d8a e73d
000003c0: 68dc 5cbe b344 acbd bea6 4abc ca57 cfbd
000003d0: fa3f 95be 71b4 6f3e 0a07 913d c8aa 973e
000003e0: 555b 7a3e a686 383e 8e56 163e 02c5 e63d
000003f0: 9037 9dbe 9f4d 203e 9d44 18be 591a 43bd

decoder2.bias_ih_l0 f4 [32]
0.16292784 -0.33676183 0.31000516 -0.096180916 0.28218314 -0.26851776 -0.10689505 -0.009221434
0.008389909 -0.15351327 0.016991032 0.076293014 -0.30216348 0.045841873 -0.14919786 -0.34398773
-0.22818962 -0.15345407 -0.28354102 -0.34377277 -0.25450164 -0.20395045 -0.24993241 -0.3075097
0.15910514 0.044346124 -0.24654669 -0.20167887 0.19349846 0.29519117 -0.06730551 -0.3080028
00000000: 8ed6 263e 0c6c acbe ffb8 9e3e 80fa c4bd
00000010: 4f7a 903e 297b 89be cbeb dabd 7f15 17bc
00000020: d475 093c 9532 1dbe c730 8b3c 833f 9c3d
00000030: 2cb5 9abe b0c4 3b3d 53c7 18be 291f b0be
00000040: 8aaa 69be 1023 1dbe 4a2c 91be fc02 b0be
00000050: 0a4e 82be 63d8 50be 48ee 7fbe e971 9dbe
00000060: 75ec 223e 48a4 353d bc76 7cbe e884 4ebe
00000070: 7624 463e 4c23 973e 79d7 89bd 8bb2 9dbe

decoder2.bias_hh_l0 f4 [32]
0.009831245 -0.14106652 -0.353051 0.06491554 0.07197552 -0.011625435 0.1758304 0.018006386
-0.33970568 -0.32403114 0.22774245 0.08186676 -0.2191599 -0.13919681 -0.24563782 -0.29475135
-0.18000658 0.0877431 -0.028808832 0.15126899 0.282622 -0.09487865 -0.08087678 0.26509458
-0.032651212 0.049795926 -0.0044714618 0.059034448 -0.17436384 0.2900744 -0.28114885 -0.2229203
00000000: 3b13 213c be73 10be 1ac3 b4be 70f2 843d
00000010: e767 933d 9c78 3ebc e20c 343e 2182 933c
00000020: e7ed adbe 69e7 a5be 5135 693e c3a9 a73d
00000030: 746b 60be 9c89 0ebe 7b88 7bbe a6e9 96be
00000040: a553 38be a8b2 b33d 8000 ecbc 42e6 1a3e
00000050: d5b3 903e bd4f c2bd baa2 a5bd 7aba 873e
00000060: 47bd 05bd d0f6 4b3d 5785 92bb 1bce 713d
00000070: 6f8c 32be a284 943e bef2 8fbe 3845 64be
